models/ae.pt (torch, 28821 bytes, 14 tensors)

encoder.0.weight f4 [64, 8]
00000000: 2f78 adbe 61f1 923d e25a 8e3e 300c 903e
00000010: e744 483e 3a63 a3be d4df 783e ff92 9fbe
00000020: de92 a93b 4ebe 7dbe 2428 85be 4d36 57bd
00000030: f971 a4bb 925e d03d 3c75 e23d d0d6 7c3e
00000040: b1d9 723e 9a81 b53e 0620 97bb 4ac5 703e
00000050: 15e7 8fbe 044a fc3d 54d7 91be 735a fa3d
00000060: 93b3 1f3c 79d9 1bbb 0123 74be 26aa 70be
00000070: 790a 283d e261 18be 2e13 04bc 9aef 043e
00000080: 5f0f 3fbc bff9 fb3b 1bb9 78bc eb0d 0b3e
00000090: b671 a53c 0feb bd3e c5b7 f13c 56da 8ebe
000000a0: 0655 9c3e 2ba6 49be bb2a e33d d8e4 583e
000000b0: 0a07 403e 0162 923e 5038 12bd c359 513e
000000c0: 5f46 1bbe 2a26 3f3d 112c 673e a2fe 503e
000000d0: 49be 9bbe 4694 7a3d fd59 903d 75f5 11be
000000e0: 6868 873e 0a33 38bd 70e9 893e 8f3c 27be
000000f0: fb7f 873e 77c8 2a3e 6c2f 6e3c 31bf a03d
00000100: 4a1f 8ebd 3404 e33d 2061 6c3c 20b7 babc
00000110: d1ef ce3c 0414 36be ca89 933e 01ac 50be
00000120: 72ba 72be d61c debd 9124 7ebe fadf 8cbe
00000130: ce4f afbd e342 04be 0eb0 ff3c a6f2 283e
00000140: ff0e ec3d 215a 10be a265 b5be f25e 8dbd
00000150: 1fe8 8cbe 67ff 58be f2d8 6e3e 835d aabe
00000160: 4f90 ad3e f431 f7bd df55 a03e 8b16 353d
00000170: 6551 9cbe 1186 a7be 493d 663e 46aa 783e
00000180: d025 163e a0dc 3abe 61d7 51be 0069 873e
00000190: cf17 53be 7582 803e 284e cabb 8987 863e
000001a0: d5ab ad3c 1264 853e 4289 2d3e dab4 8b3d
000001b0: 0a8d 8a3e 7838 f73c 4eae aa3e 1d13 30bb
000001c0: 252f 7dbe 05dd 613e e7e9 d6bb b50c 9c3d
000001d0: c891 5a3e 4032 ad3d de6a b43c c034 d13d
000001e0: 012d f7bc d36e 36be 4b56 febd 2632 9e3d
000001f0: c125 203e 80af 9f3e 7ff6 29bd 7020 283d
00000200: ac2a 373e 8b7a 68be e125 403e b254 8dbe
00000210: afdd 763e 5b2f 4fbe 28d7 40be c318 6d3e
00000220: 099c 61bd 997d a4be 27c7 05be 0a4f 753e
00000230: 734d ec3d d5ad 103e c0df c6bd 3600 d8bd
00000240: 083f 9cbe 3b91 6bbe 38a6 2a3d 8d68 61be
00000250: c920 1c3e 4604 893d b437 083e 51a8 a43e
00000260: b0dc 9e3d c357 66be fe2b 1d3c 5b06 5bbe
00000270: 4d09 7c3d e3ef acbd ee70 34be f804 093e
00000280: 2dfb 7fbe d0e6 5e3d c32d 83be 60e3 0cbe
00000290: db2c 78be 40f7 1f3e 6474 1f3e d375 cb3b
000002a0: d41c 5fbe 2899 923e 1036 8a3a 81ad 5bbd
000002b0: 8ba8 8d3e 8a97 053d fa71 08be 3e69 7abd
000002c0: e233 bebd cd9c bebe 1607 16bd 8804 5abe
000002d0: 1274 2fbc 5a16 8b3e 4cd5 6fbe d918 1cbe
000002e0: 5c07 8fbe b2e3 a7be 5bc2 9d3e 780a b5be
000002f0: eef4 373d 6134 65be 2875 323e 6333 a7be
00000300: a410 a5be 2400 f2bc 92fb e7bd 12fa 34be
00000310: 7440 fb3d f7d8 76be 31f7 8cbd ef93 dc3c
00000320: 5aa0 3f3e bc7b d53d 401d fcbd cca1 8f3e
00000330: 6037 0bbc 1b5b b8bd d42b 9dba df36 173d
00000340: bae7 953e 5016 00bc 0ae0 6dbe c619 a3be
00000350: 1253 37be 6171 603d 24bc 343e 3680 d93c
00000360: b5e6 9fbe 03a6 073d 3b68 9dbe e05b 903e
00000370: 98b6 65be 823a 843d f3c1 ca3c b738 9ebe
00000380: c80b 893e 2649 6abe b2b2 4f3d bf5b 9c3e
00000390: d8e3 753c 8835 51bd 8106 52be d9e9 3bbe
000003a0: 1e45 82be bc00 a23e 9807 1d3e cd6a a23e
000003b0: 745d 113e 69a6 b83a 51cb 113e 220d b23d
000003c0: f448 acbd 78f8 6d3e 2aed 64be 0833 b0be
000003d0: 6853 d4bd f68c 97bd 0bcd 37be 3b85 5d3e
000003e0: e71e 8e3e bfd1 04be 721e cabe 703b 133e
000003f0: 70c6 88be aef0 83be 780a a1be 2c58 3ebc
-0.33880755 0.071749456 0.27803713 0.28134298 0.19557534 -0.3191164 0.24304134 -0.31166837
0.0051749786 -0.24779627 -0.26007187 -0.05254202 -0.0050184694 0.10174288 0.11057517 0.2469132
0.23715855 0.3545044 -0.004611972 0.2351276 -0.2810599 0.12318805 -0.28484595 0.12224283
0.009747404 -0.0023780747 -0.23841478 -0.23502406 0.041025613 -0.1488109 -0.008061213 0.12982026
-0.01166138 0.007689684 -0.015180851 0.13579528 0.020195823 0.37093398 0.029506573 -0.27900952
0.30533618 -0.19692294 0.110921346 0.21181047 0.18752685 0.28590396 -0.035698235 0.20444398
-0.15163563 0.046667255 0.22575404 0.20409635 -0.30418614 0.06117656 0.07048414 -0.1425379
0.26446843 -0.04497055 0.2693591 -0.16331695 0.2646483 0.16678034 0.014537673 0.07848967
-0.06939562 0.11084786 0.014427453 -0.022792399 0.025260838 -0.17781073 0.28816062 -0.20378114
-0.23703936 -0.10845344 -0.24818636 -0.2751463 -0.085601434 -0.1291614 0.03121188 0.16498813
0.11526298 -0.14096881 -0.35429102 -0.06902875 -0.27520844 -0.21191178 0.23324946 -0.3327447
0.3389916 -0.12070075 0.31315514 0.04421095 -0.3053085 -0.32719472 0.22484316 0.24283704
0.14662862 -0.18248224 -0.20492317 0.26447296 -0.20614551 0.2509953 -0.0061738677 0.2627528
0.0212001 0.2605291 0.16946891 0.06821604 0.2706073 0.030178294 0.3333611 -0.002686686
-0.24725015 0.22056969 -0.006558645 0.07619611 0.21344674 0.0845685 0.022023614 0.102151394
-0.030172827 -0.17815714 -0.12418803 0.07724409 0.15639402 0.31188583 -0.041494843 0.04104656
0.17887372 -0.22702996 0.1876445 -0.2760368 0.24108003 -0.20232908 -0.18832076 0.23153977
-0.055080447 -0.32127073 -0.13064252 0.23955932 0.1153821 0.14128812 -0.09710646 -0.10546915
-0.3051684 -0.2300462 0.041662425 -0.22012539 0.15246882 0.06690268 0.13302499 0.32159665
0.077569366 -0.22494416 0.009593008 -0.21389143 0.061532307 -0.08444192 -0.17621204 0.13380802
-0.2499816 0.05441934 -0.2562085 -0.13758612 -0.24235861 0.15621662 0.15571743 0.006209114
-0.21788341 0.28632474 0.0010544676 -0.053632263 0.2766765 0.032615222 -0.13324729 -0.061135523
-0.092872396 -0.37229005 -0.03662785 -0.21290791 -0.010708826 0.2716549 -0.2342121 -0.15243854
-0.27935302 -0.32790905 0.30812344 -0.3535955 0.044911318 -0.22383262 0.17427504 -0.32656392
-0.32239258 -0.029541083 -0.1132728 -0.17673519 0.12268153 -0.24106203 -0.068830855 0.026926009
0.18713513 0.10423991 -0.123102665 0.2805313 -0.008497089 -0.09001752 -0.0011991211 0.036917564
0.29278356 -0.00781782 -0.23229995 -0.318556 -0.17902783 0.054795627 0.17649895 0.026550394
-0.31230703 0.033117305 -0.30743584 0.28195095 -0.22432935 0.06456472 0.024750685 -0.30902645
0.267668 -0.22879466 0.050707527 0.30538747 0.015007935 -0.051076442 -0.20510294 -0.18350925
-0.25443357 0.31641185 0.15334928 0.31722108 0.14195806 0.001408768 0.14237715 0.08693911
-0.08412352 0.23239315 -0.22356096 -0.34413934 -0.10367471 -0.07399933 -0.17949311 0.21632855
0.27757952 -0.12970637 -0.39476353 0.14378142 -0.26713896 -0.25769562 -0.314533 -0.0116177015

encoder.0.bias f4 [64]
00000000: 83b4 0bbe 4db6 77be fe6a 853e 71dd 4d3e
00000010: 18dd 9ebe 6214 743c ddaa 5b3e 6e82 013e
00000020: 8b68 4b3e 5787 7bbe a235 5d3e f8ce 99be
00000030: 3602 463e 51ea 9bbd f405 5a3e 2268 083e
00000040: 0c7b 8cbe 2bb2 4d3e eece 12bd b13a 9c3e
00000050: 147a 643d 1924 663e f428 533e 3972 82bd
00000060: ec33 4ebe 6c63 3bbe 1ec7 1a3e 417f 6f3d
00000070: d298 b43e e16a 593e 0d0e 523e 794e f03d
00000080: f2a4 943d 6908 c7bd 28e5 25bd c413 08be
00000090: 09f9 703e 853d aa3e 10f0 6f3e 4f9e c1bd
000000a0: 0a00 adbe d0c8 bdbe 77f4 563e 2c73 2fbd
000000b0: db65 8cbe 1ecd 1dbe 2a62 fdbd e5f0 363e
000000c0: 5dcf 1e3e 6d8e 6b3d 65c6 de3d 8770 7a3d
000000d0: 3421 253d 6443 5cbe 23dd a63e dd6e b8be
000000e0: dfe6 373e 0355 9abe 8d8e a73d 4931 a8be
000000f0: 283c 61bc 48e2 6a3e cdd7 163e 0480 10be
-0.13643079 -0.24190636 0.2605819 0.20104004 -0.31028056 0.014897438 0.21451898 0.12647411
0.19864099 -0.24563347 0.2160249 -0.30040717 0.19336781 -0.07613052 0.21291333 0.13320974
-0.27437627 0.20087497 -0.035841875 0.30513528 0.055780485 0.22474708 0.20621091 -0.063694425
-0.20136994 -0.18299645 0.1511502 0.05847097 0.35272843 0.21232177 0.20513172 0.117337175
0.07258023 -0.09718401 -0.040501744 -0.1328879 0.235325 0.3325006 0.2343142 -0.09454023
-0.33789092 -0.3706727 0.20991693 -0.042834446 -0.2742146 -0.15410277 -0.12372239 0.17865331
0.1550879 0.057508875 0.108776845 0.06114247 0.040314868 -0.21510082 0.3259059 -0.36022082
0.17959164 -0.30142984 0.08181486 -0.32850102 -0.0137472525 0.22937882 0.14730759 -0.14111334

encoder.2.weight f4 [32, 64]
00000000: c1d9 643d 7cff d73d 0538 aa3d 0605 943d
00000010: 76dd 233d 791f 103e 891e 083c 5dbb ee3d
00000020: b0ae 7c3d 62b1 80bd 6a3c 95bd 5769 073d
00000030: 8e44 013d df29 9cbd 20b7 6d3d 9411 8f3d
00000040: a082 223c c7da 993d 2356 e53d 5820 92bd
00000050: 021e a1bd 99b5 183d c583 d03d 5be9 d33d
00000060: d066 cdbd 01db 6f3d a6fa cabc 8229 3f3d
00000070: 6d54 543d aaa4 9c3d dce5 903d abe5 f33d
00000080: 8a53 553c 926c aa3c 9baf 293d 1cf8 5fbd
00000090: e0c2 bc3c 31ca 4f3d fce2 55bd 8f13 f7bd
000000a0: cd17 a93d b61c 023d 4129 a7bb 5910 b33d
000000b0: 22cf c13c 4270 06be 8618 f33c 53e2 8abd
000000c0: ceca aebd aa38 43bc d224 a03b 6138 053e
000000d0: bf46 56bd ec14 13be bf9c b2bd 7714 e6bc
000000e0: 5695 f5bd 0d54 35bd c02a 35bd 9b34 abbd
000000f0: ec77 fcba 8a3f 513d 2059 75bc 91aa 0f3d
00000100: 308a 9a3d 4819 81bd 204d 8ebb e228 bd3d
00000110: 977f d43d 6dab de3a e88e e8bc 7ae6 efbd
00000120: 005f 2eba b884 c4bc b413 83bd b03b a43c
00000130: f049 2d3c dff9 543d ab24 72bd 849f 10bc
00000140: 98ba afbc 7f99 a8bd 3e32 b83d 52c3 e0bd
00000150: 58b8 3b3d a650 c73d 3069 0dbd 3856 c4bd
00000160: a82b 1e3d 5a7c 843d d693 ba3d f315 d2bc
00000170: 7bf4 d9bd 8496 033b 70ee f2bd 10a0 173d
00000180: d4c6 853c 2175 843c 754e 923d 2ea5 fd3d
00000190: ecf2 c6bd f355 8fbd 4ee0 dbbd 60ae 873b
000001a0: c029 c1bb 6658 bbbd 5b10 9cbd e88e fa3c
000001b0: 3525 233d 00fa cf3b 3ca5 383d 57c8 f8bc
000001c0: f2ea 59bd eaa2 b3bd 8a48 883c f21d 33bd
000001d0: 001f 98bc a26f 9a3d 30cd b4bd 5c8e 18bd
000001e0: 2a26 c03d fa66 f7bd 2e77 d1bd 869e f9bd
000001f0: d07c f43b ce32 fcbd 3c94 1b3c c05b 23bb
00000200: c580 e63d 04ba 403d e6e6 093d 5f05 c53d
00000210: b5e3 183c 640a 1a3d 48a8 7abd db2d 2bbc
00000220: 2c37 2f3d aaa5 143d 0fc6 a73d d3e3 a83c
00000230: a4f0 8e3d 8881 13be 4edc d83d 36d7 013e
00000240: 00c4 97bc fefd aa3d 2580 e33d a30b 0ebd
00000250: 96c7 fcbc cd9c 8abc 6425 053e 7cf7 a83c
00000260: 6a8c ba3d 7126 553d bf9e 893d 3c86 7cbd
00000270: ec5a 4d3d d43e 02be 6f63 c23d b609 023e
00000280: 1ab4 bbbd baa8 97bd 08e1 cf3d 0674 1c3d
00000290: 41c2 993d 80a4 863d 73a4 2a3b 36c0 c1bd
000002a0: 1978 5a3d e4b8 eebd b072 80bc e6d6 c2bc
000002b0: 5fc0 a3bd e313 693d 3513 f5bd 56f5 50bd
000002c0: c632 91bc 2ad6 a23d 1ffd f0bd a530 443d
000002d0: 7df0 1abb 8096 a53d 7b87 353d 8efe 95bd
000002e0: 39f6 07bd c4a3 07bd 5ad0 bf3d 01f1 d0bd
000002f0: 5850 a63c 66bb dabd 6796 a3bd bc59 503d
00000300: 6b7e 00bd dab0 a6bd 35fc 193e 3197 103d
00000310: fc78 ad3d c2c8 513c c804 e2ba d017 5c3d
00000320: 5e78 943d 7c82 163e 7eac b1bd 3182 e93d
00000330: 4a8d efbb 002b 0e3e f0a6 0a3c 2c88 0fbd
00000340: 0c41 c13a 465f 62bd 3ba3 5e3d d433 f1bb
00000350: 5496 9e3d 6d47 f3bc fa0a ef3d 5171 38bd
00000360: 6f12 4fbd b4c2 5abd 1976 d1bd fcb6 2dbd
00000370: 7489 2f3e 7991 083e d41a 423d fb30 5b3d
00000380: 748f d13d 3746 6abd 3c98 0739 2480 0abd
00000390: c124 7f3b a517 9fbd 9331 f73d 4dd8 c2bd
000003a0: 1776 343d c4e5 723d aac4 a43d 7960 703d
000003b0: c31a 583d 11e9 81bd 2759 063e 2c00 c23a
000003c0: 7fb3 983d 9ff4 d93c ccc3 a0bd bd1c 1d3e
000003d0: b2ea efbc 064e 78bd 58cf 8c3d 3888 d0bd
000003e0: a5e0 1abd 53de db3c acf5 be3c 7a95 5d3d
000003f0: 7f80 92bd 9b83 133e f2b4 1c3e 2f97 233e
0.05587173 0.10546777 0.08311466 0.07227521 0.040006123 0.14074506 0.008308061 0.116568305
0.061690032 -0.06283833 -0.07286914 0.033059444 0.03155952 -0.07625174 0.05803597 0.06985775
0.009918839 0.075124316 0.1119807 -0.07135075 -0.07867052 0.03728256 0.10181383 0.103472434
-0.100293756 0.058558468 -0.024777722 0.046670444 0.051838327 0.07648595 0.07075092 0.1190904
0.013020406 0.020803723 0.041427236 -0.054679975 0.023042142 0.050729934 -0.052218422 -0.120642774
0.08256493 0.031765662 -0.0051013534 0.087433524 0.023658339 -0.1312876 0.02967478 -0.06781449
-0.08534776 -0.011915365 0.004887202 0.13009788 -0.052313562 -0.1436345 -0.08721303 -0.02808593
-0.11991374 -0.04426961 -0.044230223 -0.08359643 -0.0019261814 0.051085986 -0.014974862 0.035074774
0.075458884 -0.0630365 -0.00434269 0.092363134 0.10375898 0.0016988345 -0.028388456 -0.11713882
-0.00066517293 -0.023989066 -0.064002424 0.020047992 0.01057671 0.05199611 -0.059117 -0.008827094
-0.02145128 -0.08232402 0.08993958 -0.109747544 0.0458301 0.09732179 -0.034524143 -0.095867574
0.038615853 0.06469031 0.09110229 -0.025645232 -0.10642334 0.0020078728 -0.118618846 0.037017882
0.01633016 0.016169133 0.07143871 0.12385021 -0.097143024 -0.069988154 -0.10736142 0.00414066
-0.0058948696 -0.0914772 -0.07620307 0.030585721 0.039830405 0.006346941 0.045079455 -0.030368967
-0.053202577 -0.08771308 0.016636152 -0.04372973 -0.01856947 0.075408235 -0.08828199 -0.03724514
0.09382279 -0.12080188 -0.1022781 -0.12188439 0.007461168 -0.12314378 0.009495791 -0.0024926513
0.112550296 0.0470524 0.033667468 0.09620165 0.009331633 0.037607566 -0.06119564 -0.0104479445
0.042777225 0.036290802 0.081920736 0.020616448 0.06979492 -0.14404881 0.10588895 0.12679753
-0.018526077 0.083492264 0.11108426 -0.034679066 -0.030856889 -0.016920472 0.13002545 0.020625822
0.09108813 0.052038614 0.067197315 -0.061651453 0.050135538 -0.1271928 0.09491622 0.12699017
-0.09165211 -0.07405229 0.10150343 0.038196586 0.07507754 0.06574345 0.002603796 -0.094604895
0.05333719 -0.11656359 -0.015679687 -0.023784112 -0.07995676 0.05690373 -0.11966554 -0.05101522
-0.017724406 0.07951005 -0.11767029 0.047897954 -0.0023641877 0.08085346 0.044318657 -0.07323943
-0.0331938 -0.033115163 0.09365912 -0.10202218 0.020301983 -0.10680275 -0.07987671 0.050866827
-0.03137056 -0.081392005 0.15037616 0.035300437 0.084703416 0.012804212 -0.0017243857 0.053733647
0.07249521 0.14698213 -0.086754784 0.11401785 -0.007310544 0.1388359 0.008462653 -0.035041973
0.0014744117 -0.05526664 0.054354887 -0.0073609147 0.077435166 -0.029697144 0.116720155 -0.045029942
-0.05055469 -0.05340834 -0.102276035 -0.042410836 0.17142278 0.13336743 0.047388867 0.05351351
0.1023244 -0.05719587 0.00012931315 -0.03381361 0.003893182 -0.07768182 0.120700024 -0.09513912
0.04405793 0.059301153 0.08045323 0.058685753 0.052759897 -0.06343282 0.13119946 0.0014801077
0.07456111 0.026605902 -0.07849845 0.15342994 -0.029286716 -0.060621284 0.06875485 -0.10182232
-0.037811894 0.02683941 0.023310505 0.05409763 -0.07153415 0.14405672 0.153034 0.1597564

encoder.2.bias f4 [32]
00000000: a25e 47bc 3390 03be f88d 023e 657f 89bd
00000010: 8e4b a23d c008 323d 31ab d83d 70e2 7e3d
00000020: 1824 903d 2956 b1bb 25e1 bd3d e441 ce3d
00000030: e12d d83d 9947 bf3d ee76 93bd 9d7b d0bc
00000040: 8760 55bd dbad 833d 1e00 793c 2d05 a4bd
00000050: 357e 9fbd 6332 e7b8 80f4 fbba 3f19 bd3d
00000060: 677e c43d 6143 813d ffd1 583d 178f 55bc
00000070: b6c5 81bd 91b3 023d d14b 06bd b4cb b13d
-0.012168558 -0.12847976 0.1274947 -0.06713752 0.07924567 0.043465376 0.10579527 0.062227666
0.07038134 -0.0054118824 0.092714585 0.100711614 0.10555626 0.09339828 -0.072004184 -0.025449568
-0.05209401 0.06429645 0.015197782 -0.080088 -0.07787744 -0.000110243236 -0.0019222647 0.09233331
0.09594422 0.0631168 0.052934643 -0.013034604 -0.063365385 0.03190953 -0.032787148 0.086814314

mu.weight f4 [8, 32]
00000000: 4fcc cb3d d9e6 50bd 2e33 33be 26bf 013e
00000010: 892d 7d3d 7af2 b8bc 635a 193e cbad 2ebe
00000020: 16ca 8fbd 840c e43c 5f0c e33d 8e00 17bd
00000030: 67c8 1bbe 5a64 f2bd 5f50 073e b356 fdbd
00000040: 0925 b3bd 7765 a83c c1a0 cc3d 8cab edbd
00000050: 66f9 78bc 6432 eebc 4b8e 9abd 016d 1a3e
00000060: 3ad8 25be 4846 59bd cf42 c9bd 1fab 4bbb
00000070: 7b8e 993d d8de 943c b8c7 dc3d c5dd d3bc
00000080: 64eb 223e f755 3b3e 1355 1ebe 938a 053e
00000090: b0dd dabc 2575 8cbd 3e70 a3bd 59e8 733d
000000a0: fd4f 3f3e c288 1ebe d447 b73c 3ffc 1fbe
000000b0: 99f9 d13d 5d6a 623d 3a01 fabd 67ad 07be
000000c0: 144b 08be 5520 49bd 31bd 31be 9e9e 0e3e
000000d0: 4935 0fbe 0483 cd3d 4d90 963d f62a 7f3e
000000e0: a4be 143e bdd1 b4bb c1a7 9abd 6a63 383e
000000f0: 39ed 8c3d 4e27 3ebd 244b 6d3e 4f2f db3d
00000100: 3ea8 26be b8ff 963d 31da 73bd 433d 653d
00000110: 2e11 fcbd 7657 a5bd 95f8 053e 2e51 9cbd
00000120: 34f4 693d c34d d33d e487 66bc 791a 14be
00000130: a224 c5bb d462 a73d 4de1 f43d 1473 dbbc
00000140: 9f4d 063e c38c a33d f2bb aebc 2971 1ebe
00000150: d825 8a3d 79b7 50bb 4aa3 653d aef7 73bd
00000160: ee6d 0d3d fb06 183e 67c9 46bd f75f 213e
00000170: 3227 133e 58a9 f7bd da1e 2f3e a8ba 043e
00000180: a701 afbd dba1 773d 382b b43d 2961 cabd
00000190: e229 a2bd 11d5 d23d 9636 7bbd a8cd 00be
000001a0: 69dc ed3c 610b 26be 6784 cc3d b9b8 803d
000001b0: f612 09be 46cb 28be 3f3a f8bd 43d2 723d
000001c0: b3c6 963d a11f fdbd c516 edbd 6f51 363e
000001d0: 1c60 0ebe 8b2e eabd 385b 263e 2c8b ab3d
000001e0: 667c c4bd e708 cabd 4889 33be 2924 033e
000001f0: a473 f13d 130f 29be 7a5f 0ebd 94cf 093c
00000200: 8d3e b0bd 9782 7dbd 4ff4 f83d 1d80 8ebd
00000210: c8e1 a6bd 98e4 413e 7c83 723e 920a e63c
00000220: be2d 9dbd aa91 c6bd 8efe 11be 525f b93c
00000230: 6564 13be 12d1 293b cc1e ff3b a780 b0bc
00000240: eab1 1ebe c114 773d 90b8 1fbb 3681 ecbd
00000250: ed8d a13d ef41 6fbd 2352 17b8 5be9 80bc
00000260: e2fa 533d 9ba3 383e fd92 23be 86f2 ddbd
00000270: 0608 0dbe ff6f 343e 0735 bc3d 3831 21bd
00000280: ed3a 473e 389a abbd b483 86bc 484c 83bd
00000290: 270d ed3d 3541 753d a9a3 81bc d6ea e03c
000002a0: a492 8a3d 777e c63b 3e53 0a3e 7622 04bd
000002b0: feef 3b3e 47bd c2bd 1f75 083e 113f a63c
000002c0: f9f2 d0bd c15b b3bd cd33 5fbe fe1c 3c3e
000002d0: 28c8 c9bd 916a 41be 0a52 4b3c 2270 dd3d
000002e0: d28e 83bd 8eb7 f23c 9422 023e e321 1d3e
000002f0: d0de 1a3e 693d 28be 0d8d 003e cc61 c8bc
00000300: 2fc9 6bbd a7a7 c7bd 7195 25bd ee90 25be
00000310: 4729 2e3e fad2 0d3e 4194 dabd 1cea 1ebd
00000320: 177e 12be 1368 0d3e 2dbd 393e 35c5 123e
00000330: 54e9 bcbd e362 f6bc fbdc fdbc 6973 e5bc
00000340: 33b9 d7bd ac4d 2abd f4a1 1b3d 96de 1abe
00000350: 9038 e03d da35 233b 909f 0fbe 8aec bd3d
00000360: 3582 dfbd dfae 2f39 2985 a7bd 0fc8 a03d
00000370: fab6 d53d 4157 c73d 3fea 00be 6428 8bbd
00000380: c81a b9bd eba6 5d3b d6aa f7bc 925e ae3d
00000390: 2d46 9e3d 17d4 513e cb02 043e 8e5e 723d
000003a0: 9c0b 073d 93c2 23be f269 48be 321f 203e
000003b0: 31b5 413c 7020 aa3d ba23 0ebe 936c 13bd
000003c0: 45cf 8cbd e1ff 4abb ff09 51bd 699e 6bbd
000003d0: 7dc4 b5bc e373 773b 3c6e 093e 287a dbbd
000003e0: b84e fa3d 47b6 0abe d90f 853c 53bc 23be
000003f0: 8518 4bbe e960 3b3d 064c 2abe 7248 1bbe
0.09951078 -0.051001403 -0.17499992 0.12670574 0.061811004 -0.02257656 0.14975886 -0.17058484
-0.07020967 0.027838 0.11086344 -0.036865763 -0.15213166 -0.11835547 0.13214253 -0.12370052
-0.08747298 0.020556195 0.09991599 -0.116049856 -0.01519618 -0.029076762 -0.075466715 0.15080644
-0.16195765 -0.05304554 -0.09827196 -0.0031077338 0.07497879 0.018172666 0.10780281 -0.025862584
0.15910107 0.18294512 -0.1546214 0.13041143 -0.026717037 -0.06858281 -0.07980393 0.059547756
0.18682857 -0.15481856 0.022373118 -0.15623568 0.10252685 0.055277217 -0.12207265 -0.13249741
-0.1330989 -0.0491031 -0.17357327 0.13927695 -0.1398517 0.10034755 0.07351742 0.24918732
0.14525849 -0.005518167 -0.07551528 0.18006673 0.06881184 -0.046424203 0.23173195 0.10702383
-0.16275117 0.07372993 -0.059534255 0.055966627 -0.12307964 -0.080733225 0.13083108 -0.07632671
0.057117656 0.10317566 -0.014070485 -0.14463224 -0.00601633 0.08173147 0.11957035 -0.026788272
0.13115548 0.079858325 -0.021329854 -0.15472855 0.06745499 -0.003184764 0.056063928 -0.059562378
0.034528665 0.14846413 -0.048531916 0.15759264 0.1437042 -0.12092847 0.17101613 0.12961829
-0.08545237 0.06045709 0.08797306 -0.09881813 -0.07918145 0.102945454 -0.061331354 -0.12578452
0.029035764 -0.16215278 0.09986191 0.06285233 -0.1338614 -0.16483793 -0.121204846 0.059282552
0.073621176 -0.12359548 -0.115766086 0.17804502 -0.1390385 -0.114346586 0.16245735 0.08376154
-0.095940396 -0.09864979 -0.17532837 0.12806763 0.11789635 -0.16509657 -0.034759022 0.008411307
-0.086056806 -0.06189212 0.12155973 -0.069580294 -0.08148533 0.18934858 0.2368297 0.028081212
-0.0767474 -0.09695752 -0.14257261 0.02262846 -0.14393766 0.002591197 0.0077856537 -0.021545721
-0.15497556 0.060322527 -0.0024371482 -0.115480825 0.07888398 -0.05841249 -3.60777e-05 -0.015736273
0.051752932 0.1803116 -0.1597404 -0.10837273 -0.13772592 0.17620848 0.09189802 -0.03935358
0.19456072 -0.08379024 -0.016420223 -0.06411034 0.11574774 0.05987664 -0.01582511 0.027455729
0.06766251 0.0060575563 0.13508317 -0.032259427 0.18353269 -0.09508758 0.13325928 0.020293744
-0.10202593 -0.08757735 -0.21797104 0.18370435 -0.0985263 -0.18888308 0.012409696 0.10812403
-0.06423725 0.029628541 0.12708503 0.15344958 0.15124059 -0.16429676 0.12553807 -0.024460696
-0.05756491 -0.09748774 -0.04042572 -0.16168568 0.17007934 0.13850012 -0.106728084 -0.038797483
-0.14305912 0.13809232 0.18138571 0.14333041 -0.09224191 -0.03007645 -0.03098916 -0.028009133
-0.10533371 -0.04157798 0.037996247 -0.15123972 0.109482884 0.0024903924 -0.14025712 0.09273632
-0.10913507 0.00016754445 -0.08179695 0.07850658 0.10435291 0.09733439 -0.12589358 -0.06794813
-0.09038311 0.0033821415 -0.030232828 0.085141316 0.07728229 0.20491062 0.1289169 0.059172206
0.032970056 -0.15992193 -0.19571665 0.156369 0.011822985 0.08306968 -0.13880816 -0.035992216
-0.06875471 -0.003097527 -0.051034924 -0.05752412 -0.02218842 0.0037758283 0.13420957 -0.10716659
0.12222046 -0.13546096 0.016242908 -0.15989809 -0.19833572 0.045746718 -0.16630563 -0.15164354

mu.bias f4 [8]
00000000: 8658 46bd 8283 06be fb6e 1b3e ef73 dc3d
00000010: a97d 15bd befa 08be 5548 17be 1505 2abc
-0.048424266 -0.13136104 0.15179054 0.107643 -0.036496792 -0.133769 -0.14773686 -0.010377188

logvar.weight f4 [8, 32]
00000000: b788 cbbc 503b 1ebd f8a9 6b3d f67c 0abd
00000010: 4ba9 133d c4d8 30be 551f 803d 87bf 17be
00000020: 0abd 72bd 50da 863c e4c4 cbbd 5ab7 2ebd
00000030: 13c9 bebc aee4 08be 523a 1a3e 7541 15be
00000040: 25ae a2bd 1196 3e3d 3f6c bb3d ac51 843c
00000050: d9e8 123e 6d6c e33d 7dd0 913d b972 163e
00000060: 0c56 26be f7aa 8dbd 0a98 73bc 6c8a 2bbc
00000070: 9233 e7bd 28dd b33d ef0a 1d3e 6a32 20be
00000080: 54ec b1bc fde4 453d eb68 42be 7582 d7bd
00000090: 7288 fabc ad07 063d 618a 31be 1811 db3c
000000a0: 548e 193e 0410 7dbc fd12 a13a 21dc 64be
000000b0: 6b00 dabd b61c 113b b6f7 1d3e 0918 873d
000000c0: ce38 853d e049 0f3e 350c d1bd ba4b 083e
000000d0: 91be 17be 6ab8 34be 26ef 2e3d 87f1 f23d
000000e0: 1889 43bd 8224 4cbd 9e87 37be 3f7f bb3d
000000f0: 0861 b1bd 3334 e83c 9d36 14be 9fd4 3dbd
00000100: e412 bfbc f343 c63d c58c 84bd 721e 02be
00000110: 6285 40bc d5fa bc3d 0311 b8bc f43b 24be
00000120: c430 01bd 9c4f 0e3d c418 9ebc 391d 2d3d
00000130: f65d e83d 85e0 f73d ccfb 7b3d 4916 b3bd
00000140: abae 083e 9131 0d3c 94ed 11be 485e 393d
00000150: ef55 01be 056a 923d 061b 0dbe 3ed3 833d
00000160: 8862 d1bd f197 d83d 6c51 3a3c f9aa c3bd
00000170: b942 d6bd d472 e73d 512d d63d 1cdc 5e3d
00000180: ab24 033e a2ff bc3d ce2d 173d 42c6 3abd
00000190: dce0 6d3d 63f6 a93d 522c bebd a6f5 2abe
000001a0: a15f 323e 00b3 cebd 6c31 b03c a054 fc3d
000001b0: fa06 20be 4a1e f73d f005 063d d454 aabd
000001c0: 4ce0 113e 464a 8a3d 3452 a63d 6180 e33d
000001d0: 51f7 07bd dd11 68bd c607 243e 9a18 323c
000001e0: 220a 813c c9e5 03be f4ea 163e 14e0 0abe
000001f0: 092d 4dbc 11aa 0cbd 97bb 5cbd 8bea f5ba
00000200: 81f2 cf3d 7bde aabc 157c 8b3d c316 21be
00000210: f2d6 90bc 0237 293e ed8c 32be 95e2 0dbe
00000220: 89f8 03be f8a7 3dbe 5276 53bb c738 f3bd
00000230: 4c1c e4bd 475e 0ebe 1969 babd d078 573d
00000240: c4d1 a13d 33e5 ddbd 6c46 bf3d e4a7 07bd
00000250: 0890 143e 7787 1c3d 8ee8 103e a8c6 ca3c
00000260: 647e 1fbd 7977 813b 2f60 35be cab7 4b3d
00000270: 919b 903d 8338 64bd 96aa 9e3c 2efc 36be
00000280: fbea 1cbe e69c 13be 494d e2bd f0ed 42bd
00000290: e313 fcbc cc05 b4bc d48e e93d 9d9d 9ebd
000002a0: 062e f63d 2c82 c63d fcc3 04be da75 2bbe
000002b0: acf5 1f3e 0e7b 8c3d 3030 8f3d 8463 cc3d
000002c0: 9936 ac3d f323 77bc cc66 62bd 1463 e1bc
000002d0: 1ffd 1f3d 34a3 3fbe 80a7 0ebd 3765 f6bd
000002e0: ada9 c43d e372 66bd da69 043e 123f 37bd
000002f0: 63b7 af3d 49dd fd3c bf21 47bd 306e 9d3c
00000300: d682 ab3b 5628 3fbd fa2b f03d 4ec9 eabd
00000310: f32d 5f3d 15fa 8c3c bad1 06bd 88fc d9bd
00000320: 470d 2bbe 74f1 04be e28d dbbd e51c b73d
00000330: d239 4f3d 3d99 12be 2e46 68bd 9bb5 26bc
00000340: 11aa a13d a42b c13a 69cf 043e 4c59 a33c
00000350: f9fa 0f3e 536a 37be c7a1 c13c 816b a23b
00000360: d516 e13d 7c82 fd3d 7703 abbd e1a4 c63d
00000370: 13a0 663c c2c5 fcbc 7e83 023e 5ebf 6bbd
00000380: b5f3 a03d 8c4c 82bd f7be b83d 14a5 55be
00000390: ff09 f13d cae3 20be 854a b4bd 64d8 b2bb
000003a0: a8e9 ed3d 1f09 183e 7cde e53d 6f1e cdbd
000003b0: 0e07 ec3d e643 cabc 11ad 523d 9fc6 b5bc
000003c0: fe56 cc3d 8f0c d9bd 779d 17be 542b fb3d
000003d0: ef83 c33d 8147 6d3d 58da 3dbd 0e41 acbd
000003e0: 997c 1bbe 6ea3 e0bd cfa7 223c 9106 36bd
000003f0: 0d21 d5bd bd5d 003e f754 94bd 60dd c9bd
-0.024845464 -0.038630784 0.05753514 -0.03381058 0.036050122 -0.1727019 0.06255976 -0.14819156
-0.059262313 0.016461521 -0.09949663 -0.042655326 -0.023289239 -0.13368484 0.1506131 -0.14575751
-0.07943372 0.046529833 0.09151506 0.016152225 0.14346637 0.11104665 0.07119844 0.146922
-0.16243762 -0.069173746 -0.014867792 -0.010470014 -0.11289133 0.087824166 0.15336202 -0.15644231
-0.021719135 0.048314083 -0.18985336 -0.105229296 -0.03058264 0.032722164 -0.17337944 0.02674155
0.149957 -0.015445713 0.0012288984 -0.22349598 -0.10644611 0.0022142357 0.15426525 0.06596381
0.06504975 0.13993025 -0.102074064 0.13310137 -0.14818789 -0.17648473 0.04270854 0.11862474
-0.047738165 -0.049839504 -0.17922828 0.0915513 -0.08661085 0.028345203 -0.14473958 -0.04634535
-0.023324437 0.09680929 -0.06472162 -0.12706926 -0.011750551 0.0922753 -0.02246905 -0.16038495
-0.031540647 0.03474389 -0.019298919 0.042264197 0.113460466 0.121033706 0.06151943 -0.08744485
0.1334788 0.008617775 -0.14250785 0.04525593 -0.12630437 0.07149128 -0.1377984 0.064367756
-0.102238715 0.105758555 0.011371952 -0.09554095 -0.10461945 0.113011986 0.10457862 0.05440913
0.12806956 0.092284456 0.036908917 -0.04559923 0.05807577 0.08298948 -0.09285797 -0.1669527
0.17419292 -0.10092735 0.021507941 0.123208284 -0.15627661 0.12066324 0.032720506 -0.08316961
0.14245719 0.06752448 0.08121148 0.11108471 -0.033194844 -0.05665766 0.1601859 0.010870123
0.015751902 -0.12880625 0.14738065 -0.13562042 -0.012522944 -0.034341875 -0.053889837 -0.0018761916
0.10153676 -0.02085804 0.06810776 -0.15731339 -0.017680619 0.1652489 -0.17436571 -0.13855965
-0.12887777 -0.18521106 -0.003226657 -0.11876064 -0.1113821 -0.13903151 -0.09102077 0.05260545
0.07901338 -0.10834732 0.09339604 -0.033119097 0.14508069 0.038215127 0.14151213 0.02475293
-0.038938895 0.00395101 -0.17712472 0.04973582 0.07060922 -0.055717956 0.019368451 -0.17869636
-0.15324013 -0.14415321 -0.11049897 -0.047590196 -0.030771201 -0.02197542 0.114041954 -0.07744906
0.12020497 0.09692797 -0.12965387 -0.16744176 0.1562106 0.06859408 0.06991613 0.099799186
0.08408851 -0.015084255 -0.055273816 -0.027513064 0.039059754 -0.18714601 -0.03482771 -0.12031024
0.096026756 -0.05626191 0.12931004 -0.044737883 0.085799 0.030989306 -0.048616167 0.01921758
0.0052341027 -0.046669327 0.11727138 -0.11464177 0.05448718 0.017209092 -0.032914855 -0.1064387
-0.16704284 -0.12982732 -0.107204214 0.08941058 0.05059225 -0.14316268 -0.056707554 -0.010175134
0.07893766 0.0014737737 0.12969746 0.019940041 0.14060582 -0.17911653 0.023636712 0.004956663
0.10990683 0.123784035 -0.0835027 0.09699417 0.014076251 -0.030856017 0.12745473 -0.05755555
0.078589834 -0.063622564 0.09020799 -0.20863754 0.11769485 -0.15711895 -0.08803276 -0.0054579247
0.11616832 0.1484723 0.11224076 -0.1001557 0.11524783 -0.02469058 0.05143458 -0.022189436
0.0997753 -0.105980985 -0.14806162 0.122641236 0.09546649 0.05792952 -0.046350807 -0.08410846
-0.15184249 -0.10968672 0.009927704 -0.044439856 -0.104066946 0.12535758 -0.07242768 -0.09856677

logvar.bias f4 [8]
00000000: d14b 26bc 72df 893d 871a 8ebd 8c5f 2dbe
00000010: 7333 43bd 0f8e 02be ddf0 a6bd b28a c2bd
-0.010149912 0.06732072 -0.069386534 -0.1693098 -0.047656488 -0.12749504 -0.0815141 -0.0949911

decoder.0.weight f4 [32, 8]
00000000: 7db1 643e 1194 b73d f0c8 b03e 8701 903e
00000010: f4ef b7be 1194 44be e45e cc3c 0468 263e
00000020: 56f6 3a3c 1a39 a63c 05e1 853d 4bce 173d
00000030: 4f53 c2bc e618 76be 3b89 393d fb69 06be
00000040: 5e6f ac3c 885b c33d d9fd 813e 5a0b de3c
00000050: 329e b8be a841 923e c50c 97be 3de5 a5be
00000060: 8dff bdbc 2b9c 213e aeea 2b3e ce91 b4bb
00000070: 9934 07be 086c 1cbe b895 a13e 539f 84be
00000080: b8c0 1bbe 0027 3e3d c6c8 3dbe ed85 4fbd
00000090: 6bce f93c c449 863d 8abe 013e 7952 5c3d
000000a0: ad3a 303e ef6c 803e fb4c 22bd 3ae9 7e3e
000000b0: 8a6c 613e 67bc bdbd 018c 343e 4bd4 c2be
000000c0: 95ac 963e feb0 863c 7a72 033e 4579 9e3e
000000d0: 80ab b1be 38a2 023e b96f 583e 1fc0 65be
000000e0: ef8a 9cbe dfde 7bbe 7091 b1be 13b9 87be
000000f0: 2fe0 393e a483 e8bd 35b2 5b3e 6cb4 d4bb
00000100: 7655 eebd caf8 91be a0dd 023e 3521 a7bd
00000110: bfea c73c cf0f 773e 4558 01bb 095f 00bc
00000120: 099d 6ebe 595e a13d 4f50 54be e6f2 fbbd
00000130: 77d4 b8be 3e97 393e ffc0 4f3e 38c7 c3be
00000140: d84d 0fbd 166c ba3d 7643 5c3e fe97 7c3e
00000150: e36d 4ebe 8afa a8bd 5472 a1be b79c 64be
00000160: 8983 af3d edc2 af3e 7fe9 39bd 0acf 6f3e
00000170: bd71 6d3e c294 be3e 25fe f43c f512 82be
00000180: 8c8e 5f3e 1e52 c53c b428 163e 3f4f 52be
00000190: 2c87 a9be 33e6 c03e 6a83 1cbe d9c2 a9be
000001a0: b6a8 533d b2c8 a0be 65f9 983d 4333 173d
000001b0: 2bdd d1bd 8bde 033c db71 80be 6df0 813d
000001c0: 0294 51be c70e c33e acde 703e 8e99 a93e
000001d0: 5791 f8bd 516d bd3e fda9 6a3e 90f3 343e
000001e0: 52ed 563e d914 833e 262f 173e 3f96 7ebe
000001f0: 754b 3d3e 43ee 90be 287e 873e 259c dbbd
00000200: bfdb 89be 656e a8be 16ce 1fbe 4c32 65be
00000210: 0e6d 14be dfdf 9fbe 26dd 93be 981f 6d3e
00000220: 06b3 963e db2b 803e d6e1 85be 2e87 5e3e
00000230: 0b50 263d f907 b93e 8e29 eabd b0bd cf3d
00000240: a4cb 783e 1f48 2fbe d628 853e 89f0 bf3e
00000250: 9648 8d3e 6af3 87be 4870 593e add3 833d
00000260: de68 e7bd 2c54 31be 3a3d c43d 8fdf c83d
00000270: 7474 723e fe28 f23d 76c5 6abe a69f 933e
00000280: 402a a63e 6966 9f3e d9bb c83c bb0c 25bc
00000290: 8033 aebe b10c a23d d878 703e db5e 3e3e
000002a0: d1dc a4be 206a 76bd 8c85 043e 8b66 a23d
000002b0: ecc4 19be 1d80 4d3e 6499 453e da56 dc3c
000002c0: 2a7e dcbd 4160 403e a92a 5f3e 790a 9fbe
000002d0: d10e 643e eb55 503e f850 043c 3c0c a7be
000002e0: fd75 46be 1c0e 51be d754 c03d bc6d 4b3e
000002f0: c248 bd3d c10f 5b3e 236c 663e bce7 003e
00000300: db8d 3d3e 28ee ae3d 147b b4be 2cdf 44bc
00000310: bf50 6a3e d702 b4be ab69 6a3e 220e 0cbe
00000320: e2cb 193e 9297 a03e 80f1 46be 9c79 6cbe
00000330: 1911 b4bc 0931 933e 05f2 88bd ad89 f5bb
00000340: 884d e1bd 77b9 f2bd 52a3 1f3d bb24 b2be
00000350: d461 5f3e 02a0 86be 15df b83e 56af 263e
00000360: 6b61 45be 560e 193e 3df2 7b3e d9b7 57be
00000370: 7a44 0c3d e059 9abd 9263 ebbd 2f41 91be
00000380: 0d72 933e 535c 143e 1941 b33e 147f 8f3e
00000390: 8084 0fbe d453 b73d 2f96 963c 957d 153e
000003a0: 2c49 673e 295b ad3d 77d8 d9bd c1bb 173e
000003b0: 78ff eebd bd57 1a3e 7944 d73d aa53 8ebe
000003c0: bfb0 26be 6193 45be 2fd8 183e 5f81 9e3e
000003d0: 7aef b0be 8fbc 0f3e 0613 febd 54d4 65be
000003e0: 6987 f1bd f99b 943e 3572 41be e217 9e3b
000003f0: 883a 89bd 3fc1 8c3e 96b3 2ebe bb48 50be
0.22333331 0.08963788 0.34528303 0.28126165 -0.35925257 -0.19197108 0.024947591 0.16250616
0.01141127 0.0202909 0.0653706 0.03706197 -0.023721365 -0.24032936 0.04529689 -0.13126366
0.021049198 0.095389426 0.25388983 0.027105022 -0.36058193 0.28565717 -0.2950193 -0.32401457
-0.023193145 0.1578223 0.16788742 -0.0055105453 -0.13203658 -0.15275586 0.3155954 -0.25902805
-0.15210235 0.046423912 -0.1853362 -0.05066483 0.030493936 0.065570384 0.12670341 0.05378959
0.17209883 0.2508311 -0.039624196 0.24893656 0.2201406 -0.092644505 0.17631532 -0.38052592
0.29428545 0.016441818 0.12836638 0.30951896 -0.34701157 0.12757194 0.21136369 -0.2243657
-0.30574748 -0.24596737 -0.34681273 -0.26508388 0.18151926 -0.113532335 0.214547 -0.0064912345
-0.11637394 -0.28510123 0.12779856 -0.081606306 0.024403928 0.24127124 -0.001973645 -0.007835158
-0.23302092 0.078793235 -0.2073376 -0.123021886 -0.36099598 0.181241 0.20288466 -0.3823793
-0.034986347 0.09102647 0.2151011 0.24667355 -0.20159106 -0.082509115 -0.31532538 -0.22325407
0.0857001 0.34328404 -0.045388695 0.23418823 0.23187919 0.37222868 0.029906342 -0.25405088
0.21831721 0.024087008 0.14663965 -0.20538042 -0.3311094 0.37675628 -0.15284505 -0.3315647
0.051674567 -0.31403118 0.07469443 0.03691412 -0.102472626 0.008048664 -0.25086865 0.06344686
-0.20466617 0.38097212 0.23522443 0.33124965 -0.121370964 0.36997464 0.22916408 0.17671037
0.20988968 0.25601843 0.1476408 -0.24862002 0.18485816 -0.2830678 0.26463437 -0.107231416
-0.26925465 -0.32896724 -0.1560596 -0.22382468 -0.14494726 -0.31225488 -0.2887966 0.23156583
0.2943346 0.2503346 -0.26148862 0.21731254 0.04060368 0.36138895 -0.11433707 0.10143602
0.24296433 -0.17117356 0.26007718 0.374882 0.2759444 -0.26552898 0.21234238 0.06436858
-0.11299299 -0.17317265 0.095819905 0.098082654 0.23677236 0.11824225 -0.22926888 0.2883274
0.3245411 0.3113282 0.024503635 -0.010073836 -0.34023666 0.07912577 0.23483598 0.18590872
-0.3219972 -0.060159802 0.12941569 0.07929715 -0.15016526 0.20068403 0.19296795 0.026896883
-0.107662514 0.18786718 0.21793617 -0.31062678 0.22271277 0.20345275 0.008075945 -0.32626522
-0.19380946 -0.20415539 0.09391182 0.19866079 0.09242393 0.21392728 0.22502188 0.125884
0.18511145 0.085415184 -0.3525015 -0.012016099 0.22882365 -0.35158417 0.22891872 -0.13677266
0.15019181 0.3136564 -0.19428062 -0.23093265 -0.021980809 0.28748348 -0.066867866 -0.007493219
-0.11001116 -0.11851781 0.038974114 -0.34793648 0.21814662 -0.2629395 0.36107698 0.16277823
-0.19275443 0.14946875 0.24604125 -0.21066226 0.03424499 -0.075366735 -0.11493601 -0.28370044
0.2879795 0.14488344 0.35010603 0.2802664 -0.14015388 0.08951536 0.01838216 0.14598687
0.22586507 0.08464653 -0.106369905 0.14817716 -0.116698205 0.15072532 0.10511107 -0.27798206
-0.16278361 -0.19294502 0.14926217 0.30958077 -0.34557706 0.14036773 -0.12405972 -0.22444278
-0.117934056 0.29025248 -0.18891223 0.0048246244 -0.06700617 0.27491185 -0.17060694 -0.20340244

decoder.0.bias f4 [32]
00000000: 2a3f c73d 551e fbbd 5559 403d 18fd 8b3e
00000010: 3a1d 733e c55f f03c ebd6 0bbe 51bb 953e
00000020: 5c16 073e 10f4 443e 837e 2b3e 07bc 223e
00000030: f115 233e 2dea 60bd 1be6 973d 0bd3 eabd
00000040: add6 6f3e e058 4f3e 32e5 203e 012a c9bd
00000050: f28c 933e 87ee 0abb 34b9 663d 50c0 0dbe
00000060: 2356 9cbc bb82 c4bd 07f3 04be 6eec 793d
00000070: 1a8e ba3d 61ca 98be 5394 42bd c39f acbe
0.097288445 -0.12261645 0.046960194 0.27341533 0.23741618 0.029342541 -0.13656203 0.29244474
0.13192123 0.19233727 0.16747479 0.15892039 0.15926339 -0.054910827 0.07416936 -0.114660345
0.23421736 0.20248747 0.15712431 -0.09822465 0.2881847 -0.0021199302 0.056328967 -0.13842893
-0.019084042 -0.09595247 -0.12983333 0.061016493 0.09109135 -0.29841903 -0.047504734 -0.3371564

decoder.2.weight f4 [64, 32]
00000000: 9a8a 373e 90c5 e3bd 26b7 b33c 8c94 8d3d
00000010: 6a17 09be 700d 0cbd cfb0 0f3e 0483 26be
00000020: fa7c 1fbe 5e8f 503e 69ec 613e 1961 bd3d
00000030: da4a b53d f035 9b3c 04a5 063e f821 0d3e
00000040: 8a0a 0ebe b1d3 f23d 1108 e7bd 5e2c 01be
00000050: 7fc7 f2bc 1fee c1bd cf32 363e 53ff e4bb
00000060: e974 86bc bc39 203e 28e3 89bd ac91 e53d
00000070: 83c3 fe3d edf1 503d 0e99 5f3e 3bda 423e
00000080: c165 b4bd 31e1 e93d f4c4 12bb 8149 c5bc
00000090: b699 99bd 3b50 943d 8dbb cfbb c039 85bd
000000a0: 942e 15be ff35 b4bb 8ac8 03be c466 1c3e
000000b0: 26cc 073e 8f6e c23c 4a32 14bd a483 7cbd
000000c0: f031 02be 152e dcbd b72b 05be d339 8d3d
000000d0: d662 453e 11b1 1ebe 7c48 db3d 6718 0b3e
000000e0: 35b4 a2ba ecd5 2b3c 20f5 2abd c506 26be
000000f0: f950 3c3e 76d2 3a3e 1704 113e 1c7d 0dbd
00000100: a933 c53d 6359 47bd e8e2 2d3e edeb d7bd
00000110: bfe8 34be f91d 7c3b 63ef 00be d3a4 813c
00000120: 5c7f 0e3e 4a82 47be 0892 67bd a9c8 e1bd
00000130: 1876 d93d cd4e 2dbe c160 0f3e 8f19 d43d
00000140: afb2 98bd c944 803d 5561 c23b ddd4 babc
00000150: b631 ecbd 1b91 333d 97cc eabd 5386 40bd
00000160: f383 f4bd cacd 2a3d 61d4 c6bd 3c15 25be
00000170: e00a 0bba a381 edbb bbef 33be 101d fc3d
00000180: cd84 94bd 3294 33be f6e5 22be 800a 3fbd
00000190: 4fcf e83d bc0d d63d 29db f73d 671b ebbd
000001a0: 87db 1dbd 7dda c13c 82e8 2a3e 0a0d 683d
000001b0: dc22 b63d c0b8 bc3d b672 4e3e 684d d7bd
000001c0: 59cd 123c a630 ca3d b68f 8bbd fdfc 323d
000001d0: b149 253e f048 85bd 4808 f23d 7253 12be
000001e0: 7766 d53c 7f89 efbd a0e2 88bd 7fc5 9e3b
000001f0: d578 dbbd db9a 3d3e bea6 fc3d 5955 b1bc
00000200: 1a74 4abe 0bb0 963d a771 c6bd 00f0 90bd
00000210: 5a5b 823b bbbb edbd bbf4 98bd 93ce 143e
00000220: 314f 2f3c db45 1ebe e957 f5bd 6037 08be
00000230: a51f 203e 6327 8bbd d72e 623d f76b b4bd
00000240: c713 103d cc2c 20bd 64b8 3b3d 624a 28ba
00000250: 7898 e43d d629 21be ea0f 10bc 80b9 f2bd
00000260: dce6 123e 1dfd 863d 6655 10be 5cf9 02be
00000270: 1376 ee3d 23cd da3d 1568 113d e0d8 70bd
00000280: d352 223e b79d 043e 7040 183e 4b33 573e
00000290: 45dd 2abe f863 25bd b0cc 673d 7d72 fdbc
000002a0: b47b 123e 0902 353d 61d2 033e 0025 2b3e
000002b0: c242 833d 79e9 0d3e 4700 1fbd 158b e7bd
000002c0: e892 c13d ba01 123e 54ce 6abd 6f22 13be
000002d0: 9357 9e3d 8b43 fd3d 57e0 0bbd a171 083d
000002e0: ad3d da3d 1cca 733d c293 dfbd 1ba6 95bd
000002f0: fd65 113e c0a6 f5bc a38a 0c3e 434a 013e
00000300: 0f33 b63d 1856 21bd fe3f e6bd e65d 1c3d
00000310: 03f6 57bc 6066 013e 048b bcbd a33e 2a3e
00000320: 4c1a 16bc 03d6 de3d 09eb e2bd 3035 bcbd
00000330: 08dc 0cbe 992f 0d3e dd86 4b3d bd95 efbd
00000340: eca1 533e 3c8c febd 8cc4 153c 2281 d73d
00000350: 235a 163e f31f efbd fb9d 023e cbd9 323e
00000360: cce8 0b3e b30b a2bd 028f 0e3d 79cb 7c3d
00000370: f31d e9bd 5a20 92bd c1c6 f4bc df45 133e
00000380: 4173 c03c 1054 e9bd 7b0f 5d3d 5324 e8bd
00000390: 2c05 033e 1947 093e 92df f83b b3ff 18bd
000003a0: 6db8 0e3c e924 253e 764d 8dbd c0ad 493e
000003b0: c7a1 7dbd 1194 04bc c988 3d3e cb71 8abd
000003c0: 3d88 bdbd eeba 8a3d d04a bd3d f981 40bc
000003d0: 1d98 8c3d d80d 90bd 6cc6 ec3d af1a 503d
000003e0: f789 31be f8e4 243e 4023 c53c ff24 e1bd
000003f0: 4499 01bd 8a1c 533e 48fc 1b3e 429d 2a3d
0.17923966 -0.111216664 0.021937918 0.06913099 -0.13387838 -0.034192502 0.14032291 -0.16260916
-0.15575019 0.2036719 0.2206284 0.092470355 0.088521674 0.018946618 0.13148886 0.1378249
-0.13871208 0.11856783 -0.112808354 -0.12614581 -0.029636143 -0.09469246 0.1779282 -0.006988445
-0.016413169 0.15647024 -0.0673278 0.11209425 0.12439635 0.05101197 0.2183573 0.19028561
-0.088084705 0.11419905 -0.0022395225 -0.024082901 -0.07500021 0.07241865 -0.0063394965 -0.065051556
-0.1456855 -0.005499601 -0.12869468 0.15273577 0.1326147 0.02373436 -0.036180772 -0.06164898
-0.12714362 -0.10750977 -0.13004957 0.06895795 0.19275984 -0.15497233 0.10707185 0.13583528
-0.0012413325 0.010488015 -0.041737676 -0.1621352 0.18390264 0.18244347 0.14161716 -0.03454314
0.09628994 -0.04866923 0.16981089 -0.10543046 -0.1766691 0.0038470014 -0.12591319 0.015825665
0.13915771 -0.19483295 -0.05653575 -0.11024601 0.10618228 -0.16924591 0.14001752 0.103564374
-0.07455956 0.0626312 0.005932013 -0.02280658 -0.11532919 0.043839555 -0.11464804 -0.0470031
-0.1193923 0.041700162 -0.09708477 -0.16121382 -0.00053040497 -0.00724812 -0.17571919 0.12310231
-0.07251892 -0.17537001 -0.15908036 -0.046640873 0.11367666 0.104518384 0.12102348 -0.11479836
-0.038539436 0.023663754 0.16690257 0.05665306 0.08893368 0.09214926 0.20160946 -0.10512811
0.0089600915 0.0987256 -0.0681452 0.0436983 0.16141392 -0.06508052 0.11817986 -0.14289644
0.026049836 -0.11696147 -0.0668385 0.0048453207 -0.10716406 0.18516104 0.12336491 -0.021647142
-0.19770852 0.07357796 -0.09689646 -0.07077026 0.003978175 -0.11608072 -0.07468554 0.14531927
0.010700033 -0.15456335 -0.11979658 -0.13302374 0.15637071 -0.06794622 0.05522045 -0.08809655
0.03517511 -0.03910522 0.045830145 -0.00064197753 0.111618936 -0.15738615 -0.008792857 -0.118517876
0.14345878 0.06591246 -0.14095077 -0.12790436 0.116436146 0.10683658 0.03549965 -0.058800578
0.15851907 0.12950788 0.14868331 0.2101566 -0.1668597 -0.04037854 0.05659169 -0.030938381
0.14305001 0.044191394 0.12873222 0.16713333 0.064092174 0.13858594 -0.038818624 -0.11305825
0.09451848 0.14258471 -0.057325676 -0.14368604 0.07731547 0.123663984 -0.034149494 0.03331149
0.10656295 0.05951892 -0.109168544 -0.07307073 0.14199062 -0.02998674 0.1372476 0.12625985
0.088964574 -0.039388746 -0.11242674 0.038175486 -0.013181212 0.12636709 -0.092062026 0.16625457
-0.009161543 0.10880663 -0.11079986 -0.09189832 -0.1375581 0.13787688 0.049689163 -0.11698482
0.20667237 -0.12429091 0.009141099 0.10522677 0.14682822 -0.11676016 0.12755577 0.17465894
0.13663024 -0.07912388 0.03480435 0.061717484 -0.113826655 -0.07135077 -0.02987993 0.14382122
0.023492457 -0.11392987 0.05396984 -0.11335053 0.12794942 0.13406028 0.007595011 -0.03735323
0.008710963 0.16127361 -0.0689954 0.19695187 -0.06192186 -0.008091942 0.1850921 -0.067599855
-0.09254501 0.06773935 0.09242785 -0.011749738 0.06864951 -0.070338905 0.115612835 0.050806697
-0.17337786 0.1610297 0.02406466 -0.109933846 -0.031640306 0.20616356 0.15232956 0.04165388

decoder.2.bias f4 [64]
00000000: 5f30 91bd 49a3 323e 56b9 2fbe 3ba7 74bc
00000010: 1477 bbbd 80b6 18be 5a52 bcbb 558a d03c
00000020: e269 043d c8f4 6f3d fe74 a0bd 4d2a a93c
00000030: 6c05 10be 0141 0ebe 9a52 2a3b dfee 86bd
00000040: a713 573d 5e68 bcbd e27a 653e 4739 a63d
00000050: 0921 923d 54a5 13be e7d8 35be 8757 e93d
00000060: be93 05bd d675 453d 510a 2fbe 708d a63d
00000070: 8dd3 473c ff5e d5bd b0eb 0b3d dc82 c83d
00000080: 2388 a6bc e799 c53d 8b8a 9f3b 8170 183c
00000090: bd70 cdbd 72af 2abe 6dde 433d cf76 d53a
000000a0: c9da 4f3e 6e07 68bd 3f4f 9dbd a2b4 813d
000000b0: 1e83 11be 065c df3d db45 fc3d afb7 dabd
000000c0: 03c1 0f3e b5b9 c23d 1220 bc3d 3107 febd
000000d0: e907 e23d bc61 363e 86ed 0d3d 472f d43d
000000e0: 1d6d 463c 8453 c3bd efdd 473e 552e 143e
000000f0: 210e 1bbd 8d20 143e 8e3f 9e39 9c0e a23d
-0.07089304 0.17445101 -0.17160544 -0.014932449 -0.09153572 -0.14913368 -0.0057471218 0.025456587
0.03232754 0.05858305 -0.078348145 0.020650053 -0.14064568 -0.13891985 0.0025989176 -0.0658853
0.052508976 -0.09199594 0.22410157 0.081163935 0.07135207 -0.14418536 -0.17758523 0.11393648
-0.0326116 0.04820808 -0.17093779 0.08132446 0.012196434 -0.1041851 0.034160316 0.097905844
-0.020328587 0.09648495 0.0048688105 0.009304167 -0.10031269 -0.1666849 0.047819544 0.0016286018
0.20298304 -0.05664771 -0.076811306 0.06333281 -0.14210173 0.10906224 0.123180114 -0.10679566
0.14038472 0.09508077 0.091858044 -0.124037154 0.11036665 0.1781072 0.034650348 0.1036058
0.012110976 -0.09537414 0.19518255 0.144708 -0.03785527 0.14465542 0.0003018346 0.07912943

decoder.4.weight f4 [8, 64]
00000000: cd0a fd3d a3d8 623c d5ca 85bd 0d82 403d
00000010: 21ae bc3d d6ed 103e 982d 023d e646 223e
00000020: 5566 d23c 5599 82bd d224 d6bd 0b74 263d
00000030: 55e2 163d b758 36bd d715 973d 2d45 093e
00000040: 5c6c 1f3e adc2 dfbd 4a77 03be e122 4a3d
00000050: 6698 ccbd 47e8 673d db81 f63d 32b2 ab3d
00000060: 873d 7b3d 5b22 44bd c1a3 cf3d 8104 31bd
00000070: a6d7 36bc 703f 76bc 4448 513d e524 963d
00000080: 41df 0dbe fd13 c0bd 341c 693d a050 f53d
00000090: de1f 04bd eeb4 af3d 3941 973d 7522 f03c
000000a0: 02b8 7cbd ffb0 4d3d 12cf 223d ff68 82bd
000000b0: d5dc e93c d1ca 85bc e060 9abd 16e0 a1bd
000000c0: 6c81 d43b 8d37 c83d 541c 353d d162 8ebd
000000d0: 9153 aabc 0984 ce3c 1050 283d 8c7b 553c
000000e0: b3e6 c23d ddc6 97bc 1474 febd e7ab 51be
000000f0: 4d4b 72bd 33f8 34be 5d6f f33d a10b 143e
00000100: c770 0b3e a0cc 153e be0b 1fbc 0d9e 983d
00000110: 010e b7bd 280c f13c e9a3 413d e6fc 983c
00000120: 96ad 083c d247 803c 4f2f 93bd b98e ed3d
00000130: d265 ce3d 4c6c 133e 1d9a 52bd ad21 013e
00000140: 515d 0c3d 09fe 3cbd c87a fdbd 8a72 a7bd
00000150: d3e6 57bc 939e 86bd 0c8f 5fbc cb62 14bc
00000160: 2d49 5fbb 6d5f 1bbe eedd f23d 60ea 53bd
00000170: 84ed 2abd 37b8 1c3e c8d8 aabc 4d47 f93d
00000180: 5feb 97ba 9784 33be ef52 dcbc e73e 0a3e
00000190: dbdf 8d3c 1661 09bc 0ac6 b73d 4b0f 22be
000001a0: 4473 123e 2b04 93bd daf3 9d3d 2b13 aa3d
000001b0: 6e98 533e a500 d1bd d52f 803d 30b3 473c
000001c0: 73ff cbbc 7b2e e5b9 0d15 0dbd 17a2 03be
000001d0: 28ea 8fbd 0a2b 98bd e9d8 8f3b 6c6c 15be
000001e0: b8bb b73d 4552 103d 9e4f 333b 819b 43bc
000001f0: 2aee b1bd a553 e3bc 85b8 bf3d 452f 983d
00000200: 6f7e 4d3d ce8b f33d 2f8b 92bd 1ddc d23c
00000210: 19cf efbd ce75 063e fc10 2bbe 5090 453d
00000220: 207d 6b3d 552c 74bb c533 df3c 994d e43a
00000230: 8842 193c ff16 29bd 9010 15bd c552 8f3d
00000240: 1cf1 fb3d 79ae 09be 3125 c5bc 61b9 363d
00000250: 5dfe 0c3d 23a6 0b39 5d3b 043e dd21 ab3d
00000260: 7c8a f63c bc82 2ebe 3453 8a3d 1eb9 c83d
00000270: cba5 3cbd 319a 1b3e 5d8d 1dbe 8324 ba3d
00000280: 1740 adbd 5611 f1bd 11c9 953d bdfb 223d
00000290: 51fa 973d 9ba5 a5bd 47a1 263d 196a 1abe
000002a0: 9adb dcbd f7bf 193d 836d a1bd 0149 853b
000002b0: 63dc 2a3d 002a ce3d 41ef f4bd 854b 8a3d
000002c0: baf3 80bc 6ba3 733c a5dc da3d ae0e d53a
000002d0: b67c 00be 24b7 98bc bee2 a3bd a506 efbc
000002e0: 3ed5 e33d 3f70 c33d 12ee 1ebd 6334 f8bd
000002f0: 8543 f93d 5311 88bb d7a0 4a3d f498 0bbd
00000300: 0ff7 fb3d c16d 163d 54ce f43d 720e f1bc
00000310: e389 17bd 5d59 2a3d 41b9 8b3c 66d8 89bd
00000320: 877f c5bc 61a3 923d f2a4 c4bd 31c4 34bd
00000330: 7dea 353c 40ba 9b3d 56e6 d23d 4869 733d
00000340: 0453 0b3e 1cb0 8c3a 8d00 023d 76bd 50bd
00000350: ab58 c9bd ddf6 aabd 15d5 d43c 3ffa b4bd
00000360: f234 bfbd 2531 dbbd f690 133e ed73 d7bd
00000370: ab32 1ebd 014e 013e 4d76 aebc a2f1 d53d
00000380: 3085 b8bd 26cf 46bc 454f 7bbb be73 253e
00000390: a70f e23d 18b4 c0bc 1a8b 3abd bcc4 98bd
000003a0: 651f 8e3d b5ec 963d 9b81 9f3d 328c 8139
000003b0: da94 033e ebd5 b13a 94c9 2e3c 4850 b5bd
000003c0: 29ae c7bd a8e3 963c 4903 993d 1056 c13d
000003d0: ee1e 933b b7b1 b7bd b510 cf3a 2469 8bbd
000003e0: abcb 083e 30a7 3ebd bb26 7abc 9940 30be
000003f0: 8b3d d1bd dab7 523b d328 8ebd fc0f 9a3c
0.12355576 0.0138455955 -0.06532828 0.046999026 0.092129 0.14153227 0.031781763 0.15847358
0.025683561 -0.06376902 -0.10456242 0.04063801 0.03683694 -0.0445182 0.073772125 0.13405295
0.1556868 -0.10925803 -0.12838474 0.04934967 -0.09990005 0.056618 0.12036487 0.083835974
0.061337974 -0.047884326 0.101386555 -0.043217186 -0.011159813 -0.015029773 0.05109431 0.07331256
-0.13854696 -0.093788125 0.056911662 0.119782686 -0.032256953 0.085794315 0.07385487 0.029313305
-0.06169892 0.050217625 0.03974826 -0.06367683 0.028547684 -0.016332062 -0.07538009 -0.07904069
0.006485155 0.097762205 0.04421647 -0.069524415 -0.0207918 0.025209444 0.04109198 0.013029944
0.09516659 -0.018527443 -0.12424484 -0.20475732 -0.059153844 -0.17672805 0.11886475 0.14457561
0.1361724 0.1462884 -0.009707389 0.07452021 -0.08938218 0.029424742 0.047275458 0.018675279
0.008342167 0.015659247 -0.07186758 0.11599488 0.100780144 0.1439678 -0.051416505 0.12610503
0.03426868 -0.046140704 -0.12376934 -0.081761435 -0.013177591 -0.065732144 -0.013644945 -0.009056757
-0.0034070716 -0.15173121 0.11858736 -0.05173719 -0.04173042 0.15304647 -0.020855322 0.12171803
-0.0011590532 -0.17531048 -0.026895015 0.13500558 0.017318657 -0.0083849635 0.0897332 -0.15826146
0.14301783 -0.07178529 0.077125266 0.08304437 0.20663616 -0.10205201 0.06259123 0.012188718
-0.024902081 -0.00043712914 -0.034443904 -0.12854801 -0.07027084 -0.07430084 0.0043898714 -0.14592141
0.089713514 0.03523471 0.0027360688 -0.0119389305 -0.08688004 -0.027749846 0.09361366 0.07430891
0.050169405 0.118919 -0.071554534 0.025739724 -0.117094226 0.13130876 -0.16705698 0.04823333
0.057492375 -0.003725787 0.027246365 0.0017418145 0.009354241 -0.041281696 -0.03639275 0.06998209
0.12301847 -0.13445462 -0.024065586 0.044610385 0.034422267 0.00013317964 0.1291327 0.08356068
0.030095331 -0.17042059 0.06754151 0.09800933 -0.04605655 0.15195538 -0.15385957 0.09088995
-0.0845949 -0.11770885 0.07313741 0.039790858 0.07420791 -0.08088227 0.04068115 -0.15079536
-0.10784073 0.037536588 -0.07882216 0.0040675406 0.041714083 0.100666046 -0.119596966 0.067526855
-0.015741218 0.014870505 0.10686616 0.0016254985 -0.12547573 -0.018642016 -0.08002232 -0.029177973
0.11124657 0.095428936 -0.03880126 -0.12119367 0.121710815 -0.004152456 0.049469795 -0.034081414
0.12302982 0.036725763 0.119534165 -0.029425833 -0.036996733 0.04158913 0.01705611 -0.06730728
-0.024108661 0.07160068 -0.09601773 -0.044132415 0.01110327 0.07603884 0.10297839 0.059426576
0.13605887 0.0010733637 0.031738807 -0.050961934 -0.09831365 -0.08347867 0.025980512 -0.08836793
-0.093362704 -0.10702733 0.14410767 -0.10520158 -0.03862254 0.12627412 -0.021296645 0.104464784
-0.090097785 -0.012134349 -0.003834681 0.16157433 0.11038142 -0.023523375 -0.045542814 -0.07459399
0.06939582 0.07369367 0.07788392 0.0002470925 0.12849751 0.0013567781 0.010668177 -0.08853203
-0.09750015 0.018419102 0.0747133 0.09440243 0.004489771 -0.08969443 0.0015797826 -0.06807163
0.13358943 -0.04654616 -0.015268023 -0.17212142 -0.102168165 0.003215304 -0.0694138 0.01880645

decoder.4.bias f4 [8]
00000000: 97bd c8bd f3c9 2dbe cecc 923d 1168 b4bd
00000010: 08cb aebd 083c 81bd 0ed5 8dbc a12b 033c
-0.098017864 -0.16971569 0.0716797 -0.088089116 -0.08534819 -0.06310278 -0.017313506 0.008006007
