models/ae.pt (torch, 28821 bytes, 14 tensors)

encoder.0.weight f4 [64, 8]
0	0x3e55c14e	0.20874521
1	0xbe503b16	-0.2033504
2	0x3e904f46	0.2818548
3	0xbe3b4ca3	-0.18290953
4	0x3e7a94a0	0.24470758
5	0x3e81b7ad	0.25335446
6	0xbe98f7be	-0.29876512
7	0xbe4d2e37	-0.20037161
8	0x3e9c24d6	0.30496854
9	0xbe2ba5c0	-0.16762447
10	0x3e71e9bb	0.23624317
11	0xbe5a43bb	-0.213149
12	0x3d5208ad	0.051277805
13	0xbea6e309	-0.3259509
14	0x3ea6b2d2	0.32558304
15	0x3e58f64c	0.21187705
16	0xbe2a4c31	-0.16630627
17	0x3d3fc87c	0.046822056
18	0x3ebdc9c3	0.37067994
19	0x3e437175	0.19086249
20	0xbe05beaf	-0.13061021
21	0x3df69031	0.12039221
22	0x3d94f99b	0.07274171
23	0xbdecdc8c	-0.115655035
24	0x3d68f9bf	0.0568788
25	0xbe4439d8	-0.1916269
26	0x3e43a829	0.19107117
27	0xbe8f1637	-0.27946636
28	0xbdeca4db	-0.11554881
29	0x3ec84ddb	0.391219
30	0xbe44a378	-0.19202983
31	0x3e968abc	0.2940272
32	0xbe8c52d1	-0.27406934
33	0xbdac5269	-0.08414156
34	0x3d8dd520	0.06925416
35	0x3e92e849	0.28692845
36	0x3e9f8db6	0.31162804
37	0x3d1bd18c	0.038041636
38	0xbe74f666	-0.23922119
39	0x3e0420f2	0.12903193
40	0x3e8969a7	0.2683842
41	0x3e1f4598	0.15553892
42	0x3e8d473e	0.27593416
43	0x3e31d3e7	0.1736599
44	0xbe34845c	-0.17628616
45	0xbd9487d1	-0.072524674
46	0xbe93573c	-0.28777492
47	0x3e286458	0.16444528
48	0x3e8554ff	0.2604141
49	0x3e6591c6	0.2241889
50	0x3cb86d4d	0.022513056
51	0x3e37eaad	0.17960615
52	0x3e705a36	0.23471913
53	0xbe2399cf	-0.15976642
54	0xbe96a862	-0.2942534
55	0x3ec30ef2	0.3809734
56	0x3e50fb42	0.20408347
57	0xbe83fa88	-0.25777078
58	0xbeb9a428	-0.36258054
59	0xbcf14f07	-0.029456628
60	0xbe92c497	-0.2866561
61	0x3ebd8904	0.37018597
62	0x3e9a1da6	0.30100745
63	0xbc6e058a	-0.014527688
64	0xbe3b1a16	-0.1827167
65	0x3e1c2247	0.15247451
66	0x3e8841c2	0.2661267
67	0xbe174218	-0.14771307
68	0x3e40a342	0.18812278
69	0x3e06487d	0.1311359
70	0xbe675521	-0.22591068
71	0x3e38c05a	0.18042126
72	0xbe8bda43	-0.27314958
73	0x3e0dbd6a	0.13841787
74	0x3d536204	0.051607147
75	0x3d1af7ab	0.03783385
76	0x3c957e9c	0.018248849
77	0x3e481fa1	0.19543315
78	0x3e7f7925	0.24948557
79	0x3e932c75	0.28744856
80	0x3e008257	0.1254972
81	0x3d9935b1	0.07480944
82	0xbe61acea	-0.22038618
83	0x3dc51d8c	0.09624776
84	0x3e5759aa	0.21030298
85	0xbdff119e	-0.12454532
86	0x3cf347c4	0.029697306
87	0x3e428234	0.18994981
88	0x3ca7df6a	0.020492274
89	0x3e2edb1f	0.17075776
90	0x3d33fb69	0.043940935
91	0x3e3dc0c5	0.18530567
92	0xbe312d78	-0.17302501
93	0x3dcd0db0	0.10012376
94	0xbe829566	-0.25504607
95	0xbde0e2c6	-0.109807536
96	0xbe57934f	-0.21052288
97	0xbe11341c	-0.14180034
98	0xbce7f2ed	-0.028314078
99	0x3e6b7b15	0.22996171
100	0x3e504370	0.20338225
101	0xbc15d84c	-0.0091458075
102	0xbe7c88e2	-0.24661592
103	0xbda4ed08	-0.080530226
104	0x3e7015f8	0.2344588
105	0x3e0ecd24	0.13945442
106	0xbe874206	-0.2641756
107	0x3e86337b	0.2621115
108	0xbe1a67c9	-0.15078653
109	0xbdabe5b9	-0.083934255
110	0xbe9813a2	-0.2970248
111	0x3e1fd09d	0.15606923
112	0xbe4e49a7	-0.20145284
113	0x3ea66f69	0.32506874
114	0xbdc5d3c6	-0.09659533
115	0xbde6c268	-0.11267549
116	0x3da6559a	0.08121796
117	0x3e043941	0.12912466
118	0x3e3c9f70	0.18420196
119	0x3bb09291	0.005388566
120	0x3e43a84a	0.19107166
121	0x3e00105d	0.12506242
122	0x3d99828e	0.074956045
123	0x3e297bb5	0.16551097
124	0xbd86d8f3	-0.065843485
125	0x3e237b65	0.1596504
126	0xbafd7af0	-0.0019339006
127	0xbe142f15	-0.14471085
128	0x3e643d98	0.22289121
129	0x3ea591ed	0.32337895
130	0x3e582e75	0.21111472
131	0x3e87aea9	0.26500443
132	0xbeb19320	-0.3468256
133	0xbd971f17	-0.07378977
134	0x3c207237	0.009792856
135	0x3e273dcb	0.16332166
136	0xbeb77165	-0.358287
137	0xbbd12902	-0.0063830623
138	0x3e955339	0.29165056
139	0xbd38f62a	-0.045156635
140	0xbea5a417	-0.32351753
141	0xbeb19b83	-0.3468896
142	0x3eb21023	0.34777936
143	0xbc318dc6	-0.010837024
144	0xbe483c48	-0.19554245
145	0xbe8bd33e	-0.27309602
146	0xbe72dadb	-0.23716299
147	0xbd086e61	-0.03330839
148	0xbeacda79	-0.3376043
149	0x3eb33057	0.34997818
150	0x3c97af66	0.018516254
151	0x3e834bb4	0.25643694
152	0x3e8948d6	0.26813382
153	0x3e64f19b	0.2235779
154	0xbd07dfa7	-0.033172276
155	0x3d8fcc53	0.070213936
156	0xbea623f9	-0.3244932
157	0x3e334e17	0.17510258
158	0xbe72a002	-0.2369385
159	0xbe9ab6cf	-0.30217597
160	0xbe482749	-0.19546236
161	0x3e54369d	0.20723958
162	0xbe0341e4	-0.12818104
163	0x3ea0e702	0.31426245
164	0xbe145f33	-0.1448944
165	0x3ea49d16	0.32151097
166	0xbe865b06	-0.2624132
167	0x3e76c739	0.24099435
168	0x3d93f5f8	0.07224649
169	0xbe4c8c38	-0.19975364
170	0x3d74806a	0.059692778
171	0xbde92749	-0.11384446
172	0x3eb2d688	0.349293
173	0xbea923e7	-0.33035204
174	0xbd8c7aff	-0.06859397
175	0xbe388d71	-0.18022706
176	0x3eab52f3	0.33461723
177	0x3e76398c	0.2404539
178	0xbe8c7bca	-0.27438194
179	0xbdef5f27	-0.11688071
180	0xbc817107	-0.015800966
181	0xbe4db95f	-0.20090245
182	0xbd2eea03	-0.04270364
183	0x3d030f7c	0.03199719
184	0xbdf701b5	-0.120608725
185	0xbe743736	-0.23849186
186	0xbdcdb85e	-0.10044931
187	0x3e53a247	0.20667373
188	0xbdc7f8cf	-0.09764253
189	0xbe062827	-0.13101254
190	0xbcd0fd8b	-0.025511524
191	0xbe89fba6	-0.26949805
192	0x3ea0c150	0.31397486
193	0xbe784581	-0.24245264
194	0xbd0fdb50	-0.035121262
195	0xbea20edc	-0.31651962
196	0xbde36304	-0.1110287
197	0x3e44b10f	0.19208167
198	0x3ce1b2ad	0.02755102
199	0xbdd45756	-0.103682205
200	0xbe4120ec	-0.18860215
201	0x3dc80581	0.09766675
202	0xbe5f0c9c	-0.21782154
203	0xbeb251ec	-0.34828126
204	0xbe30966c	-0.17244881
205	0xbd70d07d	-0.05879258
206	0xbdd9e4a8	-0.10639316
207	0x3e928f12	0.2862478
208	0xbe08e818	-0.13369787
209	0xbe5e5602	-0.21712497
210	0xbe755a90	-0.23960328
211	0xbdca1112	-0.09866537
212	0x3e21b46a	0.15791479
213	0xbe7c67a5	-0.24648912
214	0x3e64513b	0.22296612
215	0xbe014a17	-0.1262592
216	0xbe1d8446	-0.1538249
217	0xbe92efb7	-0.28698513
218	0x3e6117c7	0.21981727
219	0xbcf86ea4	-0.030326195
220	0xbe826e5d	-0.25474826
221	0xbea2b067	-0.3177521
222	0x3dc44550	0.09583533
223	0x3d86200b	0.065490805
224	0xbe901a76	-0.28145188
225	0x3e1cab2c	0.15299672
226	0x3e256d95	0.16155083
227	0xbe88adba	-0.26695043
228	0xbe0be8ac	-0.13662976
229	0x3e91e70c	0.28496587
230	0x3e77adbd	0.2418737
231	0x3ea0b50d	0.3138813
232	0x3ddd0300	0.10791588
233	0x3e3877b7	0.18014418
234	0xbe9122dc	-0.28346908
235	0x3d958639	0.073009916
236	0x3eae0c56	0.33993787
237	0x3d87c7f3	0.06629934
238	0xbe3240bb	-0.17407505
239	0x3eabccad	0.33554593
240	0x3e158fc6	0.14605626
241	0x3e0d16ff	0.13778304
242	0xbdeb011c	-0.11474821
243	0x3e245ba7	0.16050588
244	0xbea35106	-0.31897753
245	0x3e55b1a3	0.20868544
246	0xbe181e1f	-0.1485524
247	0x3ebb9381	0.36635974
248	0x3cbf011c	0.023315959
249	0xbeb1ebd8	-0.34750247
250	0xbdb34eca	-0.08755262
251	0xbe484dc2	-0.19560912
252	0xbe20c627	-0.15700589
253	0xbdb4e8e4	-0.08833483
254	0x3ca18625	0.019717285
255	0xbbef22d7	-0.0072978544

encoder.0.bias f4 [64]
0	0x3d66cbfd	0.056346882
1	0xbe52d538	-0.20589149
2	0xbcdcff73	-0.026977276
3	0x3e7ab349	0.24482454
4	0x3e9404ff	0.28910062
5	0xbe78db68	-0.24302447
6	0xbe9d4962	-0.3072005
7	0x3e29214d	0.1651661
8	0xbe3e9e41	-0.18615057
9	0xbe9ee4ab	-0.31033835
10	0x3e5b7a32	0.21433333
11	0x3e943467	0.2894623
12	0xbe9e8bb9	-0.30965975
13	0xbde74a5c	-0.1129348
14	0xbe56e91c	-0.20987362
15	0x3d048b1e	0.032359235
16	0x3dae7b2f	0.08519589
17	0xbe1b93d7	-0.15193115
18	0xbe5923d8	-0.2120508
19	0x3de6c245	0.11267523
20	0xbe5c65a5	-0.2152315
21	0x3dc5c8d8	0.096574485
22	0xbe8a66f2	-0.27031666
23	0x3e961d84	0.29319394
24	0x3e961114	0.29309905
25	0x3e561bd5	0.20909055
26	0x3e033c85	0.12816055
27	0x3e7ddf7b	0.24792282
28	0x3e5dbf83	0.21655087
29	0xbe9eba05	-0.31001297
30	0xbe458b50	-0.19291425
31	0x3ea99827	0.33123896
32	0x3d9ec244	0.07751897
33	0x3e7c57bb	0.24642842
34	0x3e69dc56	0.22837958
35	0x3e72ddb1	0.23717381
36	0xbeb5928e	-0.35463375
37	0xbdfe2dfd	-0.12411115
38	0xbe894e7b	-0.26817688
39	0xbe9635b5	-0.2933785
40	0x3e449a4d	0.19199486
41	0xbe867a20	-0.2626505
42	0x3e209f39	0.15685739
43	0xbdde173a	-0.10844274
44	0x3ebc96a7	0.3683369
45	0xbe8d5aba	-0.2760828
46	0xbe09362a	-0.13399568
47	0x3e3966ed	0.1810567
48	0xbe1314c2	-0.14363387
49	0xbc952f41	-0.018211009
50	0x3e7076fb	0.23482887
51	0xbe48f695	-0.19625314
52	0x3e9ff477	0.312412
53	0xbe9dce88	-0.30821633
54	0x3e72be05	0.23705299
55	0x3e353c81	0.17698862
56	0x3e7b89b8	0.24564254
57	0xbe79deb1	-0.24401356
58	0xbe7ca2f5	-0.24671538
59	0x3df31887	0.118699126
60	0xbdcca200	-0.099918365
61	0x3e0f7d46	0.14012632
62	0x3db8e357	0.09027737
63	0x3d3ce1b4	0.046113685

encoder.2.weight f4 [32, 64]
0	0x3e0ccf0f	0.13750862
1	0xbe059a40	-0.13047123
2	0x3cee4a1f	0.029088078
3	0x3dda3c94	0.106560856
4	0xbd8a2e02	-0.067470565
5	0x3bf40eb1	0.0074480404
6	0x3d407de8	0.046995074
7	0x3d74cc77	0.059765305
8	0xbd8bb974	-0.06822482
9	0x3d4b6fae	0.049667053
10	0x3d6024d0	0.054722607
11	0x3d983e10	0.074337125
12	0x3e08f41f	0.13374375
13	0x3c4f77c4	0.012662832
14	0xbdd626aa	-0.10456593
15	0xbda51e5b	-0.080624305
16	0xbcff98f4	-0.031200863
17	0x3dc5120c	0.09622583
18	0x3d832557	0.064036064
19	0x3c7ad45b	0.015309419
20	0x3d29668e	0.04135757
21	0x3d6cbe68	0.057798773
22	0xbc9fa0ca	-0.01948585
23	0xbce0f852	-0.027462158
24	0x3d05ec14	0.032695845
25	0xbd3dc72f	-0.046332534
26	0x3e0d6b10	0.13810372
27	0xbd6b4816	-0.057441793
28	0x3dcb2f4d	0.09921131
29	0x3c5b3937	0.01338034
30	0x3d83cfa3	0.06436088
31	0xbd231c8d	-0.03982215
32	0x3e181edc	0.14855522
33	0x3d8e70c3	0.06955101
34	0xbdee3894	-0.11631885
35	0x3df985e5	0.121837415
36	0x3c2152a0	0.0098463595
37	0x3df48c9d	0.11940882
38	0xbdd27513	-0.102762364
39	0xbd5d7b9a	-0.054072954
40	0x3d260c0c	0.040538833
41	0xbc4b610b	-0.012413274
42	0x3d6e6e98	0.05821094
43	0x3e04ee99	0.12981643
44	0xbc5d062d	-0.013490242
45	0xbd7dfbaa	-0.062007584
46	0x3e0dcead	0.13848372
47	0x3dcb83ed	0.09937272
48	0xbce7ef9f	-0.028312502
49	0x3d462ee8	0.048384577
50	0xbd712038	-0.058868617
51	0x3cfd64ad	0.030931795
52	0xbd3896b1	-0.045065586
53	0x3c8e2440	0.01735127
54	0xbb860895	-0.0040903785
55	0x3dc0af84	0.09408477
56	0xbbf54b28	-0.007485766
57	0x3cd3d8f8	0.025860295
58	0xbd9a53cf	-0.075355165
59	0x3e07cac0	0.13260937
60	0xbd903bd0	-0.07042658
61	0x3d1c0f3c	0.038100466
62	0xbd669f6e	-0.056304388
63	0xbd3855bc	-0.045003638
64	0xbdf17c8d	-0.11791334
65	0x3d8e693f	0.06953668
66	0xbd5f1503	-0.054463398
67	0x3d536f8b	0.051620048
68	0x3bfcb6ed	0.007712236
69	0x3da83851	0.082138665
70	0xbd211478	-0.03932616
71	0x3c539b56	0.012915453
72	0x3db1a4a1	0.086739786
73	0xbd4db8ca	-0.050225057
74	0x3cb13054	0.02162949
75	0xbd4c945d	-0.049946178
76	0x3db86df2	0.090053454
77	0x3db0e2b9	0.08636994
78	0xbcfe24e8	-0.031023458
79	0x39d353a2	0.00040307367
80	0x3cf214fc	0.029551022
81	0x3bbe4c5f	0.005807444
82	0xbdbb31f2	-0.09140386
83	0x3b2c97ad	0.0026335523
84	0xbc7774b3	-0.015103507
85	0x3d82bdb6	0.06383841
86	0xbca3f751	-0.02001539
87	0xbe03d24d	-0.12873192
88	0xbd2f7085	-0.042831916
89	0x3bbf56c2	0.0058391998
90	0x3d59edd7	0.053205337
91	0xbded55ea	-0.115886524
92	0x3d3ddc2a	0.046352543
93	0x3d71aa34	0.05900021
94	0x3dd2146b	0.10257801
95	0xbc7ef9ac	-0.015562456
96	0xbd779344	-0.060443178
97	0x3cda8029	0.02667244
98	0xbd04c836	-0.0324175
99	0xbccdade5	-0.025107333
100	0x3d3c0027	0.045898583
101	0x3d339e50	0.04385215
102	0xbd41cfe1	-0.04731739
103	0xbc4b1702	-0.012395622
104	0x3d83aac6	0.06429057
105	0xbdd79e94	-0.10528293
106	0x3d37f6c1	0.044913057
107	0xbdbbe323	-0.09174182
108	0xbca3303b	-0.019920459
109	0xbd8108e0	-0.06300521
110	0x3cf905fa	0.030398358
111	0x3c15fe40	0.009154856
112	0xbe0cc224	-0.13745934
113	0x3d720221	0.05908406
114	0xbd7b42ef	-0.06134313
115	0x3d1c8024	0.038208142
116	0x3d995aee	0.074880466
117	0x3bd8dd40	0.006618172
118	0xbd534b41	-0.05158544
119	0x3c16f72e	0.009214206
120	0xbd031461	-0.032001857
121	0xbdebd84d	-0.115158655
122	0xbe05e7a9	-0.13076653
123	0x3ccbea52	0.024892006
124	0xbe0efb85	-0.13963135
125	0xbdb25879	-0.08708281
126	0x3cbcef4b	0.023063323
127	0xbe13cd8b	-0.14433877
128	0x3d99a908	0.07502943
129	0xbdeb68e0	-0.11494613
130	0x3d0cba74	0.034357503
131	0x3dc823a9	0.09772427
132	0xbca5fb50	-0.020261437
133	0xbdd60faa	-0.104522064
134	0x3db839ae	0.089953765
135	0xbd90f3de	-0.07077764
136	0xbd6ece1a	-0.058302023
137	0x3d0f7956	0.035027824
138	0xbc05c0b7	-0.008163623
139	0xbd65b070	-0.056076467
140	0xbd4a5a48	-0.049402505
141	0x3c9aba08	0.018887535
142	0x3dddf14d	0.1083704
143	0x3d732aec	0.059367105
144	0xbdbf25d7	-0.09333389
145	0xbde132de	-0.1099603
146	0xbde6d7e6	-0.11271648
147	0xbdb90388	-0.09033877
148	0x3dc5fb79	0.09667105
149	0xbd204194	-0.03912504
150	0xbd62ddb8	-0.05538723
151	0x3dc44208	0.09582907
152	0xbda2cc64	-0.07949141
153	0xbe09c9d0	-0.13455892
154	0xbd80974e	-0.06278859
155	0xbd1ee664	-0.038793936
156	0x3dcbc7f3	0.09950247
157	0xbbe013aa	-0.0068382816
158	0xbdf3434a	-0.11878069
159	0xbdcabd4e	-0.09899388
160	0x3d0bd868	0.034141928
161	0xbdd8c202	-0.10583879
162	0x3d298680	0.041388035
163	0xbdaf498a	-0.08558948
164	0xbd337474	-0.04381223
165	0xbd2f0a9c	-0.042734727
166	0xbdabf7ca	-0.083968714
167	0xbd1567bc	-0.036475882
168	0x3d5d4e22	0.05402959
169	0xbe08174b	-0.13290136
170	0xbd6f7f20	-0.058470845
171	0xbb8819a0	-0.0041534454
172	0xbd6ce3e7	-0.057834532
173	0x3da51044	0.08059743
174	0xbdd8277a	-0.105544046
175	0xbd3cf5f6	-0.046133004
176	0xbd885e5a	-0.06658621
177	0x3d5e0080	0.054199696
178	0x3d86a368	0.06574136
179	0xbd0484e4	-0.032353297
180	0xbdc17e4c	-0.09447917
181	0xbde046ae	-0.10950981
182	0xbc3c74cc	-0.011502456
183	0xbdedb2e4	-0.11606386
184	0x3ae8b259	0.0017753347
185	0xbc031e45	-0.008002822
186	0x3d990e00	0.074733734
187	0x3d970d98	0.0737564
188	0xbd0fd658	-0.035116524
189	0xbd92eac5	-0.07173685
190	0x3dc101a2	0.094241396
191	0xbda66a12	-0.081257
192	0x3da82f05	0.08212093
193	0xbdd8903a	-0.10574384
194	0x3bdab169	0.006673981
195	0x3d561a96	0.052271448
196	0xbd4503e2	-0.048099406
197	0x3d1821f9	0.037141774
198	0x3d00950c	0.031392142
199	0x3da5b1b1	0.080905326
200	0xbd704465	-0.058658976
201	0xbd60c80d	-0.054878283
202	0xbcf72b81	-0.030172111
203	0xbc958148	-0.018250123
204	0x3e0b127f	0.13581274
205	0x3dcd29d7	0.10017746
206	0xbd8a1628	-0.06742507
207	0xbd40f5a5	-0.047109265
208	0x3d2e9b02	0.042628296
209	0xbc612768	-0.013742305
210	0x3b3a7e63	0.002845668
211	0xbd8e316e	-0.06943022
212	0x3e175bcf	0.14781116
213	0x3d4cb83f	0.0499804
214	0x3d1f3300	0.038866997
215	0x3ddb53a4	0.107093126
216	0xbdd6b892	-0.10484423
217	0x3d7966f3	0.060889196
218	0xbd7e62ae	-0.062105827
219	0x3d49560d	0.04915433
220	0xbd630733	-0.055426788
221	0xbd737982	-0.05944205
222	0xbd6f85de	-0.058477275
223	0x3c7d1eb1	0.015449212
224	0x3d963fb4	0.07336369
225	0x3bb056ba	0.0053814324
226	0x3c8c474f	0.017123846
227	0x3d9a6507	0.07538801
228	0x3d7839d1	0.060602013
229	0xbd9b8bf0	-0.0759505
230	0x3d3b0ea2	0.04566825
231	0xbe2b0d5b	-0.16704313
232	0x3dbaac5a	0.09114905
233	0xbdf07c41	-0.117424496
234	0xbd44881b	-0.047981363
235	0xbd71d6df	-0.059042808
236	0xbd5340a2	-0.05157531
237	0xbdc6fe75	-0.097165026
238	0xbda1db98	-0.07903212
239	0x3d24333f	0.040087935
240	0x3d71316b	0.05888502
241	0x3dfb452d	0.122690536
242	0xbc9eee0a	-0.019400615
243	0x3dfc91a4	0.12332466
244	0x3dc9a597	0.09846037
245	0x3c5f6892	0.013635771
246	0x3d4b215b	0.049592357
247	0x3d7ecbe0	0.06220615
248	0x3d9a7e61	0.07543636
249	0xbdace54c	-0.084421724
250	0x3dd8d0bd	0.10586689
251	0xbc5a8a83	-0.013338688
252	0xbd189d58	-0.03725943
253	0xbd23147b	-0.039814454
254	0xbdd9506b	-0.10611042
255	0x3cfbad57	0.030722303

encoder.2.bias f4 [32]
0	0x3df3e73d	0.119093396
1	0x3cd64338	0.0261551
2	0xbcad05ee	-0.021120992
3	0x3ce49c28	0.027906492
4	0xbdeaf55e	-0.11472581
5	0xbd9992c3	-0.07498696
6	0x3e03fc60	0.12889242
7	0xbe02c977	-0.12772165
8	0xbdf52163	-0.11969259
9	0xbb5cee99	-0.0033711551
10	0xbd1f06cf	-0.038824853
11	0x3d91bdd3	0.07116284
12	0x3d5fb82e	0.054619007
13	0xbc2e5e7d	-0.010642645
14	0x3d5c0906	0.053719543
15	0xbe04042b	-0.12892215
16	0x3a877e67	0.0010337353
17	0x3d5e95e4	0.054342166
18	0x3c55aed7	0.013042173
19	0x3d510193	0.051026892
20	0xbdf1fe08	-0.11816031
21	0xbd172447	-0.03689983
22	0xbd297538	-0.041371554
23	0x3c9583c4	0.018251307
24	0x3cc8c700	0.024508953
25	0x3dd4c1ee	0.10388552
26	0x3da93491	0.08261979
27	0x3defa9f5	0.117023386
28	0x3c82368b	0.015895149
29	0xbd9f1e5f	-0.07769465
30	0x3df08549	0.11744172
31	0xbca83635	-0.02053366

mu.weight f4 [8, 32]
0	0xbe2abe15	-0.16674073
1	0x3dd66ea3	0.10470321
2	0x3cae0944	0.021244653
3	0xbb8e4769	-0.004342009
4	0x3e0ba90a	0.13638702
5	0x3d7704fc	0.060307488
6	0x3e38a44b	0.18031423
7	0x3e0e3921	0.1388898
8	0x3e06eb0e	0.13175604
9	0x3ce86008	0.028366104
10	0x3e2e02cc	0.16993254
11	0xbe4675e4	-0.19380909
12	0x3dfa6378	0.122260034
13	0x3dcf60dc	0.10125896
14	0xbdec6a0e	-0.11543666
15	0x3e1128f1	0.14175774
16	0xbd53a487	-0.051670577
17	0xbda44102	-0.08020212
18	0x3dc17ee5	0.09448031
19	0xbc9f4052	-0.01943985
20	0xbddb9ef7	-0.107236795
21	0xbdd902c5	-0.10596231
22	0xbd6562d3	-0.05600245
23	0x3e12be42	0.1433039
24	0xbd8309af	-0.063983314
25	0x3dbe13c3	0.09281113
26	0x3da416c8	0.08012158
27	0x3d6f6873	0.05844922
28	0x3d444d01	0.047925
29	0x3da8de33	0.08245506
30	0xbd9aca00	-0.0755806
31	0x3e29e669	0.16591801
32	0xbe2f3667	-0.17110597
33	0xbb307ce2	-0.0026929905
34	0x3d28e87d	0.041237343
35	0xbe618820	-0.22024584
36	0xbc6104f6	-0.013734093
37	0xbd9a6145	-0.07538084
38	0xbd3be12d	-0.04586904
39	0x3de20a63	0.11037137
40	0x3dfcfb06	0.123525664
41	0x3d53a5be	0.051671736
42	0x3cec188d	0.0288203
43	0x3d54bb14	0.051936224
44	0x3e096da1	0.13420726
45	0xbe1e1938	-0.15439308
46	0x3d075a39	0.033045027
47	0x3c7e0449	0.015503951
48	0x3cb486eb	0.02203699
49	0xbdf993bd	-0.12186382
50	0x3d494f29	0.04914776
51	0xbd6a8e38	-0.057264537
52	0x3e35027a	0.17676726
53	0xbce693a6	-0.028146576
54	0x3d4b2f47	0.049605634
55	0x3e079951	0.1324208
56	0xbd368d91	-0.044568602
57	0xbd939e9c	-0.07207987
58	0x3e52525a	0.20539227
59	0x3e3d4768	0.1848427
60	0xbd0b8033	-0.034057807
61	0x3de4decc	0.11175308
62	0xbc67e464	-0.014153574
63	0xbe04701f	-0.12933396
64	0xbd2f3fb9	-0.04278538
65	0x3da97597	0.082743816
66	0xbdc9910a	-0.09842117
67	0xbd858f2b	-0.06521448
68	0xbd65e526	-0.056126736
69	0xbcff1335	-0.031137088
70	0xbd1141a5	-0.035462994
71	0xbdbd6b22	-0.092489496
72	0x3c7ed31e	0.015553264
73	0xbdcc6c3c	-0.099815816
74	0x3c991d2f	0.018690674
75	0x3d30fe71	0.043211404
76	0xbcdfba7f	-0.027310608
77	0xbd82b093	-0.06381335
78	0xbe20b386	-0.15693483
79	0xbdec61dd	-0.115421034
80	0xbd8b8c96	-0.06813924
81	0xbe221bef	-0.15830968
82	0xbd4ea1f9	-0.050447438
83	0x3c697349	0.0142486775
84	0x3e041fb0	0.12902713
85	0x3cdeaa82	0.027180914
86	0xbe048bee	-0.12944004
87	0x3e2579e5	0.1615978
88	0x3d239126	0.039933346
89	0x3e3cb154	0.1842702
90	0x3dbcee34	0.09225121
91	0xbe3c9549	-0.18416323
92	0xbdb09d54	-0.08623758
93	0x3e0df67b	0.13863556
94	0x3cb5b702	0.022181991
95	0x3a75e5fa	0.00093802775
96	0xbdd42ad7	-0.103597336
97	0xbe172888	-0.14761555
98	0xbd9f2904	-0.07771495
99	0xbd13fee0	-0.03613174
100	0x3e0b504f	0.13604854
101	0xbd87e587	-0.06635576
102	0x3d8935b2	0.06699695
103	0x3da45422	0.080238596
104	0x3d80ca48	0.06288582
105	0x3de8938f	0.113562696
106	0x3d4fcf99	0.05073509
107	0xbe0e4f01	-0.13897325
108	0x3d8e0596	0.06934659
109	0x3cb84b92	0.022496972
110	0xbdd7bc8d	-0.1053401
111	0xbd938cfb	-0.07204624
112	0x3e1cae9a	0.1530098
113	0xbd6d7781	-0.057975296
114	0xbdbe1011	-0.09280408
115	0x3d992cc2	0.0747924
116	0xbda6b223	-0.08139446
117	0xbd00471c	-0.031317815
118	0xbd2c5fb8	-0.042083472
119	0xbe2200df	-0.15820645
120	0x3e1b8192	0.15186146
121	0xbd82ea7d	-0.06392381
122	0x3ddbc87a	0.10731597
123	0x3e26e7ee	0.16299412
124	0xbd01205c	-0.031525
125	0xbe229dc6	-0.15880498
126	0xbe31b74c	-0.17355078
127	0xbe26e600	-0.16298676
128	0xbd2cab7a	-0.04215572
129	0xbe017811	-0.12643458
130	0x3d3f9943	0.04677702
131	0x3e07efa7	0.13275014
132	0xbd9ed554	-0.07755533
133	0xbd849600	-0.06473923
134	0xbc0d0152	-0.008606272
135	0xbdb67e86	-0.08910851
136	0xbd8411c5	-0.06448702
137	0x3e1aa7e7	0.15103112
138	0xbdc2c9c7	-0.09511142
139	0x3cbb0f77	0.022834523
140	0x3e430b41	0.19047262
141	0x3d70d322	0.058795102
142	0x3e337257	0.17524086
143	0xbe1ab105	-0.1510659
144	0x3e0b4c10	0.13603234
145	0xbe237cd0	-0.15965581
146	0xbe002b12	-0.1251643
147	0xbc948670	-0.018130511
148	0xbdb738b6	-0.08946364
149	0xbe0e1752	-0.13876083
150	0xbe142dee	-0.14470646
151	0x3a0be88f	0.0005337083
152	0xbdd89cbb	-0.10576769
153	0x3d0bfa23	0.034174096
154	0x3e0de71b	0.13857691
155	0x3ccca48d	0.024980808
156	0xbe08ec75	-0.13371451
157	0xbbe5b7e8	-0.0070104487
158	0xbe0db760	-0.13839483
159	0x3d16d716	0.036826216
160	0x3db16024	0.086609155
161	0x3d6d98c7	0.058007028
162	0xbe19e602	-0.15029147
163	0xbca04fab	-0.019569239
164	0xbd82f6ac	-0.06394705
165	0xbca2870a	-0.019839782
166	0xbe49c935	-0.1970566
167	0x3d9b49a5	0.07582406
168	0xbd0c9982	-0.034326084
169	0xbd73ba03	-0.059503566
170	0x3df3aff4	0.11898795
171	0xbe070d3f	-0.13188647
172	0xbd221eaa	-0.039580025
173	0x3d4e8dde	0.050428264
174	0x3d40dc6c	0.04708521
175	0xb889641e	-6.551317e-05
176	0xbd626ee5	-0.05528154
177	0x3db7e542	0.08979274
178	0xbe4c8bb9	-0.19975175
179	0x3d2297cb	0.039695542
180	0xbe1cfe6d	-0.1533143
181	0xbd371416	-0.04469689
182	0xbd401cf9	-0.04690263
183	0xbe00c220	-0.12574053
184	0xbe144cca	-0.14482418
185	0x3de25562	0.11051442
186	0x3d77fa41	0.060541395
187	0xbe660d9c	-0.22466129
188	0xbe32a44f	-0.17445491
189	0xbe1d4145	-0.1535693
190	0x3e3c57af	0.18392824
191	0x3d71ed33	0.0590641
192	0xbbe666c7	-0.007031295
193	0xbdd66fe6	-0.10470562
194	0x3e208563	0.15675883
195	0xbdfa8ebd	-0.122342564
196	0x3ddcc6ef	0.10780131
197	0x3e056006	0.13024911
198	0x3d1b88a6	0.037972115
199	0xbda36e80	-0.079800606
200	0xbe0fd738	-0.14046943
201	0x3ca2d164	0.019875236
202	0xbd98b368	-0.07456094
203	0xbd70780a	-0.05870823
204	0xbe38dff9	-0.18054189
205	0xbe1b1398	-0.15144193
206	0xbe0b8cea	-0.13627973
207	0x3e01836b	0.12647788
208	0x3dc3bc74	0.09557429
209	0xbdcf476e	-0.10121046
210	0xbe047bbb	-0.12937824
211	0xbd19e5f7	-0.037572827
212	0xbdc4f4cc	-0.09617004
213	0x3dc6e975	0.09712497
214	0xbe2e90db	-0.17047445
215	0xbe301e5c	-0.17199081
216	0x3c690f8e	0.0142249
217	0xbc86403d	-0.016388053
218	0xbe3992ae	-0.1812236
219	0xbd69ee9e	-0.05711233
220	0xbd220183	-0.039552223
221	0x3dcc1efe	0.09966849
222	0x3d617a3c	0.055048212
223	0x3dca7545	0.09885649
224	0x3d475755	0.04866727
225	0xbdfdd5a1	-0.12394262
226	0x3cf523f8	0.029924378
227	0xbe3d1a08	-0.18466961
228	0x3dc06f08	0.093961775
229	0x3d223ee5	0.039610762
230	0x3e1e9c54	0.15489322
231	0xbd619c71	-0.055080835
232	0xbe1112c2	-0.14167312
233	0x3bff963a	0.007799891
234	0x3d534490	0.05157906
235	0x3e018e52	0.12651947
236	0x3e3bf2e6	0.18354377
237	0xbdebf557	-0.11521404
238	0xbd2124b2	-0.039341636
239	0x3d554f30	0.052077472
240	0xbe092f9b	-0.13397066
241	0xbd88c91d	-0.06678984
242	0xbda35d88	-0.07976824
243	0xbe0a7140	-0.13519764
244	0x3dcb8935	0.099382795
245	0xbd58023e	-0.052736513
246	0xbe1384c5	-0.14406116
247	0x3c9b05bc	0.018923633
248	0x3e0ad768	0.13558733
249	0x3da3088c	0.079606146
250	0x3ced4e33	0.028967952
251	0xbd9d63d3	-0.076850556
252	0x3da53c6e	0.08068167
253	0x3e1a3fae	0.15063354
254	0xbe3c780c	-0.18405169
255	0x3d738e32	0.05946178

mu.bias f4 [8]
0	0x3bee7c42	0.0072779963
1	0xbd2b564d	-0.04183035
2	0x3da391b7	0.07986777
3	0xbdae8a3c	-0.0852246
4	0x3da67999	0.08128662
5	0x3d9f1236	0.07767145
6	0x3e1f3a29	0.1554953
7	0x3c81c8b9	0.015842782

logvar.weight f4 [8, 32]
0	0xbca12b37	-0.019673927
1	0xbdfb952b	-0.12284311
2	0xbc512903	-0.012766126
3	0x3dced3ed	0.100990154
4	0xbd973951	-0.07383979
5	0xbc8ef2eb	-0.017449817
6	0x3e210141	0.15723135
7	0xbc13808a	-0.009002814
8	0xba7f857a	-0.00097473676
9	0xbdc17ff1	-0.09448231
10	0x3d176733	0.036963653
11	0xbda8ba31	-0.08238638
12	0x3d5c3cef	0.05376905
13	0x3c5703d7	0.013123474
14	0xbd84ce86	-0.06484704
15	0x3e20bc0a	0.15696731
16	0x3d14cdde	0.036329143
17	0x3d834a42	0.06410648
18	0x3dbd85e6	0.09254055
19	0x3d179358	0.037005752
20	0x3c9bf4c8	0.01903762
21	0x3d4813ed	0.048847128
22	0xbc80cf86	-0.015723955
23	0xbdcb3c77	-0.09923642
24	0xbe1d3a10	-0.1535418
25	0x3d816354	0.063177735
26	0x3c8c777f	0.017146824
27	0xbd7786e8	-0.06043139
28	0xbd9ac07b	-0.07556244
29	0xbe0414ff	-0.12898634
30	0xbd646c4d	-0.055767346
31	0x3e303084	0.17206007
32	0xbdb8b372	-0.090186015
33	0xbd2c268a	-0.04202894
34	0x3d73b0fe	0.059494965
35	0xbd7c7584	-0.06163551
36	0x3d97d45d	0.07413552
37	0x3deca49a	0.11554833
38	0xbc3b63de	-0.011437384
39	0x3e39d394	0.18147117
40	0xbdee63d7	-0.11640137
41	0x3d6db723	0.05803598
42	0xbe2450af	-0.16046403
43	0x3c0c4dd6	0.008563479
44	0xbe1c263c	-0.1524896
45	0xbe175e96	-0.14782175
46	0x3d7603df	0.060062286
47	0xbca8c677	-0.020602448
48	0x3dd942a9	0.106084175
49	0x3d0f7403	0.035022747
50	0xbe057af3	-0.13035183
51	0xbd0c28e9	-0.034218702
52	0x3e235f95	0.1595443
53	0x3d7ecfa0	0.062209725
54	0xbdb51d4e	-0.0884348
55	0xbd0fadff	-0.035078045
56	0xbe03bcb4	-0.12864953
57	0xbd9dc072	-0.07702722
58	0x3da6e665	0.08149413
59	0x3d7b446f	0.06134456
60	0xbe005077	-0.12530695
61	0x3df1f4e0	0.11814284
62	0x3de0b205	0.109714545
63	0xbcabb8e7	-0.020962192
64	0xbdd3f3d6	-0.103492424
65	0xbe21882e	-0.15774605
66	0xbdde4b1d	-0.108541705
67	0xbb99a24e	-0.0046885377
68	0xbd01618d	-0.031587172
69	0x3d8d29a6	0.068927094
70	0x3e054d68	0.1301781
71	0xbd4827b3	-0.048865985
72	0x3d97048b	0.073739134
73	0x3daabc24	0.08336666
74	0xbc33f331	-0.010983274
75	0xbddeede3	-0.10885217
76	0x3d8979b7	0.067126684
77	0xbcff0cce	-0.031134035
78	0x3dd83473	0.10556879
79	0xbe074be0	-0.13212538
80	0x3caead08	0.021322742
81	0x3c79eb2f	0.015253826
82	0xbc942593	-0.018084323
83	0xbe5d8b43	-0.21635155
84	0x3d888822	0.0666659
85	0x3df17172	0.11789216
86	0xbce9a4dd	-0.028520996
87	0x3c228e95	0.0099216895
88	0x3d411a8c	0.047144458
89	0x3d0053fd	0.031330097
90	0xbe40f7a5	-0.18844469
91	0xbe48f235	-0.19623645
92	0xbb3c2c93	-0.0028713092
93	0xbd24778b	-0.040153068
94	0xbd937def	-0.07201754
95	0x3cf906e2	0.03039879
96	0xbcb1e83c	-0.021717183
97	0x3e0bfd6e	0.13670895
98	0x3d68ecc3	0.05686642
99	0x3c81844e	0.015810158
100	0x3d20ba88	0.03924039
101	0xbcfc6b92	-0.030813012
102	0xbe70e5e2	-0.23525193
103	0x3ddc8f14	0.107694775
104	0x3d84b342	0.06479503
105	0xbd9f15e5	-0.07767848
106	0x3ddc9709	0.10770995
107	0xbdf155ce	-0.11783944
108	0xbcd5fcbb	-0.026121488
109	0xbdeddfb3	-0.11614933
110	0x3e16083e	0.14651582
111	0x3d9e4f41	0.0772996
112	0xbdc28d10	-0.09499562
113	0x3d782f4b	0.060591977
114	0x3d23ede4	0.040021792
115	0x3b487b5c	0.0030591106
116	0xbe1993ee	-0.14997837
117	0xbe11d90f	-0.14242958
118	0xbd92597f	-0.07145976
119	0x3dce9c50	0.10088408
120	0xbdbb6254	-0.09149614
121	0xbce342b4	-0.027741767
122	0xbe323e47	-0.1740657
123	0x3dc77d1a	0.09740658
124	0x3d41d48d	0.047321845
125	0xbdfae25e	-0.12250207
126	0xbdf5bb22	-0.119985834
127	0x3d9b61a9	0.075869866
128	0x3cbfe6e7	0.023425533
129	0xbe1589d9	-0.14603366
130	0xbe12c420	-0.14332628
131	0x3c98652f	0.018602936
132	0xbc5eb369	-0.013592579
133	0x3d26fc2b	0.04076783
134	0xbda3f8cf	-0.08006441
135	0x3e35ee0a	0.17766586
136	0x3dd9dffb	0.10638424
137	0x3df9db3e	0.1220002
138	0xbbcf46b4	-0.006325567
139	0x3dce03c0	0.10059309
140	0xbcd87c4e	-0.02642646
141	0xbd515d57	-0.051114406
142	0x3e00ff35	0.12597354
143	0x3d7332ed	0.05937474
144	0x3d1b1819	0.03786478
145	0xbbe45b10	-0.0069688633
146	0xbdb4ec63	-0.0883415
147	0xbe000eb5	-0.1250561
148	0xbe120d7c	-0.14262956
149	0xbd3aa10a	-0.045563735
150	0xbd9bbf7d	-0.07604883
151	0xbd931505	-0.071817435
152	0x3da8c8bc	0.08241412
153	0x3d207197	0.039170828
154	0xbde3c57c	-0.111216515
155	0xbd368f14	-0.044570044
156	0x3d427a4b	0.04747991
157	0x3de8f11b	0.11374112
158	0xbd98aaf6	-0.07454483
159	0xbdfed4be	-0.12442921
160	0x3dc3da20	0.095630884
161	0xbdcc70fd	-0.09982488
162	0xbd917e63	-0.071041845
163	0xbe0eb809	-0.13937391
164	0xbe18d4f5	-0.14924987
165	0xbe12c10e	-0.14331457
166	0xbcebe0c4	-0.0287937
167	0x3d7b6d8d	0.061383773
168	0xbd06711d	-0.032822717
169	0xbd5d044e	-0.053959183
170	0x3d8e2576	0.06940739
171	0xbe1995ea	-0.14998594
172	0xbdabcf59	-0.08389158
173	0xbda2fc63	-0.07958295
174	0xbddecd95	-0.108790554
175	0x3e3db75e	0.1852698
176	0x3e16aa20	0.14713335
177	0xbc698474	-0.014252771
178	0xbdd9ad9a	-0.10628815
179	0xbdcd4fbe	-0.10024975
180	0x3d36addc	0.0445994
181	0xbe1e4673	-0.15456562
182	0x3c42ce7b	0.011890049
183	0xbdfaf811	-0.12254346
184	0xbd04a877	-0.032387223
185	0xbe255beb	-0.16148345
186	0x3e0a2362	0.1349006
187	0xbd99ecbd	-0.07515857
188	0x3d202cb9	0.03910515
189	0x3d98094d	0.07423649
190	0x3c997a3c	0.018735044
191	0x3d068dd8	0.032850116
192	0x3e283340	0.164258
193	0x3e05f649	0.13082232
194	0xbe1c523a	-0.15265742
195	0x3db99903	0.09062388
196	0xbe04fd8e	-0.12987348
197	0xbdef2669	-0.11677248
198	0xbcb97b34	-0.022641756
199	0xbdc703ac	-0.09717497
200	0x3e2370e3	0.15961032
201	0xbd48eb41	-0.04905248
202	0xbd03dd82	-0.03219367
203	0x3df8f8a5	0.121568
204	0x3dab3e6c	0.083615154
205	0xbb98abf3	-0.00465917
206	0xbd0918fd	-0.033471096
207	0x3da9ad21	0.08284975
208	0x3ccdfdad	0.025145376
209	0xbd5a9bc4	-0.053371206
210	0xbd8e16a8	-0.06937915
211	0xbd2f9e39	-0.042875502
212	0xbde4c900	-0.1117115
213	0x3d4516b9	0.048117373
214	0xbcf238a3	-0.029568022
215	0xbd0efda0	-0.034909844
216	0xbe112275	-0.141733
217	0xbda433ed	-0.080177166
218	0x3c15bbcd	0.0091390135
219	0x3de3cb45	0.11122755
220	0xbd060d9e	-0.03272783
221	0x3b7b1258	0.0038310494
222	0xbb7a8fa2	-0.0038232584
223	0xbc887858	-0.016658947
224	0x3d9b1642	0.07572605
225	0xbda5ce60	-0.080960035
226	0xbd5e720e	-0.05430799
227	0x3dda73ca	0.10666616
228	0xbd674d55	-0.056470234
229	0xbc98e262	-0.018662635
230	0x3c36523a	0.011128003
231	0xbd43d436	-0.047809802
232	0x3d908ecf	0.070584886
233	0xbd14a524	-0.036290303
234	0x3d3e57c1	0.046470407
235	0x3d26ed94	0.040753916
236	0xbd224f10	-0.03962618
237	0x3c90aa6d	0.01765939
238	0x3df52400	0.11969757
239	0xbd0e3441	-0.034717802
240	0xbd16d5ec	-0.036825106
241	0x3e12c42a	0.14332643
242	0xbe076e0d	-0.13225575
243	0xbe2b1ca7	-0.16710149
244	0xbdce076c	-0.10060009
245	0xbd4b5bef	-0.04964822
246	0x3d35fea4	0.044432297
247	0x3c99ef15	0.018790761
248	0xbe051ffd	-0.13000484
249	0xbd8d8716	-0.06910531
250	0x3d247615	0.040151674
251	0x3d7b7aa0	0.06139624
252	0xba75f165	-0.0009381979
253	0x3d95a832	0.07307471
254	0x391fc836	0.00015238006
255	0x3d3ca4b2	0.046055503

logvar.bias f4 [8]
0	0xbd36583e	-0.044517748
1	0xbde4e374	-0.11176196
2	0x3d87b07d	0.06625459
3	0x3c64f14b	0.013973544
4	0x3cb8dc62	0.022566024
5	0xbd3f299f	-0.046670552
6	0xbdf9ef7e	-0.12203883
7	0xbc8dc5d3	-0.017306244

decoder.0.weight f4 [32, 8]
0	0x3dbbae38	0.09164089
1	0xbe522a89	-0.20524038
2	0x3e5cee05	0.21575172
3	0xbe97a286	-0.29616183
4	0xbe7575c7	-0.2397071
5	0x3eb77c37	0.35836956
6	0x3de66d78	0.11251348
7	0x3e964dca	0.29356223
8	0xbd429fad	-0.04751556
9	0x3e91703d	0.28405944
10	0x3e7a1726	0.24422893
11	0xbe8879ae	-0.26655334
12	0xbdd7eb79	-0.1054296
13	0x3e46cc33	0.19413833
14	0xbe42172f	-0.18954156
15	0xbe99df20	-0.30053043
16	0xbeb02cd5	-0.34409204
17	0xbd0d9651	-0.03456718
18	0x3e0ed4a1	0.13948299
19	0xbea0e120	-0.31421757
20	0xbd8e894b	-0.0695978
21	0xbd6d4acf	-0.05793267
22	0xbe6f4a44	-0.23368174
23	0xbd8b383c	-0.06797835
24	0xbe812ef2	-0.2523113
25	0x3e34ea15	0.1766742
26	0xbe04d8b9	-0.12973298
27	0x3da3e60e	0.08002864
28	0x3e68cd70	0.22734618
29	0xbd83d1d9	-0.0643651
30	0x3d99c4d6	0.075082466
31	0x3bd1ae2b	0.0063989363
32	0xbe97f695	-0.29680315
33	0xbd520b81	-0.051280502
34	0x3eb18cfc	0.34677875
35	0xbd4af8e7	-0.049553778
36	0x3e3b0bcf	0.18266223
37	0x3e90bcc5	0.2826902
38	0xbcc63ff7	-0.024200423
39	0xbe965154	-0.29358923
40	0xbe86853a	-0.2627352
41	0xbeb805ef	-0.35942027
42	0x3dc5c2d8	0.09656304
43	0xbe2fc3b0	-0.17164493
44	0xbea5dbf2	-0.32394367
45	0x3eaa10db	0.33215985
46	0x3db07272	0.08615579
47	0xbe2fb250	-0.17157865
48	0x3eb13d1a	0.3461693
49	0x3e5c59b6	0.21518597
50	0x3d8796ce	0.066205606
51	0x3e93a5a1	0.28837302
52	0x3e0b391e	0.13596007
53	0xbe9e52d1	-0.3092256
54	0xbe5db0a9	-0.21649422
55	0x3eb05552	0.34440094
56	0xbe2854a4	-0.16438538
57	0x3d9b5f87	0.0758658
58	0x3d4bfd87	0.04980233
59	0x3d91074b	0.07081469
60	0x3cb883b9	0.022523748
61	0xbd749025	-0.05970778
62	0xbe20102e	-0.15631172
63	0x3db71c3a	0.08940931
64	0x3dd1cc15	0.10244004
65	0xbdb52412	-0.088447705
66	0xbe98c9c7	-0.29841444
67	0xbc83c7db	-0.01608651
68	0x3e3f4a61	0.18680717
69	0x3c801d3f	0.015638946
70	0x3de49fba	0.11163278
71	0x3eadc836	0.3394181
72	0x3e9eeafa	0.31038648
73	0xbe8502bc	-0.2597865
74	0xbe446b74	-0.19181615
75	0xbe9dc73c	-0.30816066
76	0xbe9dfafe	-0.30855554
77	0x3db2baaa	0.087270096
78	0xbdaf9c8e	-0.08574782
79	0xbd85e380	-0.06537533
80	0x3ec7a6c4	0.3899442
81	0x3e4b2613	0.19838743
82	0x3e4c32bd	0.1994123
83	0x3eb03fca	0.34423667
84	0xbe2b8dd0	-0.16753316
85	0x3ca7989f	0.020458518
86	0x3da50310	0.08057225
87	0x3d05a4b7	0.032627787
88	0xbe7bd6f0	-0.24593711
89	0xbe6d0bbe	-0.2314901
90	0x3df1d976	0.118090555
91	0x3de45805	0.11149601
92	0xbe922574	-0.285442
93	0x3d8a505b	0.06753608
94	0x3e8a5c03	0.27023324
95	0xbe9406ed	-0.28911534
96	0xbe8685bb	-0.26273903
97	0xbeb8669e	-0.3601579
98	0xbea1460e	-0.3149876
99	0x3e236083	0.15954785
100	0x3d0c7b8d	0.034297515
101	0xbdfb9bc5	-0.1228557
102	0x3d57c781	0.052680496
103	0xbe75376e	-0.23946926
104	0x3e5a7d86	0.21336946
105	0x3e2d6e0b	0.1693651
106	0x3e8411bb	0.25794777
107	0xbe341647	-0.17586623
108	0xbe2f87ce	-0.17141649
109	0x3e50594a	0.20346561
110	0xbd3ae51f	-0.045628663
111	0xbca922de	-0.020646509
112	0x3e371935	0.1788071
113	0x3e26924f	0.1626675
114	0xbe379afd	-0.17930217
115	0x3d955ef0	0.072934985
116	0xbe89dea4	-0.26927674
117	0x3dd1557d	0.10221384
118	0x3e3c632e	0.18397209
119	0x3e967679	0.29387262
120	0xbdcecd85	-0.100977935
121	0xbe8852af	-0.26625583
122	0xbe980fd2	-0.2969957
123	0x3e8fcc0a	0.28085357
124	0xbdc2d2c9	-0.0951286
125	0xbe999c44	-0.30002034
126	0x3e870e51	0.2637811
127	0x3e69c595	0.22829278
128	0xbdbd9624	-0.09257153
129	0xbe464e03	-0.19365697
130	0x3df20159	0.11816663
131	0x3e6dceab	0.23223369
132	0x3de42804	0.11140445
133	0x3e7bf1b6	0.24603924
134	0xbcd22161	-0.025650682
135	0x3d9f4883	0.077775024
136	0x3dcd99ed	0.10039125
137	0x3e5e71df	0.21723126
138	0x3d254a9b	0.040354352
139	0xbe4ce9a6	-0.20011005
140	0xbd955e5a	-0.07293387
141	0xbe9a8a44	-0.30183613
142	0x3e7beea1	0.24602748
143	0xbdb957a4	-0.09049919
144	0x3cbb3b2d	0.022855366
145	0x3e7650c1	0.24054243
146	0xbeb6e26a	-0.35719615
147	0x3ebbfb21	0.36715034
148	0xbd98299a	-0.0742981
149	0xbd2163ed	-0.039401937
150	0xbe80cf22	-0.2515803
151	0x3e86a574	0.26298106
152	0x3e18634c	0.14881629
153	0xbd27c44e	-0.040958695
154	0xbd8a3334	-0.067480475
155	0xbcc37381	-0.023858787
156	0x3e03a49d	0.12855764
157	0x3ec20fda	0.3790272
158	0x3e02b4de	0.12764308
159	0xbcd04296	-0.025422376
160	0x3ec33138	0.38123488
161	0x3e21fac5	0.15818317
162	0xbe813428	-0.25235105
163	0x3e4fd3ec	0.20295686
164	0xbe063c90	-0.1310904
165	0x3df76e58	0.12081593
166	0xbd99b321	-0.07504869
167	0x3eab26b5	0.3342797
168	0x3e1ac6f0	0.15114951
169	0xbd87b20a	-0.06625755
170	0xbea9b7a7	-0.33147928
171	0xbe91a466	-0.2844574
172	0xbcaaf3bd	-0.020868177
173	0xbdb9f5d7	-0.09080093
174	0x3ea433a5	0.32070652
175	0x3b3f0842	0.002914921
176	0xbc9f2669	-0.019427495
177	0x3e833935	0.25629583
178	0xbd8c02d8	-0.0683648
179	0xbe802887	-0.2503092
180	0xbe575474	-0.2102831
181	0x3db8ef48	0.09030014
182	0x3db74dca	0.08950384
183	0xbe5753c0	-0.21028042
184	0x3dfe9bd6	0.12432067
185	0xbe700093	-0.23437719
186	0xbe87509e	-0.26428694
187	0x3dea642c	0.114448875
188	0xbd6bcd7e	-0.05756902
189	0xbe49674a	-0.19668308
190	0xbe550282	-0.20801738
191	0x3c800894	0.01562909
192	0x3e8460d7	0.25855133
193	0xbe7d48e7	-0.24734841
194	0xbeb0b3da	-0.34512216
195	0x3ac43afe	0.0014971194
196	0x3eb18e91	0.34679082
197	0xbeb782c7	-0.35841963
198	0xbde0e35c	-0.10980865
199	0xbe97d1ed	-0.29652348
200	0x3e9d1528	0.30680203
201	0x3e956462	0.29178149
202	0xbe6541c0	-0.22388363
203	0x3d818076	0.0632333
204	0x3d9d1a1a	0.07670994
205	0xbea88bc8	-0.32919145
206	0x3c27788f	0.0102216145
207	0xbe5ca662	-0.21547845
208	0x3dcbacdf	0.09945082
209	0xbe44eacd	-0.19230194
210	0x3e9d7840	0.30755806
211	0x3df879af	0.12132584
212	0x3e93670c	0.28789556
213	0xbcc52134	-0.024063684
214	0x3e816a5d	0.2527646
215	0x3e886792	0.26641518
216	0xbe771039	-0.24127282
217	0x3eaa69cb	0.3328384
218	0xbeb3c98d	-0.3511471
219	0xbe80686b	-0.25079665
220	0x3e7d2cfd	0.24724193
221	0xbe0eec4c	-0.13957328
222	0xbea2ae9e	-0.31773847
223	0xbe8f784b	-0.28021464
224	0x3e9a9654	0.30192816
225	0xbebdbd02	-0.37058264
226	0xbe87729e	-0.26454633
227	0xbeaa2234	-0.3322922
228	0x3cbeba52	0.023282204
229	0x3ddb80e7	0.107179455
230	0xbd49c221	-0.0492574
231	0x3e988a21	0.29792884
232	0x3d160f0f	0.036635455
233	0xbe17f857	-0.14840828
234	0xbcb66f20	-0.022269785
235	0x3e766e28	0.24065459
236	0x3ea7c3d2	0.32766587
237	0xbe19859d	-0.14992376
238	0xbdbc259b	-0.0918686
239	0xbcc2ff1a	-0.023803283
240	0x3e51e3df	0.20497082
241	0x3ec43aa3	0.38325986
242	0xbdbf1a93	-0.093312405
243	0x3ed65fbf	0.41869923
244	0x3e91567a	0.2838629
245	0xbe284071	-0.16430832
246	0xbe8e9a04	-0.2785188
247	0x3d56fa16	0.052484594
248	0xbc97277e	-0.018451449
249	0xbe4a0df9	-0.19731893
250	0xbdbb1481	-0.0913477
251	0x3e9c513b	0.30530724
252	0xbe93b43d	-0.28848448
253	0x3d18d995	0.037316877
254	0xbe110cfd	-0.14165111
255	0x3e495496	0.19661173

decoder.0.bias f4 [32]
0	0x3e981c66	0.29709166
1	0x3e08275b	0.13296263
2	0xbeb3c80d	-0.35113564
3	0x3eb4d506	0.35318774
4	0x3ecb8466	0.3974945
5	0xbdce4a16	-0.100727245
6	0x3eaa578c	0.33269918
7	0xbdc63abd	-0.09679172
8	0x3c2d2dc1	0.010569991
9	0x3e7cd150	0.24689221
10	0xbe7b7e5a	-0.24559918
11	0xbe18cef2	-0.14922693
12	0x3d7f10f3	0.062272023
13	0x3e82113a	0.25403768
14	0xbe71b5ab	-0.23604457
15	0xbe0b8b94	-0.13627464
16	0x3e9b70ed	0.30359593
17	0x3e8f4c1c	0.27987754
18	0x3ea00a7d	0.31258002
19	0x3ea9632a	0.3308347
20	0x3d983422	0.074318185
21	0xbe412fc8	-0.18865883
22	0xbe6a767d	-0.22896762
23	0x3e55c663	0.2087646
24	0x3ea7dfe8	0.32788014
25	0x3dfc4238	0.12317318
26	0xbe13d09c	-0.14435047
27	0x3eac938e	0.33706325
28	0xbc18a09d	-0.009315637
29	0x3d1579f8	0.03649327
30	0x3e42481d	0.18972822
31	0x3d54cdd6	0.051954113

decoder.2.weight f4 [64, 32]
0	0x3d210995	0.03931578
1	0xbe1fa72a	-0.15591112
2	0x3aa0da61	0.0012272113
3	0xbc5d99ab	-0.013525407
4	0xbe38bff5	-0.18041976
5	0xbdc3ed74	-0.09566775
6	0x3b45979c	0.003015018
7	0x3d3acb30	0.04560393
8	0x3df8a42e	0.1214069
9	0x3d2cd02a	0.04219071
10	0x3c0537cd	0.00813098
11	0x3dc89d73	0.09795656
12	0x3d847c62	0.06469037
13	0xbd9130e7	-0.070894055
14	0x3c4218bb	0.0118467165
15	0xbe2b47b5	-0.16726573
16	0xbdff5e80	-0.12469196
17	0xbd3b26a4	-0.045691147
18	0xbcc258c6	-0.023723971
19	0xbd92da93	-0.07170596
20	0x3dbfe470	0.09369743
21	0x3e0e4e23	0.13896994
22	0xbd672dae	-0.056440048
23	0xbdeaea16	-0.114704296
24	0x3dd2d5af	0.10294663
25	0xbdcef4a7	-0.101052575
26	0xbdcfaba1	-0.101401575
27	0x3b2ac3ce	0.002605665
28	0xbd76ed8b	-0.060285132
29	0x3d6711fa	0.05641363
30	0xbe11e6af	-0.14248155
31	0xbe01ca6a	-0.12674871
32	0x3e517c86	0.20457658
33	0x3dea2751	0.1143328
34	0xbdd3197d	-0.10307596
35	0xbdb61c3f	-0.08892106
36	0xbdf60030	-0.120117545
37	0x3c85f788	0.016353384
38	0xbe0436e9	-0.12911572
39	0xbdda2051	-0.10650695
40	0xbd15377a	-0.03642986
41	0x3db84481	0.08997441
42	0x3e0a6107	0.13513575
43	0x3d48b613	0.049001765
44	0x3c8fc4f6	0.017549973
45	0x3e4ab224	0.19794518
46	0x3df24d70	0.11831176
47	0xbe0b04f2	-0.13576105
48	0x3dcae93b	0.099077664
49	0xbd91b9c2	-0.071155086
50	0x3c66dace	0.014090253
51	0xbd3adff0	-0.04562372
52	0xbd326616	-0.043554388
53	0x3deb7f0b	0.11498841
54	0x3da15f8a	0.07879551
55	0x3c6e32d4	0.014538486
56	0xbdd3dc97	-0.103448085
57	0xbe0c4c54	-0.13700992
58	0xbc84a49b	-0.016191771
59	0x3db2fd88	0.087397635
60	0x3dd607f2	0.10450734
61	0xbe0c6c0e	-0.13713095
62	0x3de37c6b	0.11107715
63	0x3bd09e93	0.00636656
64	0xbda8482d	-0.082168914
65	0x3d52ecee	0.051495485
66	0xbc4215b9	-0.011845999
67	0xbc4edaca	-0.012625406
68	0x3ca92aea	0.020650346
69	0x3d9bb301	0.07602502
70	0xbdef22e1	-0.116765745
71	0xbdb2254a	-0.086985186
72	0xbd3484cc	-0.044071957
73	0x3e146fec	0.1449582
74	0x3cd8e677	0.026477082
75	0xbd045e63	-0.032316577
76	0x3d9a0386	0.07520203
77	0x3c21dc1b	0.009879137
78	0x3d1bbcdc	0.038021907
79	0xbbf80910	-0.0075694397
80	0x3e07f03a	0.13275233
81	0xbd691d01	-0.056912426
82	0xbd395951	-0.045251194
83	0xbe32b78e	-0.17452833
84	0xbd777f87	-0.060424354
85	0xbd221bbc	-0.03957723
86	0x3e38205a	0.17981091
87	0xbe256b16	-0.16154131
88	0x3df671fc	0.120334595
89	0x3de914e2	0.11380936
90	0xbdb4e511	-0.088327534
91	0x3dd00cb3	0.10158672
92	0xbe3b0b8b	-0.18266122
93	0xbd226820	-0.039650083
94	0x3d8ca6a6	0.06867723
95	0x3d072bae	0.03300064
96	0xbddea522	-0.1087134
97	0xbe1bf8f2	-0.15231684
98	0x3d0cd63a	0.03438399
99	0x3d155830	0.036461055
100	0xbe28b7cc	-0.16476363
101	0xbda195f3	-0.07889929
102	0x3dac1f2b	0.08404382
103	0x3d7d6f5a	0.06187377
104	0x3e24191f	0.16025208
105	0x3c03a576	0.008035054
106	0x3e0b744c	0.13618582
107	0x3debe2c8	0.115178645
108	0xbdf2713e	-0.118380055
109	0xbc6dc05c	-0.014511194
110	0xbdc2bc34	-0.09508553
111	0xbe12dd86	-0.14342317
112	0xbc8fcc08	-0.017553344
113	0xbe12c7d6	-0.14334044
114	0x3daf8ec0	0.08572149
115	0xbca267d6	-0.019824903
116	0xbdec8a18	-0.11549777
117	0x3d0e20c7	0.034699228
118	0x3e00e8e4	0.1258884
119	0x3d709e34	0.058744624
120	0x3ddfb0c9	0.10922391
121	0xbd172adc	-0.03690611
122	0x3d9dd65a	0.077069
123	0x3e292276	0.16517052
124	0xbe482e5b	-0.19548933
125	0xbdd0c47c	-0.101937264
126	0x3e60942a	0.2193152
127	0x3e09fe04	0.13475806
128	0x3d9f67a1	0.077834375
129	0xbe1b6724	-0.15176064
130	0x3b26ec83	0.0025470562
131	0x3dba5bc3	0.090995334
132	0xbe23e45c	-0.16005081
133	0xbe1e4048	-0.15454209
134	0xbdb27435	-0.08713571
135	0x3df6336c	0.12021527
136	0x3e151563	0.1455894
137	0x3b861e0f	0.0040929387
138	0x3d93ec4d	0.07222805
139	0xbdd6c426	-0.10486631
140	0x3db785e9	0.08961088
141	0xbc10b64a	-0.008832524
142	0xbc9ac2b6	-0.018891674
143	0x3de46492	0.11151995
144	0xbe2a6141	-0.16638662
145	0xbccba6cc	-0.024859808
146	0xbe44861d	-0.19191785
147	0x3de7b3c1	0.11313582
148	0x3dd14a90	0.102193
149	0x3d7ff1b9	0.062486384
150	0x3ca3661a	0.019946147
151	0x3de52912	0.11189474
152	0xbe098f56	-0.13433585
153	0x3e140b58	0.14457452
154	0xbd4ed587	-0.050496604
155	0x3e22c8e7	0.1589695
156	0x3d82ad38	0.06380695
157	0x3b859384	0.004076423
158	0xbda3683e	-0.07978867
159	0x3d63d414	0.055622175
160	0xbc93c6da	-0.018039156
161	0xbe320d1a	-0.1738781
162	0xbc1247ac	-0.008928221
163	0xbe0c4c2f	-0.13700937
164	0xbe183161	-0.14862587
165	0xbe1c2b58	-0.1525091
166	0x3e17b45c	0.14814895
167	0xbde801ec	-0.113284916
168	0xbe334ae9	-0.17509045
169	0x3affd666	0.0019518852
170	0xbe008a42	-0.12552741
171	0x3d6bcd17	0.057568636
172	0xbdb37a9e	-0.08763622
173	0xbd32e038	-0.043670863
174	0x3dd557ef	0.104171626
175	0x3b7eea1e	0.003889687
176	0xbe2cd5b6	-0.16878399
177	0x3e23c94c	0.15994757
178	0xbd7449ca	-0.059640683
179	0x3de92b16	0.11385171
180	0x3dbf796f	0.093493335
181	0xbd9a0b5b	-0.07521697
182	0xbda6cbd4	-0.08144346
183	0xbd8c1477	-0.06839841
184	0x3c331177	0.010929457
185	0x3c740e13	0.014895934
186	0x3d561967	0.05227032
187	0xbc373a14	-0.0111832805
188	0xbdb4417e	-0.08801554
189	0xbd9cac88	-0.07650095
190	0xbe2703ed	-0.16310091
191	0xbe197719	-0.14986838
192	0x3d4e1a66	0.050318144
193	0xbde9d830	-0.114181876
194	0x3d100822	0.035164006
195	0xbe1e510c	-0.15460604
196	0x3d20b2b6	0.039232932
197	0xbd997ecb	-0.07494887
198	0x3d40d213	0.047075342
199	0x3da4359d	0.080180384
200	0x3c6c7636	0.014432481
201	0xbc0b0c0c	-0.008486759
202	0x3d33df9e	0.04391443
203	0x3e24bd0e	0.16087744
204	0xbe35f6a4	-0.17769867
205	0xbd90516d	-0.07046781
206	0xbe251470	-0.16121078
207	0x3df620bf	0.120179646
208	0xbdd068a5	-0.10176209
209	0xbdd6d294	-0.10489383
210	0x3e31b536	0.17354283
211	0x3d2bb4e9	0.041920576
212	0x3d532dc2	0.05155731
213	0x3d68f8bc	0.056877837
214	0x3df1ec84	0.1181269
215	0x3d7b9c98	0.061428636
216	0x3df50834	0.11964455
217	0x3d9cdb53	0.0765902
218	0xbe0d7c38	-0.13816917
219	0xbe0de2e1	-0.13856079
220	0xbe29af20	-0.16570711
221	0x3daebf76	0.08532612
222	0x3e1f3de9	0.1555096
223	0x3c3e8374	0.011628021
224	0x3d01f042	0.03172327
225	0x3dac8f40	0.0842576
226	0xbc565636	-0.013082078
227	0xbdadd188	-0.084872305
228	0xbe3e3968	-0.18576586
229	0x3de6a911	0.112627156
230	0xbda51037	-0.08059733
231	0xbc5d7c6c	-0.013518434
232	0x3b7139fb	0.003680824
233	0xbe1c7ff4	-0.15283185
234	0x3e318acb	0.17338102
235	0xbe1128e9	-0.14175762
236	0xbbb0ed63	-0.0053993925
237	0xbe1bd8c4	-0.15219408
238	0xbd589705	-0.0528784
239	0x3d864553	0.06556191
240	0xbe088e07	-0.13335429
241	0x3cf596ee	0.029979195
242	0xbda676ab	-0.08128103
243	0xbe1367e2	-0.14395097
244	0xbd14ff29	-0.036376152
245	0x3ba6a33a	0.005085376
246	0xbcc00a5f	-0.023442445
247	0x3daccb6a	0.08437236
248	0x3dcb5b01	0.09929467
249	0x399f92d6	0.00030436245
250	0xbbbb822c	-0.005722305
251	0x3d125d32	0.03573341
252	0xbdaa8b04	-0.083272964
253	0xbe0d0e7b	-0.13775055
254	0xbdca43a4	-0.09876183
255	0xbe1a1756	-0.15047964

decoder.2.bias f4 [64]
0	0x3dfd5ee2	0.12371613
1	0x3dfc0b0a	0.12306793
2	0x3d9f7353	0.07785668
3	0xbc1deb27	-0.009638584
4	0xbdf92452	-0.12165131
5	0xbe1af3c8	-0.15132058
6	0xbd3157cd	-0.043296624
7	0xbcb8dbfa	-0.02256583
8	0xbe47890e	-0.19485876
9	0xbe06b8bb	-0.13156407
10	0xbe2b57a5	-0.16732652
11	0xbe3c1dcf	-0.18370746
12	0x3c9539c9	0.01821603
13	0x3e016c9e	0.1263909
14	0x3d68d8ee	0.056847505
15	0x3d5897b2	0.052879043
16	0xbdb08049	-0.086182185
17	0xbdbf1f56	-0.09332149
18	0xbe36f89b	-0.17868273
19	0xbd194f8e	-0.037429385
20	0x3dec3f19	0.115354724
21	0xbd641ebc	-0.055693373
22	0x3d930ead	0.071805336
23	0xbd5c6d52	-0.053815193
24	0x3d37aeb6	0.04484435
25	0xbe1d34a7	-0.15352117
26	0xbcfbc4b3	-0.030733442
27	0xbd267468	-0.040638357
28	0xbb5f179f	-0.003404118
29	0x3df0d153	0.117586754
30	0x3dbb4056	0.091431305
31	0xbe0e1f8f	-0.13879226
32	0xbdb0bec2	-0.08630134
33	0x3c8cdc46	0.017194878
34	0xbd0e6ede	-0.0347737
35	0x3da14f80	0.078764915
36	0xbdbb4e4b	-0.091457926
37	0xbe317e03	-0.17333226
38	0x3e16e07c	0.14734071
39	0x3c508762	0.01272759
40	0xbd180ec2	-0.03712345
41	0xbddad946	-0.10685973
42	0xbdb16ec0	-0.08663702
43	0x3e59a70f	0.21255134
44	0xbd6e98bf	-0.05825114
45	0xbdb1fa18	-0.0869028
46	0xbdd80fd1	-0.10549892
47	0x3e21b8f2	0.15793207
48	0xbdfbf54f	-0.12302648
49	0xbe085558	-0.13313806
50	0xbd0695c4	-0.03285767
51	0x3e350401	0.17677309
52	0x3bbb6f03	0.0057200207
53	0x3d09d550	0.033650696
54	0xbdcf28e6	-0.10115223
55	0x3dbd4c36	0.09243052
56	0xbdde3f92	-0.10851969
57	0xbc8c3536	-0.017115217
58	0xbb866845	-0.0041017854
59	0x3dbebfca	0.093139246
60	0xbe1d54ec	-0.15364426
61	0xbe269d95	-0.1627105
62	0xbdc9db23	-0.0985625
63	0x3c332061	0.010933013
