models/ae.pt (torch, 27797 bytes, 14 tensors)

encoder.0.weight f4 [64, 6]
000000 db 9f cd 3d d9 3f a0 3d 10 be ca 3e 21 8e 44 be
       0.10040256 0.07824678 0.3959813 -0.19194843
000010 c7 3e 2e 3e d6 86 30 bd ab 28 89 be b4 c9 91 be
       0.17016135 -0.04309734 -0.2678884 -0.284742
000020 25 89 d1 3e 0c df 11 3e 05 e7 0d be c9 5f 6a be
       0.40924945 0.14245242 -0.13857658 -0.22888102
000030 05 99 b5 bd 65 e7 bf 3e 87 af 5a be ac 36 05 3e
       -0.08867077 0.37481228 -0.21356021 0.13009137
000040 94 4a b5 3d ec 6c c8 3e 17 c5 67 3d 47 fe 82 be
       0.08852115 0.391456 0.056584444 -0.25584623
000050 57 69 94 be 92 f6 ff 3c 75 c9 aa be 20 da 08 3e
       -0.28986618 0.031245504 -0.33356825 0.13364458
000060 e4 dc 94 be c1 af 9a be db 31 57 3b be 6f 0e 3e
       -0.29074776 -0.30212215 0.0032836113 0.13909814
000070 0e d8 88 3e 90 55 92 3e 48 ef 29 3d 69 56 3b be
       0.26727337 0.28580904 0.041487962 -0.18294682
000080 c5 c1 b5 bd d4 88 1b 3e 60 cc 48 3d cb c3 92 bd
       -0.08874849 0.15188915 0.049023032 -0.07166251
000090 c6 6b 50 3e af 4e a2 be 28 6a c6 3e a9 66 62 3c
       0.20353612 -0.31700656 0.38752866 0.013818421
0000a0 45 b8 7d bd 81 9c a9 be 10 09 9a be 0b ae b5 be
       -0.06194331 -0.33127216 -0.3008504 -0.35484347
0000b0 b2 13 53 3e 57 ed e4 bd 4e 3d 8f bb 55 97 6f be
       0.20612982 -0.111780815 -0.0043713218 -0.23397572
0000c0 28 23 a4 3e af 68 a7 be d4 e7 f6 3d 46 7b 31 3d
       0.32058072 -0.32697055 0.120559365 0.043330453
0000d0 5c dc 29 3d 6b 51 c9 3e 79 a2 22 3e 7e 89 a0 3e
       0.041469917 0.3931993 0.15882291 0.31354898
0000e0 aa 62 37 3d 73 e1 b7 3e 11 be 96 bd 5b ab 25 3e
       0.044771828 0.35914192 -0.07360471 0.16178648
0000f0 6e e6 e2 be e2 95 b1 3d 24 a7 c5 bd f3 a4 34 3e
       -0.4431643 0.08671166 -0.0965102 0.17641048
000100 4f ab d5 be fa 01 4a be f9 20 0c bd 8b 94 b9 3d
       -0.4173226 -0.19727316 -0.034211133 0.090615354
000110 5c 94 49 be 1c 5c c9 bd 87 d9 55 be a1 14 7e 3e
       -0.19685501 -0.098320216 -0.20883761 0.24812557
000120 8b 4d aa 3e aa b2 36 3d 68 27 92 3e 2f 59 c1 3e
       0.33262286 0.04460398 0.2854569 0.37763354
000130 c5 82 6a 3d 10 77 56 3e 25 03 0b be 4c d9 8d 3b
       0.057253618 0.20943856 -0.13575418 0.0043288823
000140 17 9c ab be 97 81 83 3e e0 4a a1 3e 04 1c c4 be
       -0.33517525 0.25684807 0.31502438 -0.38302624
000150 56 6a 4d 3e b4 b9 16 3d 5c 42 9f 3e f5 37 64 be
       0.20060095 0.036798194 0.31105316 -0.22286971
000160 68 7e 97 3e 89 88 3f 3d 7c 2c f0 bd 10 b3 0c 3e
       0.29588628 0.04676107 -0.11727235 0.13740182
000170 3c 9f 13 be 9c 35 d0 3d 78 8e a3 3e 5b 18 b5 bd
       -0.14416212 0.10166475 0.31944633 -0.08842536
000180 22 ce 77 3e ae d9 f6 bc 9a ba d1 bd 51 24 0e be
       0.24199727 -0.030133095 -0.102406695 -0.13881041
000190 d8 13 6b be 35 cb 16 bd ee 59 ae 3e c0 af 78 3e
       -0.22956789 -0.036814887 0.34052986 0.24285793
0001a0 6d 78 c3 3e bc 42 ce bc f8 e3 8c bd a1 19 a2 3e
       0.38177815 -0.025178306 -0.06879419 0.31660178
0001b0 29 d7 90 3e 1e f2 7b bd b2 16 eb 3c 68 ca 1b 3e
       0.28289154 -0.061510198 0.028697345 0.1521393
0001c0 51 4d f8 3d 24 2d 6f be 49 ad fb 3c 86 cd cb be
       0.12124122 -0.23357064 0.030722277 -0.3980524
0001d0 7d 9d b4 be ac 0f 36 be 3c fa 81 3e 2b 6d 4e bd
       -0.35276404 -0.17779416 0.25386226 -0.05039708
0001e0 a2 15 55 be d7 21 70 be 71 a8 52 3e 62 03 80 be
       -0.20809034 -0.23450409 0.20572068 -0.2500258
0001f0 91 17 e0 bd 6d 75 8e be 7e 8b 0d 3e be 11 0b 3d
       -0.10941995 -0.27823964 0.13822743 0.033952467
000200 57 7b f8 3b 7c c6 96 be f1 ed 90 3b 81 d3 c1 3e
       0.0075830626 -0.29448307 0.004422896 0.37856677
000210 7c 81 6a 3e 46 e7 46 3e 4c 67 bd be 2d c6 8f 3e
       0.22900957 0.19424161 -0.36992872 0.28080884
000220 8c fb 9b bd a8 6f 33 3d cd e9 da bd 17 48 b2 3d
       -0.07616338 0.043807656 -0.10689125 0.08705156
000230 cf 9a b3 3e e4 7c 18 3e c3 80 7d 3e 4f ea a4 ba
       0.35079047 0.14891392 0.2475615 -0.0012582036
000240 18 11 83 be c6 f7 c0 3e da 3c 8a bc 3e 55 40 3e
       -0.2559898 0.37689036 -0.01687472 0.18782517
000250 8a a9 ad be 9e 4c aa 3e 10 34 74 3e 54 25 03 3e
       -0.3391841 0.3326158 0.23847985 0.12807208
000260 e3 40 21 bd 55 ba 35 be 02 6d b7 be 12 82 ba 3d
       -0.03936852 -0.17746861 -0.35825354 0.0910684
000270 1f 44 34 be d3 1a cc be 20 9d b2 bd c9 3d 03 be
       -0.17604111 -0.39864215 -0.087213755 -0.12816538
000280 81 be 0e bd 11 23 9d bd c7 22 1f 3e fa 7f 0e 3e
       -0.034849647 -0.07672704 0.1554061 0.13916007
000290 8c 2a e9 bd 98 34 bd bc cc 4e 94 be 02 cf b9 3e
       -0.11385068 -0.023096368 -0.28966367 0.36290747
0002a0 19 36 ca 3e b1 a7 38 3e 81 a1 15 3e 3e e9 d9 3d
       0.39494398 0.18032719 0.1461239 0.106401905
0002b0 11 49 73 3e 6c b4 55 bd 82 fc ce be e1 ff 42 be
       0.23758341 -0.052174017 -0.40427023 -0.19042923
0002c0 59 96 67 be 67 6d 11 bd 52 7c 60 be 4c 6e 8f 3e
       -0.22615947 -0.035504725 -0.21922424 0.28013837
0002d0 d4 67 75 3e 10 3c 9f be bd 58 7e 3c f0 07 33 3e
       0.23965389 -0.31100512 0.015524087 0.17483497
0002e0 af 1c 44 bd ef ea 1d bd 39 9e a6 3e 5b 7f b3 3d
       -0.047878917 -0.03855413 0.3254259 0.087645255
0002f0 20 6a d3 3d bb d5 a1 3e 74 3d d0 3e 2c 2f a1 be
       0.10322976 0.31608376 0.40671885 -0.31481302
000300 df 86 80 be 47 29 6e 3c 18 85 74 3d 42 e3 2a 3e
       -0.25102898 0.0145362085 0.05969724 0.16688254
000310 c1 2d 4d bc 3c 8c 10 be 33 2e cf bc 25 ea 8c be
       -0.012523116 -0.14115995 -0.025290584 -0.27522388
000320 3a f0 b0 3e 8b dc 48 3e 44 54 95 3c 2b d5 be 3d
       0.34558278 0.1961538 0.018228658 0.09318002
000330 59 eb 7a 3e 60 8a b2 bd 86 80 a9 be e8 20 31 be
       0.2450384 -0.08717799 -0.33105868 -0.17297709
000340 bd d7 c3 be 6d b5 d5 3d 74 43 e1 be b4 4d 83 3e
       -0.38250533 0.10434995 -0.43996775 0.2564522
000350 6c 04 c7 be 04 c8 c1 be 98 ab c0 3d 64 d1 34 3e
       -0.3887056 -0.37847912 0.09407729 0.17658001
000360 42 c1 87 be a7 a3 92 3e 1b e4 4c bd cd 39 ca 3e
       -0.26514632 0.28640482 -0.050022226 0.39497223
000370 12 ec b3 3d d5 c9 8b bd b0 fd 3e 3e 0a 78 ba 3e
       0.08785261 -0.06825606 0.18651462 0.36419708
000380 b5 5b 75 3e 44 c1 32 be e5 fe 0b 3e e9 e0 f0 bd
       0.23960765 -0.17456537 0.13671453 -0.11761648
000390 20 5a 89 3e 4f ac c8 be b8 1c 4a be 92 94 0c 3e
       0.26826572 -0.3919396 -0.19737518 0.1372855
0003a0 00 94 20 3d 5e 3a 32 3e 63 21 70 be c7 28 8a 3e
       0.039203644 0.17405078 -0.23450236 0.26984236
0003b0 82 0f 51 be 08 5b c8 be 90 65 98 be 4a 7f 22 3e
       -0.20416072 -0.3913195 -0.29764986 0.1586887
0003c0 ee 94 83 3d 5f a0 aa bd 9e 1f 3c bd 6f 23 f0 3d
       0.064248905 -0.083313696 -0.04592859 0.117255084
0003d0 70 57 ce 3e 6a 95 80 3e 2d bc 81 be 02 a8 c5 bd
       0.40301085 0.25113994 -0.2533888 -0.096511856
0003e0 ec 53 b8 bc 60 83 8e 3e f2 ec ba be a0 1d 32 be
       -0.022500955 0.27834606 -0.365089 -0.17394114
0003f0 e7 61 ed bd 56 04 5c 3e 41 1c 8f 3d 96 8a 61 3e
       -0.11590939 0.21486029 0.06987811 0.22025523

encoder.0.bias f4 [64]
000000 2a 56 82 be bc 01 a0 3e 84 31 ba be e9 7c 95 3e
       -0.25456363 0.31251323 -0.36365902 0.2919686
000010 b1 41 46 3e 8e 94 e4 3e 80 33 0e be 4a 9d a5 3d
       0.19360997 0.44644588 -0.13886833 0.08086641
000020 e0 a4 cf bd ff ab 98 3e 06 93 d0 3d 4a 65 7c be
       -0.10138869 0.29818723 0.101842925 -0.24648014
000030 8b 9c a3 be f0 37 da 3e b7 08 d1 3e 8f ce 05 bc
       -0.3195537 0.42620802 0.4082696 -0.008166923
000040 8e d2 57 3e ea 8e a1 3e fd ee 91 3e dd a3 00 be
       0.21076414 0.31554347 0.28502646 -0.12562509
000050 c6 76 95 3e 95 54 8f bd 6c 2a a3 be 01 7b 8c 3d
       0.2919218 -0.069985546 -0.31868303 0.06859399
000060 17 8b 18 be 1a 38 3b be 73 8e 9b 3d 8a 7d 67 be
       -0.14896809 -0.1828312 0.075955294 -0.22606483
000070 48 7b c7 3e 1a 6d 00 be e8 5f ba be 16 6a cc 3e
       0.38961244 -0.12541619 -0.36401296 0.39924687
000080 56 3a 0c be 12 08 46 3e 4a 6d 10 3e 15 fa a1 3e
       -0.13694128 0.19339016 0.1410419 0.3163611
000090 83 b8 13 3d 00 26 84 bb c4 75 50 be 17 54 81 3e
       0.036064636 -0.0040328503 -0.20357424 0.25259468
0000a0 69 f7 14 be 1d b6 b4 be 4d 5a a7 be 42 27 67 3e
       -0.14547504 -0.3529519 -0.32686082 0.2257357
0000b0 39 eb ac 3e f1 79 ca 3e 4f 6a 1f 3c 70 14 aa be
       0.3377321 0.3954616 0.009729936 -0.33218718
0000c0 bf c7 18 be e7 51 ce bd af 9b 93 3e db 6e a0 3e
       -0.14919947 -0.100742154 0.28829715 0.31334576
0000d0 36 e3 3a bd 83 9c d2 3e 0f b5 98 3e f9 52 e5 be
       -0.04562684 0.41135034 0.29825637 -0.44789866
0000e0 c0 42 a7 be 7f 30 7d 3c f6 59 21 be db 71 61 be
       -0.32668114 0.015453457 -0.15756974 -0.22016089
0000f0 f2 a6 21 3e c3 85 8e 3d 45 74 4d 3d a1 8b 50 be
       0.15786341 0.06959107 0.05015971 -0.20365764

encoder.2.weight f4 [32, 64]
000000 c6 cd d9 3d 70 8b 5d 3d 63 6d be 3d 60 1c 71 bc
       0.10634951 0.054088056 0.092982076 -0.014716238
000010 fd 3c 4a 3c 2d 0c eb 3d fe 52 ac 3d d3 1a d3 bc
       0.012343642 0.11476932 0.08414267 -0.025769627
000020 da fe 97 3d fb f0 da 3c 65 f9 2a 3d 59 ac 38 bc
       0.07421656 0.026726237 0.041741747 -0.01127156
000030 8b 4b a5 bd ef d3 09 3c 13 fb 8a bd 90 ad a9 3a
       -0.08071049 0.008412345 -0.0678617 0.0012945402
000040 c8 49 fb bd b6 9e 9f 3d f9 68 8c bd 36 f0 c3 bc
       -0.12269932 0.077939436 -0.068559594 -0.023918252
000050 73 43 9e bd 53 be a5 3d c5 a7 b9 3d 9c 54 4b bd
       -0.07727709 0.08092942 0.090652026 -0.049641237
000060 89 d6 c8 bd b6 35 c5 3d 47 da b9 3c 48 ce 6a 3c
       -0.09806544 0.09629385 0.02268709 0.014331408
000070 49 1c b2 3d a1 1c 66 3d de 2a 8c bd 50 ad ab 3d
       0.08696801 0.056179646 -0.06844114 0.08382666
000080 9d 7e d0 3d 27 c8 75 bc fb 5e a4 bd b4 7d 0c bd
       0.101803996 -0.015001333 -0.080259286 -0.034299567
000090 4e 15 93 3d fc 81 b1 3d 05 7f ca 3d d3 21 2e bd
       0.07181798 0.08667371 0.09887508 -0.042512726
0000a0 af 6f e5 3d 6e c9 e1 3d db 22 41 bd 88 14 16 3e
       0.112029426 0.11024748 -0.04715238 0.1465627
0000b0 95 8e 02 bd 86 93 aa bd d4 a2 ee 3d 90 a2 f1 bd
       -0.031874258 -0.08328919 0.11652151 -0.117985845
0000c0 33 46 a1 bd 62 2a b1 3d 26 b0 68 bc 3f 7a e0 bd
       -0.078747176 0.08650662 -0.014202153 -0.109608166
0000d0 1c 61 8e bd 84 03 20 bd 7e 3d 9a bd da 0e ac bd
       -0.06952116 -0.039065853 -0.0753126 -0.0840127
0000e0 d6 08 06 bd 76 dc 17 3d 40 75 c8 3d f1 d1 c8 bd
       -0.03272327 0.037075482 0.09787989 -0.09805668
0000f0 cb fb 41 3d 6e f2 06 bd c0 69 57 bc 74 7e 05 3c
       0.04735927 -0.032946043 -0.013147771 0.008147825
000100 d1 8e d2 3d 58 d0 3e 3c 46 43 dd 3c 87 e0 44 bc
       0.10281146 0.011646353 0.027009618 -0.012016422
000110 c7 b3 97 bd d2 67 90 3d 81 ad b6 bc 41 02 ad bb
       -0.07407337 0.07051052 -0.02229953 -0.0052798097
000120 6f 52 a2 3d a4 c6 28 bd 98 c8 4c 3b ef da d1 3d
       0.07925879 -0.041205063 0.0031247493 0.102468364
000130 d7 8a d3 3d d6 03 c5 bd 3d 6a 1a 3d ef 9e 58 bd
       0.10329216 -0.09619872 0.037698973 -0.052885946
000140 54 68 04 bc fd 08 90 3b 02 ef 5a 3d 12 10 32 bc
       -0.008081514 0.0043956027 0.05345059 -0.010868089
000150 f6 b7 50 bd 24 67 ae bc 55 92 73 3d d9 a7 d0 3d
       -0.05095669 -0.021289416 0.059465725 0.101882644
000160 d5 13 98 bd 26 d6 cb bd 4b 02 c6 3d 18 b1 b2 bd
       -0.07425658 -0.09952955 0.09668406 -0.08725184
000170 6c a7 ea bc a7 36 5e bd 5b 65 e9 bd f5 70 0c be
       -0.028644286 -0.05425134 -0.11396285 -0.13714965
000180 d9 85 01 be ae 42 f1 b9 3f e3 85 3d 3e de 91 3b
       -0.12648715 -0.00046016782 0.065374844 0.004451542
000190 5a 20 1b 3d c8 9f 91 bd e0 dc af 3d 27 68 02 bd
       0.03787265 -0.07110554 0.085870504 -0.03183761
0001a0 a3 ca ae bd bd b5 9d 3d 99 bd a2 bd 90 d9 b3 bd
       -0.08534744 0.077006795 -0.07946319 -0.08781731
0001b0 42 bf 35 3d 6f 87 e1 3d 23 70 31 bd d2 3e fa bd
       0.04437185 0.1101216 -0.043319833 -0.12219013
0001c0 af b8 80 3c 9c d3 83 3d f3 6f e3 bb c4 68 bd bd
       0.015713064 0.06436846 -0.0069408356 -0.09248498
0001d0 11 02 da 3c 6b 26 c6 bd 68 4e a2 bd 1c 8a 8c 3d
       0.026612313 -0.096752964 -0.07925111 0.0686228
0001e0 dc 9b 8e 3d 90 b8 f9 bd 0f c6 3b bd 16 f0 f3 bd
       0.069633216 -0.12193406 -0.04584318 -0.11911027
0001f0 74 d7 7f bd c3 9f 81 3d d7 1a 43 bd bc c3 87 bd
       -0.06246133 0.063293 -0.04763302 -0.0662913
000200 6e aa f5 bd 00 83 c5 3b 55 a0 65 bc fc 9c c7 3a
       -0.119953975 0.0060275793 -0.014015277 0.001522928
000210 d8 64 95 3d 85 03 0a 3e be e3 d0 3d 95 ab 6b bd
       0.07294625 0.13477905 0.101996884 -0.05753668
000220 c8 20 82 3c 73 11 ec 3d 52 e5 36 bd b7 1f 95 bd
       0.015884772 0.11526766 -0.04465229 -0.0728144
000230 01 1e b7 bd 64 d7 98 3d d8 80 f8 3d 8c bd 2f bd
       -0.0894127 0.074629575 0.1213395 -0.042905375
000240 c0 8c cf 3d fa 93 ef 3c 8a 41 b3 3c ed 69 54 3d
       0.10134268 0.029245365 0.021881837 0.05185883
000250 4b e4 e9 3c 61 d3 b9 bd a0 fe 94 3d 6c 95 8b 3d
       0.028551241 -0.090735205 0.07275128 0.06815609
000260 34 fe 1c bc 11 fa 03 3e 5a 50 ca 3d 37 e3 c0 bd
       -0.009582091 0.12888362 0.09878607 -0.09418338
000270 87 de ba 3c 45 48 c6 bd 0b fd bb 3d 43 6d f7 bc
       0.022811187 -0.09681753 0.091791235 -0.030203467
000280 ef e3 b4 3d 00 13 64 3c 2b 9f bc bc f6 76 ac 3d
       0.088325374 0.013920546 -0.023025116 0.084211275
000290 11 3c 70 bc 9e 4a 86 bd be 78 ad 3d 3d 68 fe 3d
       -0.014662758 -0.06557201 0.08470295 0.124222256
0002a0 27 c4 c0 ba 7c 58 c5 3c bf 23 51 bc 14 76 f4 3d
       -0.0014706895 0.024090044 -0.01276487 0.11936584
0002b0 a6 02 cb 3c e5 b2 0a bc a5 8b 90 3d a3 70 81 bd
       0.024781536 -0.008465503 0.07057885 -0.06320312
0002c0 0c 1d 19 3d 9a 9b de bb a3 56 b9 bd 15 9b 15 bd
       0.037381217 -0.0067934515 -0.09049728 -0.03652485
0002d0 d5 28 43 bd e3 3e f5 3a fd ab 69 bc d0 6f b1 bd
       -0.047646362 0.0018710758 -0.014262197 -0.08663905
0002e0 93 c9 56 3d 81 c8 d4 bd 17 ce 94 bd 88 66 92 3c
       0.05243833 -0.103898056 -0.07265871 0.017871156
0002f0 a4 bc 85 3d f4 82 c5 bd 3a 4b ed 3d 53 60 82 bc
       0.06530121 -0.09644118 0.11586614 -0.015915072
000300 86 aa 4b bd 02 d5 2a be 00 08 c0 3d 03 b4 16 be
       -0.04972317 -0.16682819 0.09376526 -0.14717107
000310 6f 8a a0 3b db 7c 2e 3c b6 dc a8 bd ed 24 09 bd
       0.004899315 0.010649885 -0.08245222 -0.03348248
000320 89 67 3b bc 06 55 46 3d b5 e1 b7 bd dd de 85 bc
       -0.011438259 0.04842093 -0.08978597 -0.016341621
000330 7b 08 fa 3d 40 f2 8c bc 2a af 8a bd 5c 4d 51 bd
       0.12208649 -0.017205358 -0.06771691 -0.051099166
000340 04 d8 1c bd bb 24 3a bd dc f7 97 bd 36 e2 8c 3d
       -0.038291946 -0.045445185 -0.07420322 0.06879084
000350 c6 35 06 be 77 73 02 3e 78 11 da bd b6 b9 a0 bc
       -0.1310645 0.12739359 -0.10647863 -0.019619804
000360 79 44 47 3c ee 52 f4 bd f5 57 f1 bd 7e f0 56 bc
       0.012162321 -0.1192988 -0.117843546 -0.013118861
000370 8f 94 5e bd e1 b7 bd bd ae 08 e6 bd 4a 8e 1c 3a
       -0.054340895 -0.09263588 -0.11232124 0.00059721305
000380 29 41 86 3d 6d 21 a7 3d c2 5a e7 bd 66 4c 88 bd
       0.06555397 0.08160672 -0.112966076 -0.06655197
000390 bc 25 89 3d f1 48 23 bd 91 44 b2 bd 73 c6 c7 3d
       0.066966504 -0.039864484 -0.08704484 0.09754648
0003a0 29 e6 0e 3e fe e7 a0 bd 38 f2 e3 3d 5d 48 25 3d
       0.13954987 -0.07856749 0.11130184 0.040352214
0003b0 a5 60 08 3d 96 09 10 be 8a 5d c0 3c f6 f9 e6 bc
       0.033295292 -0.14066157 0.023482103 -0.028195363
0003c0 30 5a 07 be c7 69 3b 3d ba ad 7f bd 7d 7a ad bd
       -0.13217998 0.045755174 -0.062421538 -0.084706284
0003d0 47 f6 6c 3d 73 7e 85 bd dd f5 ab 3d 86 b5 c3 3d
       0.057852056 -0.06518259 0.08396504 0.09556107
0003e0 2d d2 b5 bd f7 12 7f 3d a9 bc a0 3d ff 1c d4 bd
       -0.088779785 0.062273946 0.07848484 -0.10357093
0003f0 d1 09 6b 3d 3a 4a 88 3d e1 a1 69 3c be 35 4c 3d
       0.05738241 0.066547826 0.014259786 0.04985594

encoder.2.bias f4 [32]
000000 04 9d 61 3d c5 2f a3 bd b6 36 72 bd 85 18 39 3d
       0.055081382 -0.07968096 -0.059134208 0.0451894
000010 c8 4d e9 bd 62 df d1 3d 93 ef 14 3e cc 07 f1 3d
       -0.11391789 0.10247685 0.14544515 0.11769065
000020 85 ff f2 3d 0d 24 54 bb 13 e2 13 bd 94 6c ad 3d
       0.11865143 -0.003237012 -0.036104273 0.08467975
000030 98 80 14 3c af 2f e3 3d 0f 9b 6e 3d ab 6b ab bc
       0.009063862 0.11093079 0.058253344 -0.020925364
000040 ee ad 50 bd 28 ec 8e bd 6c 26 40 3d 06 31 e9 bd
       -0.050947122 -0.06978637 0.046911642 -0.113863036
000050 53 3c 6e 3d 75 3c 17 3d b6 17 9f bc d7 b1 51 bd
       0.058163 0.03692289 -0.019420486 -0.051194992
000060 e8 7e 04 3e 87 0c 73 bd 10 78 95 3d dc 97 7e 3c
       0.12939036 -0.05933812 0.07298291 0.015539136
000070 5c 56 29 3d 43 0d 8a bd 2d 9c 89 3c 4e 92 c8 3d
       0.041342124 -0.06740811 0.016798103 0.097935304

mu.weight f4 [8, 32]
000000 c4 c0 e4 bd ed 25 b0 3d 68 e1 c4 bd dc c6 2f 3d
       -0.111695796 0.08600984 -0.09613305 0.042914256
000010 87 e0 04 3e d0 55 06 bd 9f 13 e4 3d c3 6e 08 3e
       0.12976275 -0.03279668 0.11136555 0.13323502
000020 6c c6 a4 3d 94 7c 8d bd da 54 4f bd c1 5b 2d 3d
       0.080456585 -0.06908527 -0.05061803 0.04232383
000030 d2 d5 2e 3d 8a 16 55 be 40 21 8b 3d 48 2d d7 bd
       0.042684384 -0.20809379 0.06793451 -0.105066836
000040 34 95 3f be 79 92 eb 3d fc ed 64 bd f5 d2 89 bd
       -0.1870926 0.11502547 -0.055891022 -0.0672969
000050 f9 38 de bd 27 b2 fc bd 87 8e 8c 3c f8 8c e8 bd
       -0.108507104 -0.12338667 0.017157806 -0.11355013
000060 7a ec 20 be 5f b3 51 3d 43 b1 e7 bd b0 c9 b6 bd
       -0.15715209 0.051196452 -0.11313107 -0.089251876
000070 a5 89 49 bd 24 11 2c be 0a 80 da bc 0c c8 8a 3d
       -0.049203534 -0.16803414 -0.026672382 0.06776437
000080 8f 99 00 3e 35 d7 3c be 74 14 7d 3d c3 21 d0 3c
       0.12558578 -0.1844147 0.061787084 0.025406724
000090 7e 57 b0 bc 93 70 1f 3e b4 6b 23 be ae 4b 64 3d
       -0.021526095 0.15570287 -0.15959054 0.055736236
0000a0 74 49 9e bd 63 44 59 3b dc ce d8 3c 19 8e c8 bb
       -0.07728854 0.0033152334 0.026465826 -0.006120455
0000b0 3c 00 05 3d 88 fd a4 bd d9 2e 0b 3d 1b 8e 97 3d
       0.032470927 -0.0805617 0.033980224 0.07400151
0000c0 79 54 19 3e af ed 62 3d 5d b2 40 3d 40 bd 8c 3d
       0.1497363 0.055402454 0.0470451 0.06872034
0000d0 8b b2 02 3d dc 5d bb 3d e2 67 27 3d 6c c0 1a 3d
       0.031908553 0.09148762 0.040870555 0.037781164
0000e0 63 ee c9 3d fe 88 8a 3d 03 fa 36 bd 60 9d 80 3d
       0.09859922 0.067644104 -0.044672024 0.06280017
0000f0 50 dc 55 be c2 da 14 be a3 5d ae 3c 87 4f 9d 3d
       -0.20884824 -0.14536574 0.021284884 0.07681184
000100 b3 17 92 bd 64 4c 1e 3e 00 a2 17 be c6 0c 0b bb
       -0.071334265 0.15458828 -0.14807892 -0.002121733
000110 e0 1b ec bc c0 42 9c 3d 2a 2c 88 bd f2 36 16 3e
       -0.028821886 0.07629919 -0.066490486 0.14669397
000120 f3 5e 80 3d 70 bc 82 bd ec 74 c8 bd 4a 25 99 bd
       0.0626811 -0.06383598 -0.09787926 -0.074778154
000130 4c bf 6d bd c6 5a 1c 3d b5 1f aa 3d 22 7d 20 bd
       -0.058043763 0.038172506 0.08306829 -0.039181836
000140 28 82 1c 3d 67 4e 29 3e 79 37 17 3e d6 5c 05 3d
       0.038210064 0.16533814 0.14767255 0.03255924
000150 6f a2 a3 bd f4 5a 1b be 04 54 d9 bc 28 fe 07 be
       -0.07989966 -0.15171415 -0.02652932 -0.13280547
000160 11 2d c9 bc e7 e6 10 3d 5c 70 32 be 34 9e 91 3d
       -0.024557622 0.035376456 -0.17425674 0.07110253
000170 85 37 57 3e ef 53 3d bd 0f 03 7a bd 99 0f 86 3d
       0.21017273 -0.046222623 -0.061038073 0.06545944
000180 a5 dd ab 3d b6 2d 20 be 1a 39 a0 bc a6 70 be bd
       0.08391885 -0.15642437 -0.019558478 -0.0929883
000190 f5 af 1a 3e 0e 49 b4 bc 3a 39 1b 3d d3 c2 ab 3b
       0.15106185 -0.022007491 0.037896372 0.0052417307
0001a0 0a 12 0a 3e cf 03 43 bc 94 05 4c be aa c4 ae 3c
       0.13483444 -0.0119027635 -0.19924003 0.021334011
0001b0 d8 63 e0 bb 6f 13 c8 bd 58 49 0e 3e 43 4c 0a be
       -0.00684784 -0.09769332 0.13895166 -0.13505654
0001c0 c2 29 97 3c 3e 0b 21 be 5a 48 12 be a2 d9 14 3d
       0.018452529 -0.15726945 -0.14285412 0.036340363
0001d0 01 11 f2 3d 6c 90 f8 bc 33 99 98 3d e1 e5 8a 3d
       0.118196495 -0.030342303 0.074510954 0.06782127
0001e0 02 10 ac bd af 2d 12 3d 63 c2 20 be 16 ba dd 3d
       -0.08401491 0.0356881 -0.15699153 0.10826509
0001f0 31 d0 40 3e 59 52 0d be b0 b6 32 be 8f ef 31 3e
       0.18829419 -0.13800944 -0.17452502 0.1737654
000200 98 39 5e bc a8 e9 c1 bc 33 80 2b 3e 69 62 13 be
       -0.013563536 -0.023670986 0.16748123 -0.14393009
000210 65 88 31 bd 81 fa ba 3b 2c b9 ad bd a2 e1 2d bd
       -0.043342967 0.005706132 -0.08482584 -0.04245151
000220 97 60 f8 3d fb d6 55 bd e6 ce 19 3e 59 3b 91 bd
       0.12127798 -0.052206974 0.15020332 -0.07091398
000230 ef 85 2c bd c0 dd c3 bd 16 e2 b1 3c 93 a6 ab bd
       -0.042119917 -0.0956378 0.021714251 -0.08381381
000240 a1 b4 9f bd fa 92 16 3e 79 ce f8 3d 11 cf a3 bd
       -0.07798124 0.14704505 0.121487565 -0.07998479
000250 36 2e c4 3d ae 32 9b 3c 57 8d 2c be a8 8c 16 3e
       0.095791265 0.018945064 -0.16850792 0.14702094
000260 90 ac e0 bd 13 58 1e 3e eb d1 ab bd bc 9b cc 3c
       -0.10970414 0.15463285 -0.08389648 0.024976604
000270 ad 42 c8 bb ce 2a 9e 3d 55 8e 3d bd 55 ee f5 bd
       -0.006111464 0.07723008 -0.046278317 -0.12008349
000280 c7 52 d6 bc 5d 3e 1c bd 18 8d 02 be 40 49 27 3e
       -0.026162518 -0.03814541 -0.12749135 0.16336536
000290 4c 05 11 be ad 35 e3 3c 1b bd f2 bd 9f a1 03 3d
       -0.14162177 0.027735556 -0.11852475 0.032136556
0002a0 c1 33 02 be 2f 9d 09 bc d7 f4 fe 3d de 51 39 3d
       -0.12715055 -0.008399292 0.12449043 0.04524409
0002b0 d2 87 05 be d1 a3 34 3e 5b 75 17 bc 8c 23 fa bc
       -0.13040093 0.17640616 -0.009244288 -0.030534528
0002c0 d6 0a aa ba 20 68 06 3e 7e 23 03 3d 21 7f 2e 3d
       -0.00129732 0.13125658 0.03201627 0.04260171
0002d0 a9 47 6c be 45 d7 23 3e 05 3f 58 be bd ce 0a be
       -0.23074211 0.16000088 -0.2111779 -0.13555427
0002e0 2b 8f 25 3e e8 0f 10 be b1 ce f2 bd fc 2e 4b be
       0.16167895 -0.14068568 -0.118558295 -0.19842142
0002f0 11 b7 01 be c1 3a 0f 3e 90 8b 54 3d b5 bb 57 3b
       -0.1266749 0.13987257 0.05189091 0.0032918279
000300 6e 07 d8 bc f0 99 c8 3d 48 34 ac 3d 48 e9 e7 3d
       -0.02637073 0.09794986 0.08408409 0.11323792
000310 97 65 ed 3d 58 3a 45 3e 82 63 aa 3d 0a 9a 6d bd
       0.11591642 0.19260538 0.08319761 -0.05800823
000320 85 9e 47 3d 78 25 9a 3d f8 54 f0 bd d0 96 18 3e
       0.04873516 0.07526678 -0.117349565 0.1490128
000330 c4 2c 2e bc d9 47 2b 3e d5 77 82 3d e0 f9 43 be
       -0.01063079 0.16726626 0.063705124 -0.19138288
000340 8e 61 58 3d ac 3e 73 3d 64 ab 34 3e c1 2f 17 be
       0.05282741 0.05938594 0.17643505 -0.1476431
000350 8f 8d e0 3c 32 06 d6 3d 38 42 d3 bd 9a e0 ed 3d
       0.02741125 0.104504004 -0.103153646 0.11615105
000360 61 2e 8f 3d 61 19 23 be 45 a4 42 3d b5 65 35 3e
       0.06991268 -0.1592765 0.04751994 0.1771458
000370 3d c6 73 bd e3 84 c6 3d 0e be 73 3a 33 53 41 be
       -0.059515227 0.09693315 0.0009298035 -0.18879394
000380 02 32 9c bc 6f a0 b2 bc 55 50 2f bd 3a 89 81 3d
       -0.019066814 -0.021805016 -0.04280122 0.06325002
000390 27 b8 be bd df c3 8a bd f0 9d 37 be 00 6c e2 bb
       -0.09312468 -0.06775641 -0.17931342 -0.0069098473
0003a0 b4 66 73 3d d1 b4 45 3e ac f5 2e 3e a7 57 09 be
       0.059424117 0.19307257 0.17085904 -0.13412343
0003b0 fb fe f6 bd bc e2 8c 3d 65 99 08 3e e4 e4 0f be
       -0.120603524 0.06879184 0.13339765 -0.14052159
0003c0 3d af ba 3d 10 c2 e2 3d 93 47 3c be 32 ff 90 3d
       0.09115455 0.11072171 -0.18386678 0.07079925
0003d0 4d 81 09 3e 44 a6 0d 3e 99 20 3d be 1e 9e d7 bc
       0.1342823 0.13832957 -0.18469466 -0.026320513
0003e0 2b 8d 96 bd d4 1c 74 bd 8f 81 cf 3c f6 79 16 bd
       -0.073511444 -0.059597805 0.025330333 -0.036737405
0003f0 44 09 99 bd 84 9d 04 be a5 9e 18 bd 36 b2 fa bc
       -0.074724704 -0.12950712 -0.03726067 -0.030602556

mu.bias f4 [8]
000000 41 e9 2b 3e cd 58 84 3a 7d 04 86 3d 68 90 6a 3d
       0.16788198 0.0010097265 0.06543825 0.057266623
000010 56 90 64 3d 8f 7b cf 3c 3d fb 2a bd d4 24 c0 3d
       0.055801712 0.025327472 -0.041743506 0.093820244

logvar.weight f4 [8, 32]
000000 dd 7f 0f bd be ff c7 bd 44 92 06 3e e4 39 89 bd
       -0.03503405 -0.09765576 0.13141733 -0.06700495
000010 35 ed ed 3d e9 f0 13 3e ab 85 18 be f5 4c b6 bd
       0.11617509 0.14447369 -0.1489474 -0.08901397
000020 7f f5 44 3d bc a3 9a bc 03 f3 28 be 80 f7 d5 bd
       0.048085686 -0.018876903 -0.16498952 -0.104475975
000030 39 9b e5 3d e9 c8 d8 bc 8a 56 bf 3d 11 95 9f bd
       0.11211247 -0.026462989 0.09342678 -0.07792104
000040 3d ed 60 3b 24 3c 0c 3d ff 62 ac bd ea d0 be 3d
       0.0034321093 0.034237042 -0.084173195 0.09317191
000050 a6 67 48 be ff 38 c1 bd 51 c7 8f bd 70 f1 0c 3e
       -0.19570789 -0.09434699 -0.070204385 0.13763976
000060 d7 48 84 3c b1 79 75 3d 51 ef 02 be cd 8f d5 3d
       0.016148014 0.059930507 -0.12786604 0.104278184
000070 e7 97 09 3c 81 0a e9 bd b9 81 08 3e 48 0a 5a 3d
       0.008398033 -0.113789566 0.13330735 0.05323246
000080 80 34 7c bd fa 79 92 3d 59 36 c7 3d 51 44 b6 bd
       -0.061573505 0.071521714 0.09727163 -0.08899749
000090 fa 72 9a 3c 50 6b c8 bd b4 a0 10 3c 13 2d 37 3c
       0.018853653 -0.09786093 0.008827377 0.01118018
0000a0 c4 27 44 be 9d 41 82 bc 3c 21 8f bd 0c 62 f0 bc
       -0.19155794 -0.015900427 -0.06988761 -0.029343627
0000b0 64 2b 5c 3c bc 36 30 3e 41 23 c8 3d 9a f2 66 bd
       0.0134380795 0.1720838 0.09772349 -0.056383707
0000c0 d7 95 d6 bc 85 0c fe 3d 80 6c 07 3d fd 50 88 3d
       -0.026194496 0.12404732 0.033062458 0.06656072
0000d0 50 59 d1 bd 62 98 ca bd 67 05 90 3d 56 0f 11 be
       -0.10222113 -0.09892346 0.070322804 -0.14166006
0000e0 48 af b8 bb 25 84 19 3e e4 b2 b8 3d 61 43 0a 3e
       -0.0056361295 0.14991815 0.09018496 0.13502266
0000f0 e8 de 9f 3d 5e 10 b4 bd 78 65 63 3d 6c 55 b2 3d
       0.07806188 -0.08792184 0.05551669 0.08707699
000100 4b 4a db bd f3 26 03 be c5 b0 2e be 36 5d 28 3d
       -0.1070753 -0.12807827 -0.1705962 0.041104518
000110 81 69 99 3c d2 ce 61 3d 85 fb 78 3d 14 b3 bf bd
       0.018727066 0.05512888 0.060786743 -0.09360328
000120 46 b1 b0 bc 54 c4 48 3d 9e b3 10 bd 93 89 d4 bc
       -0.021568906 0.049015358 -0.035327546 -0.025944507
000130 1e 56 d6 bd 9a 8b db 3b 59 d8 1a bb f4 5a 93 bc
       -0.10465644 0.0066999914 -0.0023627488 -0.017987706
000140 4a 3b aa 3d a4 7b 9c 3d 6a 51 d6 bc 8f 8d 21 3e
       0.0831209 0.0764077 -0.026161868 0.15776657
000150 7a 5d 2a 3e f4 7c e1 3d 86 f5 ee bd 83 08 3d 3e
       0.16637221 0.11010161 -0.11667924 0.18460278
000160 97 4f 26 be cb 97 70 3d 00 b4 42 be 29 a7 60 3c
       -0.16241299 0.05873851 -0.19013977 0.013711729
000170 63 fd c0 3d 73 7c cc 3d ee c0 f4 bc fe 27 08 3e
       0.0942333 0.09984674 -0.029877152 0.13296506
000180 2e 70 68 3d c4 14 1a 3e 72 36 11 be ed 5d b2 3d
       0.056747608 0.15046984 -0.14180925 0.08709321
000190 42 4e 41 3d 88 eb 30 bd c0 e9 60 bd 8c 77 36 bd
       0.047193773 -0.04319337 -0.05491042 -0.044547603
0001a0 4d e0 1e be 16 1b 09 3e 61 7e e7 3d 64 47 19 be
       -0.15515251 0.13389239 0.11303402 -0.1496864
0001b0 b5 5d dd 3d eb 28 62 bc 40 87 25 be 95 dd 1f bd
       0.10808889 -0.013803701 -0.16164875 -0.039029676
0001c0 f2 e6 ca bd c9 74 e3 bd 12 96 32 3e 5a bf 6b ba
       -0.099073306 -0.111062594 0.1744006 -0.0008993052
0001d0 2c 1e cf 3d 20 01 4b be 63 a4 6e bd 0d 26 12 3d
       0.10113177 -0.19824648 -0.05826224 0.03568082
0001e0 8b dd 18 bd da 3b 9f bc e6 46 e0 3d 74 42 37 be
       -0.037320655 -0.01943772 0.10951023 -0.17896444
0001f0 7e e3 b7 bd 93 1f 18 be be 9c 0f bd 87 fa 33 3e
       -0.089789376 -0.14855795 -0.03506159 0.17576037
000200 88 db 0b bd 93 15 27 3d 6b b1 c1 3c 8c 01 6e 3d
       -0.03414491 0.04079206 0.02364417 0.058106944
000210 27 47 24 3e 06 14 47 3d 2e 6f 1a be 84 cd 15 3e
       0.16042767 0.04860308 -0.15081474 0.14629179
000220 2b f8 80 3d ee 2e f9 bd 8a 0d 24 bd 7e e8 10 3e
       0.06297334 -0.12167154 -0.040051974 0.14151189
000230 69 44 5d bd a2 b7 cc bd 2e b8 3f be bc 24 62 3d
       -0.05402032 -0.09995963 -0.18722603 0.055210814
000240 ef 2f 27 3e 02 fe 06 be 02 b8 a9 bd cc 85 0d 3e
       0.16326879 -0.13182834 -0.0828705 0.1382057
000250 62 88 91 bb 05 c4 12 bd 62 cd d5 bb 56 3d 0e be
       -0.004441307 -0.03583147 -0.0065247277 -0.13890585
000260 fa e0 d9 bd f0 2e a3 bd 0c b2 33 be a2 f9 9b 3c
       -0.10638614 -0.07967937 -0.17548388 0.019039933
000270 4b b0 0c bd 44 30 ca 3d 0c 28 b2 bc fd 83 a1 3d
       -0.034347814 0.09872487 -0.021747611 0.07886503
000280 8a e2 0c be 9b bf d1 3d 23 b6 43 be 51 76 19 3e
       -0.13758293 0.10241624 -0.19112448 0.1498654
000290 ce 50 cc 3d 92 29 11 be 95 c6 67 bc da 44 40 be
       0.0997635 -0.14176014 -0.014146467 -0.18776265
0002a0 3d 58 dd 3b fd b1 9e bc c8 7f 6b be 1b a6 a1 bc
       0.0067549036 -0.01937198 -0.22997963 -0.019732526
0002b0 dc 78 23 be 7c cb c8 bd ab 02 fa bd 4a 74 a0 3d
       -0.15964073 -0.098044366 -0.1220754 0.078346804
0002c0 e3 c5 bd 3d 92 49 e6 bd 25 ff 8a bd 5f 8a 17 3c
       0.092662595 -0.11244501 -0.06786946 0.009249299
0002d0 57 cd 04 3d 60 5e 39 3d 67 63 5c bd 3e c7 d5 3d
       0.03242239 0.04525602 -0.053805735 0.10438393
0002e0 de d1 1f bd 6a 3d e3 3c 71 28 9c 3d a4 9e c2 3d
       -0.039018504 0.027739245 0.07624901 0.095029145
0002f0 32 26 03 be 6d 19 9d bc 52 af f0 bd 99 7b fe bd
       -0.12807539 -0.019177163 -0.1175219 -0.12425918
000300 a6 f9 73 3d f7 e2 e6 bd 11 93 31 bd 60 c4 0f bd
       0.059564255 -0.11273759 -0.043353144 -0.035099387
000310 3f cf 0c bd d8 b5 be bb 4a 82 d0 bd f8 19 77 3d
       -0.034377333 -0.0058200173 -0.10181101 0.0603275
000320 79 33 cc 3d 2a a1 13 be 9d 90 8b bd b9 c1 1e bd
       0.09970755 -0.14416948 -0.06814692 -0.038758967
000330 05 15 ab 3c 58 36 4a bc 32 99 af bd ce f9 3c 3e
       0.020884046 -0.012342058 -0.085741416 0.18454668
000340 85 e4 b2 3c a2 83 bd bd e4 87 f8 bd 9c 8f 17 3e
       0.021837482 -0.092536226 -0.12135294 0.14800876
000350 4f 4d 88 bd a3 5a 6f bd da 8e 17 3e ca f6 8e 3d
       -0.066553704 -0.058436047 0.14800587 0.06980665
000360 bd 27 4b 3d ee 43 b0 3d a0 ee 8e 3d 8c bc d4 bd
       0.049598444 0.086067066 0.06979108 -0.10387525
000370 ef a0 e4 bd c1 9b 31 bc d5 10 e1 3d 6b fb e1 bd
       -0.11163508 -0.010840357 0.109895386 -0.11034282
000380 da ca de bb d0 11 c6 3c 20 df fb 3d 27 a1 a4 3d
       -0.006799084 0.024178416 0.12298417 0.0803855
000390 e5 89 20 be 37 17 a6 bd c1 ae cd bd 95 bc 3c 3e
       -0.15677603 -0.08109897 -0.10043097 0.18431313
0003a0 ab 95 6b 3d 31 4d d0 bd a4 b6 10 3d 1a c1 d6 bd
       0.05751578 -0.10170973 0.03533043 -0.1048605
0003b0 01 7a a0 3d b8 2f 31 bd d0 44 0a be 8f 11 55 3d
       0.078357704 -0.0432584 -0.13502812 0.0520187
0003c0 ed 30 de 3d a1 0f 27 bd c8 3a 99 bd a4 be a1 3b
       0.108491756 -0.04078639 -0.07481915 0.004936056
0003d0 86 74 d4 bc 93 f1 13 be ee 89 5a bd 10 3c 2e 3e
       -0.025934469 -0.14447622 -0.053354196 0.170151
0003e0 bd 4b de 3c 36 9a 51 bd 49 af 0a bd a4 71 c1 3b
       0.027135724 -0.051172458 -0.03385857 0.0059034396
0003f0 f2 c7 08 be ed 90 cf bd 89 30 7a bd 1a f8 b2 bd
       -0.13357523 -0.10135064 -0.061081443 -0.08738728

logvar.bias f4 [8]
000000 13 e0 cc 3b 41 39 47 bd 55 3a e6 3c 02 f1 8f 3c
       0.0062522977 -0.048638586 0.028103987 0.017570976
000010 dd a3 16 3d 44 52 bc 3d 93 fe 96 bd 12 12 11 be
       0.036777366 0.091953784 -0.07372775 -0.1416705

decoder.0.weight f4 [32, 8]
000000 35 e3 61 3e 3d 51 7e 3e 65 68 a0 3e ae fd 04 3e
       0.22059329 0.24835677 0.31329647 0.12987396
000010 62 4a 00 3e ad 88 87 3e 07 8e bb 3d 51 85 8c 3c
       0.12528375 0.26471463 0.09157949 0.017153414
000020 86 e4 8d 3e 0e bd 9b be e0 59 67 3e 59 87 2a 3e
       0.27713412 -0.30417675 0.22592878 0.16653194
000030 91 fe 4d be 24 34 3c be 1c 3e f2 3d 1c 51 eb 3c
       -0.2011664 -0.18379265 0.11828253 0.0287252
000040 fe 24 a4 be 67 d6 3d 3e 59 f2 8c be c5 a7 39 3e
       -0.32059473 0.18538819 -0.27528647 0.18130405
000050 17 90 71 be 7b 02 7d be e8 55 69 be 3a cf 97 3e
       -0.23590122 -0.24707977 -0.22786677 0.2965029
000060 32 48 ab be 17 7f f6 3d b3 c4 33 3e b2 e7 09 3e
       -0.33453518 0.12035959 0.17555504 0.13467291
000070 15 a9 10 3e 9d 3f 80 3c 71 4c 09 3d 0f e9 8f 39
       0.14127 0.015655333 0.033520166 0.00027448728
000080 4c 43 8c 3e a7 03 03 be 15 2c 0d 3e 86 ce 74 be
       0.27395093 -0.12794362 0.13786347 -0.23906907
000090 91 0f a5 be 1c b1 a3 be 64 c4 c6 be 85 97 76 3e
       -0.3223844 -0.3197106 -0.3882171 0.24081238
0000a0 26 68 61 3e 94 ad b3 bc 02 c1 74 3e d3 24 88 bd
       0.22012386 -0.021933354 0.23901752 -0.06647649
0000b0 6b db 45 3e 11 94 98 be 0d a0 96 be e6 0c 68 3e
       0.19321983 -0.29800466 -0.29418984 0.2266117
0000c0 31 87 9c be d1 97 a3 3e 24 96 69 3d cc b0 df bd
       -0.30571893 0.31951764 0.05702795 -0.10922393
0000d0 9b ca 89 3e 64 df bc 3e 71 4b e1 3c a6 a2 2b 3d
       0.26912388 0.36889184 0.027501794 0.04190316
0000e0 47 11 c2 3d 1b 36 65 be 3c 52 34 3e bc 25 be 3d
       0.09475952 -0.22383921 0.17609495 0.09284541
0000f0 00 1d 68 36 56 28 8f be 5b 6a 31 3e 59 00 eb bd
       3.4587574e-06 -0.2796046 0.17325728 -0.11474676
000100 f5 10 a1 bd be 59 ea 3d c9 68 2b bd b8 c0 f3 bd
       -0.078645624 0.11442898 -0.041847978 -0.119019926
000110 3e 09 67 bd 7e ea 18 be 30 4d 4c bc 10 e6 84 3e
       -0.0564053 -0.14933202 -0.012469575 0.25956774
000120 82 33 8b 3e ab 89 dc bd da 53 18 bd 2d 94 a8 3d
       0.27187735 -0.107684456 -0.037189342 0.08231387
000130 5b 3c 88 3e 17 a3 be be 64 87 a7 be 15 1a 7f 3e
       0.26608548 -0.37233803 -0.32720482 0.24912293
000140 6b b0 96 3e bf 63 a2 3e 32 b9 bc 3e 42 23 9b 3e
       0.2943147 0.31716725 0.36860043 0.30300337
000150 51 b6 bd be dd fc 8c be 00 72 8a be a8 71 32 3e
       -0.3705316 -0.2753667 -0.270401 0.17426169
000160 d6 70 a8 be ba 5c 53 3e c8 31 7c 3e 99 8c 02 be
       -0.32898587 0.20640841 0.24628365 -0.12748946
000170 b2 a6 45 bd 54 33 49 3e 6f 90 74 3e 1c 90 9c 3e
       -0.048254676 0.19648486 0.23883222 0.30578697
000180 d1 a9 d0 bd 2e 2f 7f be 2f 7a 9f bd 8d 30 ca be
       -0.1018864 -0.24920341 -0.077869765 -0.39490166
000190 a8 77 63 be 49 50 0c bd e1 63 8e be ec 70 8c 3e
       -0.22213614 -0.034256253 -0.27810577 0.27429903
0001a0 af 86 99 bc da 72 fc bb ef de b2 3e a0 83 df 3d
       -0.01874098 -0.007704121 0.3493571 0.10913777
0001b0 b6 c1 93 be bb 76 29 be 5e 17 60 bc 13 15 fb bd
       -0.28858727 -0.16549198 -0.013677446 -0.12259879
0001c0 50 91 c0 bd 20 f5 16 3e 97 dd a4 be 28 36 cc bd
       -0.09402716 0.14741945 -0.3220031 -0.09971267
0001d0 dc 0f 2f bd 32 89 85 3d e4 bc 80 be 54 62 1f 3e
       -0.042739734 0.065203086 -0.25144112 0.15564853
0001e0 98 c5 3c bc 00 ab 9f bd ea a3 64 3e 87 ae 13 3e
       -0.011521719 -0.077962875 0.22328153 0.14422046
0001f0 1e 73 9f 3e 98 2c 3c bd d1 f9 29 3e 80 b5 5d 3e
       0.31142515 -0.045940965 0.16599204 0.21651268
000200 dd 52 07 be b5 2d 88 3e 2c 8a 38 3d 38 98 b2 bd
       -0.13215204 0.26597372 0.045053646 -0.0872044
000210 77 ef c3 3d f5 f7 4e be 5b c3 97 3e 8f 38 6e 3e
       0.09567159 -0.20211776 0.29641232 0.23263763
000220 3f 55 7c be 27 f2 9d be 36 5c 12 be 82 bb 7a b9
       -0.24641894 -0.3084881 -0.14292988 -0.0002391171
000230 06 2d 23 3e cf 99 3b 3e aa 46 85 be 3c a4 a2 bd
       0.15935144 0.18320392 -0.26030475 -0.079414815
000240 19 04 90 be 32 6b 1d 3e 71 f1 0b be b1 e0 e7 3c
       -0.28128126 0.15372923 -0.13666321 0.028305383
000250 9d b9 92 be a4 95 93 3e 20 27 ac 3e 03 51 05 be
       -0.28657237 0.28825104 0.336236 -0.13019185
000260 0a 1f 50 bd fe 7b 04 3c 04 98 75 be b0 27 f7 bc
       -0.05081085 0.008086203 -0.2398377 -0.030170292
000270 56 31 ff bb 74 6c 4a be 03 e5 3d 3c 77 86 b1 be
       -0.0077878637 -0.19767934 0.011590245 -0.346729
000280 81 cd 07 be 60 a2 b8 3d fe 00 97 3d 78 5b 26 3d
       -0.13261987 0.090153456 0.07373236 0.040614575
000290 75 c7 89 bd 29 ae 01 be 76 51 35 3e 4d 47 92 3e
       -0.067274965 -0.12664093 0.17706856 0.28570023
0002a0 a2 36 bc be 17 12 8c 3e 50 a4 91 be 51 f3 a7 be
       -0.36760432 0.2735755 -0.28445673 -0.32802823
0002b0 db 17 d6 bc 24 66 ba 3e 45 d2 d5 bd 2f 47 45 3e
       -0.026134422 0.36406052 -0.10440496 0.19265436
0002c0 2e 54 a3 be 16 bc 45 3e de f4 2e be 2c a2 c5 3e
       -0.31900162 0.1931003 -0.17085597 0.3860029
0002d0 e5 44 79 3e a3 b1 53 bd 55 5b aa 3d cc d9 81 3d
       0.24342687 -0.05168308 0.083182015 0.063403696
0002e0 33 64 7d 3e 69 14 12 3e 7d c0 b5 3e 7a b5 be 3e
       0.24745254 0.14265598 0.3549842 0.3724783
0002f0 38 8f 4b 3e 1e 0d 5b be 7c ca db 3d 15 66 7e 3e
       0.19878852 -0.21391723 0.1073198 0.24843629
000300 f3 ed f8 3d 2b f7 89 3e d6 9f aa be 41 60 e9 bd
       0.1215476 0.26946387 -0.3332507 -0.11395312
000310 82 4c a1 3d 03 27 35 3e 46 42 bc 3e 0c 10 ac 3d
       0.07875921 0.17690663 0.36769313 0.08401498
000320 26 cc 92 be 9b b4 1d be de b4 c4 3d 1e 01 50 3e
       -0.28671378 -0.15400927 0.0960481 0.20312926
000330 87 3f 81 be a2 e0 9e 3e 07 9e 0a be 25 4a 8d 3e
       -0.2524378 0.31030756 -0.13536845 0.2759563
000340 89 ac 5e bc 5e e7 a0 3e 39 bf ba 3d 4b 1b b9 3e
       -0.01359094 0.3142652 0.09118504 0.36153635
000350 fe 73 92 bc 98 6e 36 be ee 65 37 3e fb ac 16 3e
       -0.017877575 -0.17815626 0.17909977 0.14714424
000360 cc 48 19 3d b9 7d 68 3e d5 a1 6f be b1 d4 b4 3e
       0.03742294 0.2270421 -0.23401578 0.3531852
000370 22 5c 45 be ae 08 c4 be ad 50 98 3c 86 b9 ac be
       -0.19273427 -0.38287872 0.018593157 -0.33735293
000380 37 a5 31 3d 5b 2e bc bc 0d be 90 3e 9b 9b c8 3e
       0.04337045 -0.022971323 0.28269997 0.39181218
000390 38 c1 67 be bd c1 14 bd 0d 36 8b 3e ad 21 18 be
       -0.22632301 -0.036317576 0.27189675 -0.14856596
0003a0 e7 0d be be fb df 7f 3e c4 a9 7d 3e f0 0c 57 be
       -0.37119982 0.24987786 0.24771792 -0.21001029
0003b0 5c d0 24 be fb dd 76 3e 9b 59 93 3e 64 f7 6c 3e
       -0.16095108 0.24108116 0.287793 0.23141247
0003c0 a1 37 85 3e 34 f3 95 bc 30 30 f7 bd 95 a3 5b be
       0.26019004 -0.018304445 -0.12069738 -0.2144912
0003d0 50 c7 17 3d b4 34 e6 bd 58 d8 27 be 67 a0 be 3e
       0.037055314 -0.11240521 -0.16391122 0.37231752
0003e0 28 cd 32 be d2 49 75 be 15 78 5b 3d 7d d5 8e 3b
       -0.17461073 -0.23953941 0.053581316 0.004358946
0003f0 19 f7 72 3e 28 0d 94 be be 39 6a be 80 1f b6 be
       0.23727073 -0.28916287 -0.2287359 -0.35570908

decoder.0.bias f4 [32]
000000 9c b1 97 be cf 2c 37 3e 83 cb 75 3d 50 3a 45 3e
       -0.29627693 0.17888187 0.060008537 0.19260526
000010 c1 31 2d be ff f5 8c 3e 51 cc a1 be ab fc c4 3e
       -0.16913511 0.2753143 -0.31601194 0.3847402
000020 61 b9 36 3e b2 83 38 be e4 08 07 bd d8 b3 cd 3e
       0.17844154 -0.18018988 -0.032967463 0.40176272
000030 d9 46 93 be 87 c3 a0 3e f9 b7 82 3e ae cc a7 be
       -0.2876499 0.31399176 0.25530985 -0.32773346
000040 8d 1d ac be ed b8 19 be 54 39 c5 3e 0c 7f 83 3e
       -0.33616295 -0.1501195 0.385203 0.25682867
000050 3a a9 93 3e 54 19 3b 3e 2f 3c 52 3e c2 d8 a0 bc
       0.28840047 0.1827138 0.2053077 -0.019634608
000060 2b 26 b1 3e 95 c6 39 be 18 9b 51 3e d5 0b 96 3e
       0.34599432 -0.1814216 0.2046932 0.29305902
000070 ae 77 09 bd 35 2f 96 3e 0a 24 30 3e 5b de a3 3d
       -0.0335614 0.2933289 0.17201248 0.08001395

decoder.2.weight f4 [64, 32]
000000 1e ee 97 bc 34 3e e7 3d 95 84 00 be d6 a0 19 3e
       -0.01854616 0.11291161 -0.12550576 0.1500276
000010 1f 1a 73 bd 2b a5 56 3c 1f e7 0d be ce b9 f9 3d
       -0.059351083 0.013100903 -0.13857697 0.121936426
000020 14 66 44 3e 38 d8 dc 3d b5 57 93 bd 8b 38 83 bd
       0.19179565 0.10783428 -0.07194463 -0.06407269
000030 d2 00 36 bd 20 1d 46 3e 3a 49 0f 3e 87 df 2d 3e
       -0.044434376 0.19347048 0.13992777 0.169798
000040 9f e8 a7 bd 20 c5 dc 3d 40 49 74 bd 0f 56 fd 3c
       -0.08198666 0.10779786 -0.05964017 0.030924825
000050 22 88 17 3e 24 a9 c0 bd 9b 7d a9 3c ac eb 10 3d
       0.14798024 -0.09407261 0.020689776 0.035381004
000060 2e 7a 74 bd 79 a4 e9 3d c7 f1 65 bc b8 47 90 3a
       -0.059686832 0.11408324 -0.014034695 0.0011007702
000070 aa 6f b5 3d e6 73 6a 3d 76 35 06 3e b2 f7 34 3e
       0.08859189 0.057239436 0.13106331 0.17672613
000080 fd 61 0c 3e 66 5a c0 3b 58 62 76 3c 68 7f 15 3e
       0.13709255 0.0058701513 0.015038095 0.14599383
000090 66 29 d4 3c 66 5c 82 bd 27 9e 15 bd 00 cd 57 3e
       0.025898647 -0.0636528 -0.03652778 0.21074295
0000a0 7d 8b 6b 3d 9a 93 9d bd 80 01 34 3e 9b 93 07 3e
       0.057506073 -0.076941684 0.17578697 0.13239901
0000b0 62 37 bb bd cd 84 80 3d ff d4 d6 3d 73 5d 91 3c
       -0.09141423 0.0627533 0.104898445 0.017744755
0000c0 f3 77 fa bd 29 16 1d 3e f0 80 d5 bd da bc 21 3e
       -0.1222991 0.15340485 -0.104249835 0.15794697
0000d0 01 31 39 3b 39 bf 0f be 27 b0 1d 3e 8f 83 4a 3e
       0.0028257968 -0.1403779 0.15399228 0.19776748
0000e0 a8 43 2f bd 22 77 dc 3d ff 95 ce bc 89 ce d7 bd
       -0.04278913 0.1076491 -0.025218008 -0.1053744
0000f0 83 a9 52 bc ee c2 03 be 1c 3b b5 3d 5d 34 e0 bd
       -0.012857798 -0.12867329 0.08849165 -0.109474875
000100 1a 12 df bd dd fc 78 bd 3a 08 12 bd 8d f6 4e bd
       -0.108921245 -0.060788024 -0.035652377 -0.050528098
000110 0b 43 1d 3d dd 50 95 bb 20 5d 78 3e 04 90 21 be
       0.038394015 -0.004556759 0.24254274 -0.15777594
000120 59 a7 0d 3e cb ea 03 be cb 44 ad 3c a5 e9 33 3b
       0.1383337 -0.12882535 0.021150967 0.0027452495
000130 4c 8c 50 bd df 30 24 be da 3f ed 3d 1e d9 74 bd
       -0.050915048 -0.16034268 0.11584444 -0.05977737
000140 d5 66 3b 3e 88 58 58 bd c4 b0 53 bd 70 c4 20 3d
       0.18300946 -0.052818805 -0.05168225 0.039249837
000150 6e 1a 54 3d 67 ce 60 bd b3 d8 0e 3e 7b 48 14 be
       0.051783018 -0.05488434 0.13949852 -0.14480774
000160 51 92 07 3e ff 97 c2 3c f7 63 11 be 94 26 f3 bd
       0.13239409 0.023754118 -0.1419829 -0.118725926
000170 8e ca 41 3c 65 d6 74 bc a7 28 9e bd 73 4c 3b be
       0.011828078 -0.014943694 -0.077225976 -0.18290882
000180 b8 18 2b be 12 26 ba ba 31 1c 96 bd f7 27 0c bd
       -0.16708648 -0.001420202 -0.07329596 -0.0342178
000190 16 ca d6 bd b8 0b 9b bd 9c 1f a3 bc 6f ac ea 3d
       -0.104877636 -0.075705945 -0.019912533 0.1145867
0001a0 12 dc 19 be 82 02 5a 3d fb 67 a0 3d 9a a2 4d bd
       -0.15025356 0.053225048 0.07832333 -0.050203897
0001b0 bd 8a e5 3c 59 29 13 3c 30 43 cf bc ef 5c 03 3e
       0.028020257 0.008982026 -0.025300592 0.1282842
0001c0 9f ae 74 bd cd 8e a5 bc 2a eb cd 3d b9 c0 26 3e
       -0.059736844 -0.020209694 0.100546196 0.16284455
0001d0 8f 33 2f be 98 99 30 3b 98 d9 14 be 06 22 5c 3d
       -0.17109512 0.0026947018 -0.1453613 0.053743385
0001e0 fd 10 f6 bd f8 67 8e 3d 38 11 99 bd 30 cf ed 3d
       -0.12014959 0.06953424 -0.07473987 0.116117835
0001f0 17 fa 3f be 8a e9 09 be cc 8a 2a bd a0 f2 d8 3c
       -0.18747745 -0.13467994 -0.041636273 0.02648288
000200 59 d1 6d 3d be 3a b0 3c c1 69 16 3d 17 5a 12 bd
       0.058060978 0.021512385 0.03672195 -0.035730448
000210 c3 33 09 3d 1d e9 aa 3d d1 fb 69 bd c7 77 49 3e
       0.03349663 0.08345244 -0.057124916 0.19674598
000220 fa 5c fe 3d 97 a4 0d 3e 14 2e 01 be b8 0a 82 3d
       0.124200776 0.13832317 -0.12615234 0.06349701
000230 25 57 23 3e 4e b8 4e 3e 9e ce 0d 3e d6 89 f2 bb
       0.15951212 0.20187494 0.1384835 -0.007401685
000240 45 7c 03 3d 3b a2 4b bc 58 1b bd 3c 21 32 33 3e
       0.032100935 -0.0124288155 0.023084328 0.17499591
000250 82 a4 fa 3d 30 0a 67 be 45 db 6d bc bf 36 4e 3e
       0.122384086 -0.2256248 -0.01451761 0.20138071
000260 d9 7c 78 3c 38 5d 19 be c6 3b b7 bd c3 62 8e 3d
       0.015166485 -0.14976966 -0.08946948 0.06952431
000270 a2 ed 17 3e 3e 6e aa 3d 06 dd 02 bd e3 2f ad bd
       0.14836743 0.08321808 -0.031949066 -0.08456399
000280 52 b1 9f 3b e9 50 ff bd 44 e4 1b 3e 46 2a b8 3d
       0.004873433 -0.12466604 0.15223795 0.08992438
000290 d4 30 e9 bc de 52 67 3c f4 ad 4f 3d 76 e9 58 3d
       -0.028465666 0.014118878 0.050703004 0.05295702
0002a0 96 dc d2 3d 1b a5 c4 bd 4d 8f 0b bd 82 a7 45 bd
       0.1029598 -0.09601804 -0.03407221 -0.04825545
0002b0 90 d0 30 bd af 77 23 be 6c 04 96 bd ec 47 c1 3d
       -0.04316765 -0.15963624 -0.07325062 0.09437546
0002c0 3d d2 0c 3e f7 49 34 3e 1d 81 2e bd c2 49 f9 3d
       0.13752075 0.1760634 -0.0426036 0.12172271
0002d0 9a 77 44 bd 8e 09 53 3e 36 4c 14 3c 44 03 45 be
       -0.047965623 0.20609114 0.009051373 -0.19239527
0002e0 22 a3 11 3e 77 8d 17 3e 64 47 20 be 0a 9e f0 bd
       0.14222386 0.14800058 -0.15652233 -0.117488936
0002f0 dd 97 1a 3e ec 24 b3 3d 3b 5a 70 bd 6b 7b a6 bd
       0.15096994 0.08747277 -0.0586798 -0.08129009
000300 96 4f ad 3d 12 a9 1d bd b9 d6 ca bd 0b ab 22 be
       0.084624454 -0.038491316 -0.09904236 -0.1588556
000310 e1 dd c5 3d c7 5b 8d 3d 2a 50 41 be a3 9c e5 bd
       0.09661461 0.06902271 -0.18878236 -0.11211517
000320 8a e5 60 bd b2 c7 f0 3d 8c b7 46 3d 90 aa d4 3d
       -0.054906406 0.11756839 0.048514888 0.10384095
000330 e7 17 b8 3d c7 d3 33 be 92 fc 48 3d ed 90 c5 3d
       0.08988934 -0.17561255 0.049068995 0.09646783
000340 ba 2c 21 3e 47 a7 87 3d e0 10 c7 3c 25 f8 1d 3e
       0.15739718 0.066237025 0.024300039 0.15426691
000350 26 4c 11 3e 09 61 1e be 32 8f 52 3d d7 93 c8 bd
       0.14189205 -0.15466703 0.051406093 -0.09793823
000360 23 e1 0a be 20 8d 0e 3e 9f 68 0b be d2 05 b5 3d
       -0.13562445 0.13921022 -0.13614129 0.08839001
000370 51 0b f9 bd a2 fe a2 bd 36 5f 09 be 10 25 26 be
       -0.121603616 -0.079587236 -0.13415226 -0.16225076
000380 d7 b4 03 be 44 b7 fe bd 38 dc 31 3e ed 9f 67 3e
       -0.12861954 -0.12437299 0.17369163 0.226196
000390 1b c1 b8 3d 58 16 12 3e 8d da 63 bd 1d f5 34 3d
       0.09021207 0.14266336 -0.05562835 0.04417907
0003a0 dc 31 b4 bd f6 1a 90 3d 58 66 03 bc 71 f4 b6 bd
       -0.087985724 0.070363924 -0.008020006 -0.08933342
0003b0 e7 78 05 bd 47 9e 85 3d d6 d5 72 bd 8a 2e 06 3d
       -0.032586005 0.0652433 -0.05928596 0.032759227
0003c0 63 d7 a3 bc 88 51 d6 bd b8 ea 2e bd 14 3a 20 3e
       -0.020000165 -0.104647696 -0.042704314 0.15647155
0003d0 7a 9d 54 3e 4c 3e af bd e5 08 59 bc 7a b1 a6 3d
       0.20763198 -0.08556804 -0.0132467495 0.0813932
0003e0 01 6c 91 3d ba 82 7c 3c cf ea 17 3e b3 b1 a5 3d
       0.07100678 0.015412027 0.14835666 0.08090534
0003f0 db 20 3b 3e f7 63 aa 3c 31 42 de 3d 2b 98 c3 3c
       0.18274252 0.02079962 0.10852469 0.02387627

decoder.2.bias f4 [64]
000000 75 fc b8 3d 11 30 35 3c 3b 27 1d 3e 78 38 42 bd
       0.09032527 0.011058823 0.15346996 -0.047417134
000010 31 ef 22 bd 4d f4 e6 ba 18 39 fe bc 6b ee 93 3b
       -0.039778892 -0.0017620415 -0.031033084 0.0045145056
000020 4a 27 28 3d 3c 55 33 3d cc 03 00 be 72 11 72 3d
       0.041053094 0.043782458 -0.12501448 0.05909867
000030 bd 0f 54 3e ee b4 31 3e ea 54 27 3e b6 10 33 be
       0.20709129 0.17354175 0.16340986 -0.17486843
000040 dd 03 0c be 27 96 22 be d8 f9 c4 3c 01 74 2f bd
       -0.13673349 -0.15877591 0.024044916 -0.04283524
000050 4b 7e 8d 3d d7 dc dc bd fa f6 d1 bd 3a 1f 06 be
       0.06908854 -0.10784309 -0.10252185 -0.1309785
000060 9f 17 45 3b c4 a8 33 be be 39 d1 bd 5e a5 5a 3e
       0.0030073894 -0.17544848 -0.102160916 0.21352145
000070 b6 47 4c 3d 70 79 ed 3c 6d 63 9a bd 07 a8 c6 3c
       0.049873076 0.02898857 -0.07538495 0.024250044
000080 92 f3 5c bb cf f2 3c 3e f6 5c a6 3d fa dc fa bc
       -0.0033714515 0.18451999 0.081232 -0.030622948
000090 c7 e4 d5 bd ce 19 22 3d 80 bc c0 b5 29 95 4c 3c
       -0.104440264 0.03957539 -1.4359975e-06 0.012486734
0000a0 86 49 74 b9 50 fe 0b be a0 58 a7 bc cc bb 22 3e
       -0.00023297043 -0.13671231 -0.020428002 0.15891951
0000b0 c3 8d b3 3d 92 bb d7 bc 46 75 05 be 5f 21 60 3e
       0.08767273 -0.026334558 -0.13033018 0.2188773
0000c0 c6 7a 38 3a 42 0a f5 3c c8 4b 17 3e 9e 3f c1 3d
       0.00070373376 0.029912118 0.14775002 0.09435962
0000d0 2f ae 83 bd 25 86 ca bd 6a ef 80 bd 7b 52 da bd
       -0.06429707 -0.09888867 -0.062956646 -0.10660263
0000e0 16 7f 85 bd 12 ae 31 3e 42 f4 fa bd 06 2b c6 bd
       -0.0651838 0.17351559 -0.1225362 -0.09676175
0000f0 6a 1d 29 3d 33 28 dd 3c 40 4e 91 3d e6 57 12 3d
       0.041287817 0.026996708 0.07095003 0.035728358
