models/ae.pt (torch, 27797 bytes, 14 tensors)

encoder.0.weight f4 [64, 6]
0.29456702 0.4209775 -0.27316925 -0.25748634 -0.33135697 0.3687326 -0.014135917 -0.27463567
0.00823806 0.24237646 0.04157698 0.38483268 0.09990035 -0.34342527 0.014134721 -0.3037383
-0.32786927 0.13228944 -0.3880164 -0.1970266 0.24211746 0.06319868 0.120411046 0.17296106
0.21353842 -0.0758291 0.13644949 0.21265996 -0.013136303 -0.29935923 0.3798352 0.034374997
-0.3865574 0.20548975 -0.17437668 0.13944069 -0.34369442 -0.017369702 -0.32521647 0.070968814
-0.086170845 0.18995318 -0.2592605 -0.40161327 -0.3929653 -0.040490795 -0.36172032 0.12461221
0.38502055 -0.35950148 0.11554266 -0.15844892 0.3829449 0.2370221 -0.052773762 0.29131034
-0.30924174 0.3391423 0.17781496 -0.29851708 -0.32301316 -0.30771118 -0.009462985 -0.31539047
-0.035110865 0.1478568 -0.41479313 0.116602935 0.3145724 -0.3365863 0.34528336 0.030098429
-0.24363095 0.36955968 0.41371825 0.37425447 0.38857213 -0.21366148 0.32138377 0.34823105
-0.16343391 0.29401156 -0.38908103 -0.17607173 -0.08019422 0.22098875 0.29273093 0.42361456
-0.29344782 -0.18466167 -0.12273587 9.713188e-05 0.37289348 0.14281341 0.36990863 0.26973787
-0.2452133 -0.22663523 -0.022932516 0.1574669 -0.11189452 -0.0032200413 -0.33155066 0.014183868
-0.056767255 -0.079611875 0.2576538 -0.47007397 -0.29044032 0.2489522 -0.062104076 -0.1294327
0.17848444 0.23151526 0.09050305 -0.3785419 0.05304102 -0.11821051 0.3212325 0.12390108
0.007010569 0.31885773 0.3357571 0.38535306 -0.12040586 -0.26823547 0.18355587 0.11687542
0.33314404 -0.36455315 0.32344756 0.022469861 -0.31926 -0.33192846 0.21931398 -0.31805778
0.2826822 0.14073925 -0.1435394 0.12621407 -0.19523041 0.36991772 -0.14383553 0.050626364
-0.29026702 0.32240963 0.21661918 0.07587873 -0.264929 -0.11707154 0.05443846 0.22369011
-0.12446935 0.01194087 -0.25412354 0.4044589 0.07068579 -0.38536057 0.09364847 -0.24835688
-0.3941432 0.08842763 -0.2276406 -0.31584778 -0.4153446 -0.34573156 0.20363048 -0.29618406
-0.12926142 -0.13631363 0.34414527 0.2431474 0.307337 -0.077543035 0.20341694 -0.17677265
0.30671033 0.21942267 -0.22770293 -0.3555622 -0.057840407 0.35559762 -0.31760168 -0.015851136
0.03088312 -0.44216096 -0.071087725 0.24695748 -0.07255602 0.24972014 0.12240056 -0.42826697
0.23257285 -0.09437546 0.08949039 0.07641501 -0.036931105 -0.28017887 -0.411421 -0.24630989
-0.37932414 0.16093698 0.095984735 0.10672218 0.045771968 0.34768867 -0.3412473 0.16470222
-0.25442982 -0.19188899 -0.31019223 -0.22857974 -0.09128751 -0.16225165 0.0036078726 0.12571673
0.08090625 -0.31334093 -0.06840248 0.39687917 -0.23193336 -0.22165926 0.2536006 0.3632266
-0.17157261 0.108139746 -0.22572741 0.096339546 -0.20870712 -0.30974746 -0.039936747 0.06662557
-0.1675251 0.2840151 0.34807765 -0.24508296 0.1822527 -0.10120831 0.1574579 0.08011655
0.2660216 -0.07589147 0.24676941 -0.22896732 -0.0977015 -0.25683895 -0.26759368 -0.3703699
0.31914982 -0.17468223 -0.35746658 0.17721398 -0.2918493 0.2665503 0.23268166 0.048368834
00000000: 7dd1 963e 5d8a d73e d7dc 8bbe 40d5 83be
00000010: 9fa7 a9be 85ca bc3e 559a 67bc 0c9d 8cbe
00000020: eef8 063c 8931 783e a04c 2a3d ca08 c53e
00000030: 8e98 cc3d 70d5 afbe 5195 673c 9683 9bbe
00000040: 7bde a7be e276 073e 16aa c6be 57c1 49be
00000050: a4ed 773e 4f6e 813d 119a f63d b41c 313e
00000060: d1a9 5a3e 4a4c 9bbd 6ab9 0b3e 88c3 593e
00000070: a639 57bc 9d45 99be c279 c23e cccc 0c3d
00000080: daea c5be e86b 523e cd8f 32be 8ac9 0e3e
00000090: b7f8 afbe e84a 8ebc c682 a6be 1958 913d
000000a0: 577a b0bd 1683 423e cbbd 84be 41a0 cdbe
000000b0: bf32 c9be add9 25bd 6833 b9be b034 ff3d
000000c0: 6a21 c53e 9410 b8be a1a1 ec3d 6f40 22be
000000d0: 5b11 c43e ecb5 723e 4d29 58bd a126 953e
000000e0: ef54 9ebe 0fa4 ad3e 2015 363e 3bd7 98be
000000f0: fb61 a5be 528c 9dbe a30a 1bbc dc7a a1be
00000100: 69d0 0fbd c667 173e c45f d4be 85cd ee3d
00000110: a20f a13e 0a55 acbe fbc8 b03e fb90 f63c
00000120: 647a 79be ed36 bd3e e1d2 d33e 489e bf3e
00000130: edf2 c63e 13ca 5abe 6a8c a43e 574b b23e
00000140: 385b 27be af88 963e a135 c7be 264c 34be
00000150: de3c a4bd e04a 623e d4e0 953e 02e4 d83e
00000160: cb3e 96be f317 3dbe f25c fbbd 48b3 cb38
00000170: e5eb be3e ae3d 123e aa64 bd3e 151b 8a3e
00000180: 3219 7bbe 1113 68be f9dc bbbc 013f 213e
00000190: f428 e5bd 5407 53bb 02c1 a9be 7463 683c
000001a0: c884 68bd 8d0b a3bd 33eb 833e 89ad f0be
000001b0: 98b4 94be 53ed 7e3e d860 7ebd 018a 04be
000001c0: a0c4 363e 5612 6d3e aa59 b93d 3ed0 c1be
000001d0: 8a41 593d 5a18 f2bd 9678 a43e d9bf fd3d
000001e0: eab8 e53b 5241 a33e 5be8 ab3e ff4c c53e
000001f0: 5997 f6bd 2956 89be 12f6 3b3e 615c ef3d
00000200: db91 aa3e b6a6 babe eb9a a53e b712 b83c
00000210: 0c76 a3be 87f2 a9be d893 603e 78d8 a2be
00000220: b9bb 903e f31d 103e fefb 12be 433e 013e
00000230: 7bea 47be db65 bd3e 9f49 13be 975d 4f3d
00000240: e19d 94be e012 a53e 6bd1 5d3e 4f66 9b3d
00000250: c6a4 87be 34c3 efbd ddfa 5e3d 050f 653e
00000260: c9e9 febd a4a3 433c 7b1c 82be 3d15 cf3e
00000270: b6c3 903d fb4d c5be c5ca bf3d 4451 7ebe
00000280: 23cd c9be 8c19 b53d 9e1a 69be cdb6 a1be
00000290: 0ca8 d4be ba03 b1be 8284 503e 70a5 97be
000002a0: 1b5d 04be cd95 0bbe cf33 b03e a2fb 783e
000002b0: 465b 9d3e e2ce 9ebd 884c 503e e403 35be
000002c0: 2309 9d3e 56b0 603e f52a 69be 400c b6be
000002d0: 10ea 6cbd e410 b63e b09c a2be 3eda 81bc
000002e0: 99fe fc3c ec62 e2be 7196 91bd 6ce2 7c3e
000002f0: 4098 94bd a3b6 7f3e 25ad fa3d cf45 dbbe
00000300: 9427 6e3e ec47 c1bd bd46 b73d 797f 9c3d
00000310: 1245 17bd 9b73 8fbe c6a5 d2be a938 7cbe
00000320: c636 c2be aacc 243e a593 c43d 2991 da3d
00000330: 637b 3b3d 4004 b23e f7b7 aebe b3a7 283e
00000340: a044 82be 8c7e 44be 84d1 9ebe cf10 6abe
00000350: f2f4 babd 4c25 26be 0f72 6c3b e3bb 003e
00000360: 2db2 a53d 396e a0be 9916 8cbd bf33 cb3e
00000370: f07f 6dbe a5fa 62be f0d7 813e d6f8 b93e
00000380: bbb0 2fbe 5f78 dd3d 1625 67be ab4d c53d
00000390: 52b7 55be 3897 9ebe b794 23bd fd72 883d
000003a0: b38b 2bbe 6d6a 913e 3c37 b23e 07f7 7abe
000003b0: 74a0 3a3e 4d46 cfbd a53c 213e 2514 a43d
000003c0: fc33 883e fd6c 9bbd 1fb1 7c3e 6976 6abe
000003d0: b917 c8bd 6580 83be 0a02 89be 20a1 bdbe
000003e0: 9b67 a33e e6df 32be dc05 b7be 9577 353e
000003f0: 456d 95be 4879 883e 1a44 6e3e 661e 463d

encoder.0.bias f4 [64]
-0.30544922 0.17308104 0.051763427 0.36097643 0.16081952 0.3630217 0.34579462 -0.13437426
-0.04714888 0.375836 0.37002647 0.13820471 -0.2704544 0.3773963 0.100899555 0.19008869
0.024620939 -0.17231394 -0.2529438 0.009822818 -0.07369952 -0.31713712 -0.20064081 0.14648433
0.34670222 0.2537766 -0.22318918 0.14301543 0.38020027 -0.3590421 -0.041624013 -0.17021437
0.3218619 -0.3431105 0.26459205 0.12866157 0.11703429 0.39835924 -0.23624851 0.09325605
0.08247405 0.32971767 0.2794816 0.2918322 -0.39496756 -0.35479167 0.323299 0.22727065
-0.37626725 -0.25532866 -0.29979238 -0.016460529 -0.13515538 -0.2509111 0.352719 -0.3540807
0.36259168 -0.23228227 -0.35896015 0.28034124 0.091049366 -0.11235627 0.07299157 0.09962524
00000000: d763 9cbe 283c 313e e305 543d e7d1 b83e
00000010: dfad 243e fbdd b93e fe0b b13e 6899 09be
00000020: 2f1f 41bd 946d c03e 1c74 bd3e 8985 0d3e
00000030: 0079 8abe 163a c13e 6da4 ce3d 9ca6 423e
00000040: dab1 c93c 1173 30be da81 81be e3ef 203c
00000050: c6ef 96bd cc5f a2be c974 4dbe fdff 153e
00000060: f482 b13e 02ef 813e b48b 64be a372 123e
00000070: 9ca9 c23e 5ed4 b7be f17d 2abd ad4c 2ebe
00000080: 15cb a43e 2eac afbe 9c78 873e dcbf 033e
00000090: adaf ef3d bef5 cb3e 21eb 71be 07fd be3d
000000a0: 28e8 a83d c1d0 a83e 3618 8f3e 086b 953e
000000b0: 3039 cabe 41a7 b5be 7287 a53e a3b9 683e
000000c0: 1aa6 c0be 70ba 82be 637e 99be 3bd8 86bc
000000d0: 2c66 0abe 6b77 80be 9697 b43e 114a b5be
000000e0: 9ea5 b93e 67db 6dbe a0c9 b7be e388 8f3e
000000f0: 1778 ba3d 0b1b e6bd 9b7c 953d 5108 cc3d

encoder.2.weight f4 [32, 64]
0.012481677 0.061688125 -0.047755547 0.007973999 0.016098367 -0.106101796 -0.048588984 0.12783131
-0.096709155 0.115796946 0.059302535 -0.09838462 -0.06294877 -0.0028262746 0.11975619 0.056824535
0.109202914 0.011605087 -0.13551919 -0.042426363 -0.026971526 -0.08809248 -0.036221843 0.033117697
-0.05930372 -0.012594665 0.1102539 0.021161616 -0.010150597 0.04454985 0.09292317 -0.017266922
-0.041302446 -0.109652966 -0.022902591 0.07327944 -0.026550114 -0.015229927 -0.0004012662 -0.004320562
0.030603996 0.14501579 0.040752023 -0.07938321 0.047138184 -0.0025425416 0.088511564 0.07740678
0.05843461 0.01575005 -0.08061368 0.05278326 0.11821195 0.05406165 0.025221452 -0.03912745
0.0775016 -0.13228285 -0.028629268 0.055695903 0.017061066 0.056491572 0.040306255 0.04242756
-0.015759654 -0.1323352 -0.036936846 0.1066032 0.04448678 -0.10612415 0.065612294 0.0554283
-0.14023796 -0.007845809 0.068269975 0.057060875 0.002540895 -0.0018437633 0.04644557 0.09245081
-0.051039897 -0.13073705 0.016031 0.06918858 -0.08025549 3.302165e-05 0.008709122 -0.017034415
0.032388482 0.084378354 -0.040808182 0.01291565 -0.13005847 0.042846534 -0.1280151 -0.11665507
-0.07211454 -0.12891461 -0.122949176 -0.07090251 -0.11300812 -0.063257664 -0.061408013 0.022093615
-0.017025752 -0.051322125 -0.11073212 0.05797231 -0.08130565 -0.06791918 -0.08976143 0.08050147
0.09264401 -0.12654091 0.002399681 0.013849 0.09574709 -0.06907949 -0.10015647 -0.07282695
-0.039436005 -0.0898657 0.07352342 0.011288134 -0.122961 -0.090104125 -0.09223099 -0.09418108
0.068587594 -0.06640662 0.096406 0.011704038 -0.079518616 -0.0016344187 -0.017047018 0.07579117
-0.021862175 0.108639084 0.08415601 0.12362625 0.041800734 -0.06637336 0.11933638 0.050332703
-0.09121615 0.07957097 0.0921443 -0.038535357 -0.01742932 0.12383194 -0.1049975 -0.07699519
0.01951971 0.0103585115 0.029889543 0.031006446 0.08034332 0.058736067 0.009801384 -0.060095973
0.045118988 0.098990865 0.04697763 0.044641566 -0.059546262 0.023434352 0.12525238 -0.031589508
-0.031972643 0.009704511 0.0015152259 0.08147042 -0.102812454 0.114203036 -0.07683451 -0.027269104
0.012397664 0.097982086 -0.04535549 0.109865464 -0.05479521 -0.057714842 0.10337775 0.13698466
-0.025640257 0.02488775 -0.0053612418 -0.015197708 -0.007885522 -0.05402436 0.13030413 0.036796276
-0.13157175 -0.097515985 -0.08191126 -0.021250885 -0.11848743 -0.022216642 -0.13037299 -0.061024487
0.01768504 -0.07694838 -0.045784615 0.007039306 -0.12228881 -0.027053805 -0.12780057 -0.02611859
0.054846227 -0.13316649 -0.076591365 0.060366645 0.09657986 0.08850934 0.01498698 -0.1221651
0.110070206 -0.11886406 -0.04335409 0.10696794 -0.10581786 0.012195158 -0.012349652 0.09932885
0.004135733 0.0016603768 0.10733946 0.09225917 0.043357138 0.07959775 -0.106215104 -0.010130909
-0.011957441 0.049862012 -0.027649641 -0.07195635 -0.08214767 -0.08856173 0.028822487 -0.042220473
0.08491005 0.07080224 0.07281702 -0.073853195 -0.10137222 -0.13075058 -0.13295211 -0.011943951
0.063641965 -0.10565378 0.05473567 -0.09904578 0.07078483 -0.020375328 -0.055555843 0.053491373
00000000: f37f 4c3c b0ac 7c3d 529b 43bd 60a5 023c
00000010: b9e0 833c e64b d9bd 3e05 47bd 36e6 023e
00000020: 730f c6bd f326 ed3d 37e7 723d e07d c9bd
00000030: 49eb 80bd 0539 39bb bc42 f53d d8c0 683d
00000040: c7a5 df3d 4323 3e3c 8bc5 0abe 44c7 2dbd
00000050: 64f3 dcbc d569 b4bd 5b5d 14bd 6ca6 073d
00000060: 75e8 72bd db59 4ebc cccc e13d 205b ad3c
00000070: b14e 26bc e779 363d 814e be3d 5c73 8dbc
00000080: c12c 29bd bc91 e0bd 379e bbbc 8813 963d
00000090: a07f d9bc f286 79bc 0a61 d2b9 8093 8dbb
000000a0: 3bb5 fa3c 057f 143e 98eb 263d aa93 a2bd
000000b0: f813 413d c5a0 26bb 8d45 b53d 7287 9e3d
000000c0: 2159 6f3d 4006 813c c918 a5bd 4233 583d
000000d0: 1b19 f23d c06f 5d3d 389d ce3c 1b44 20bd
000000e0: 29b9 9e3d 2875 07be ed87 eabc 6321 643d
000000f0: a6c3 8b3c b563 673d 2c18 253d 85c8 2d3d
00000100: 641a 81bc e182 07be 174b 17bd c752 da3d
00000110: c537 363d 9e57 d9bd bd5f 863d c908 633d
00000120: 8a9a 0fbe b58b 00bc 21d1 8b3d aab8 693d
00000130: 2585 263b 6eaa f1ba b63d 3e3d da56 bd3d
00000140: 360f 51bd efdf 05be 7253 833c beb2 8d3d
00000150: fe5c a4bd ba80 0a38 b5b0 0e3c c28b 8bbc
00000160: c9a9 043d 8fce ac3d 7b26 27bd 2a9c 533c
00000170: 0c2e 05be d97f 2f3d 6416 03be dae8 eebd
00000180: cab0 93bd 3102 04be c7cc fbbd 5635 91bd
00000190: cd70 e7bd 3c8d 81bd f886 7bbd abfd b43c
000001a0: 9779 8bbc 2637 52bd 86c7 e2bd 5f74 6d3d
000001b0: 9483 a6bd 3619 8bbd d7d4 b7bd f4dd a43d
000001c0: 25bc bd3d f193 01be f743 1d3b ebe6 623c
000001d0: 0d17 c43d 8c79 8dbd d61e cdbd 4c26 95bd
000001e0: a687 21bd 820b b8bd 7293 963d def1 383c
000001f0: fad2 fbbd 8388 b8bd 9ae3 bcbd 03e2 c0bd
00000200: a777 8c3d 3200 88bd 8270 c53d 4bc2 3f3c
00000210: a8da a2bd fe39 d6ba 30a6 8bbc 6738 9b3d
00000220: 4e18 b3bc 2b7e de3d fc59 ac3d c22f fd3d
00000230: 3f37 2b3d c2ee 87bd a266 f43d aa29 4e3d
00000240: 88cf babd 1bf6 a23d 27b6 bc3d 40d7 1dbd
00000250: efc7 8ebc 9a9b fd3d ee08 d7bd a7af 9dbd
00000260: cde7 9f3c bfb6 293c eada f43c 3b01 fe3c
00000270: 0a8b a43d 3b95 703d fc95 203c 3227 76bd
00000280: b0ce 383d b9bb ca3d 9e6b 403d 13da 363d
00000290: c8e6 73bd 66f9 bf3c 2942 003e 0064 01bd
000002a0: bff5 02bd abff 1e3c 8b9a c63a f7d9 a63d
000002b0: 568f d2bd 48e3 e93d 695b 9dbd 7563 dfbc
000002c0: 921f 4b3c d5aa c83d aec6 39bd 2501 e13d
000002d0: f170 60bd 6666 6cbd b7b7 d33d b545 0c3e
000002e0: 840b d2bc 65e1 cb3c 5bad afbb cfff 78bc
000002f0: 4732 01bc a648 5dbd 726e 053e b1b7 163d
00000300: bfba 06be 76b6 c7bd 17c1 a7bd 5616 aebc
00000310: 8aa9 f2bd adff b5bc 7f80 05be d0f4 79bd
00000320: 38e0 903c 1d97 9dbd a688 3bbd fba9 e63b
00000330: 8e72 fabd f19f ddbc 27de 02be a7f6 d5bc
00000340: 70a6 603d cc5c 08be efdb 9cbd 0443 773d
00000350: a9cb c53d 6344 b53d f38b 753c b231 fabd
00000360: 7d6c e13d 006f f3bd 0f94 31bd 0212 db3d
00000370: 09b7 d8bd 33ce 473c 3256 4abc ed6c cb3d
00000380: 0b85 873b 00a1 d93a cad4 db3d 60f2 bc3d
00000390: 4197 313d 2504 a33d 4e87 d9bd 1dfc 25bc
000003a0: 25e9 43bc 1c3c 4c3d 8081 e2bc da5d 93bd
000003b0: 0a3d a8bd da5f b5bd 231d ec3c 60ef 2cbd
000003c0: 52e5 ad3d c400 913d 1721 953d 5840 97bd
000003d0: 3d9c cfbd 7be3 05be 9924 08be 90b0 43bc
000003e0: b856 823d 0261 d8bd 8332 603d 84d8 cabd
000003f0: a3f7 903d 29ea a6bc 868e 63bd c519 5b3d

encoder.2.bias f4 [32]
0.090680435 0.08411775 -0.0073818685 0.028552007 0.09066572 -0.024321973 -0.10578802 0.007941659
-0.036762696 -0.114297815 0.05029625 0.012497952 0.15811549 -0.09380118 0.12340247 0.0040184106
0.048173454 -0.029032158 -0.01994129 0.07426943 0.009108426 -0.036220513 -0.05982495 0.10866097
-0.07044867 0.025144922 0.089325 -0.020831058 0.05994367 -0.12675147 0.0044319853 0.11775087
00000000: aab6 b93d ed45 ac3d 9ae3 f1bb e6e5 e93c
00000010: f3ae b93d e03e c7bc 64a7 d8bd bb1d 023c
00000020: 7b94 16bd f914 eabd 7103 4e3d 36c4 4c3c
00000030: 07e9 213e d51a c0bd 6fba fc3d dfac 833b
00000040: 8751 453d d9d4 edbc eb5b a3bc 921a 983d
00000050: 823b 153c f65b 14bd 020b 75bd a589 de3d
00000060: 6447 90bd b9fc cd3c 07f0 b63d e5a5 aabc
00000070: 7e87 753d 23cb 01be 303a 913b 5e27 f13d

mu.weight f4 [8, 32]
-0.005333625 -0.10416548 0.01901313 -0.085430965 0.1582798 0.0022417463 -0.057479594 -0.08521993
0.16338024 0.057526175 -0.050883207 -0.13172328 -0.0070856195 -0.016627537 0.021567006 -0.0032274735
-0.03924935 -0.061341777 0.053912956 0.0039488967 -0.10464873 -0.029968701 0.15042523 -0.13110657
-0.05507854 -0.07660867 0.080369554 0.14245294 -0.121848434 0.09075435 -0.05870677 -0.19130921
0.073534146 -0.14205548 0.1369342 -0.09428448 0.1704698 -0.12000723 0.1599377 -0.038740307
-0.0060077324 -0.15080619 -0.05173243 -0.14904177 0.043300793 -0.05917639 -0.093567684 -0.1370401
-0.116781354 0.09511359 -0.02121569 -0.12994687 -0.030815471 0.17086037 -0.04476471 0.0105851535
0.06562239 0.097022325 0.012439124 -0.073753975 -0.09344132 0.106204726 0.025425246 -0.12456064
-0.16663612 0.036400754 -0.143769 -0.021077223 -0.13386972 -0.125848 0.0014144956 -0.11291357
0.11875807 0.13239084 0.04093565 0.028460931 0.10060468 0.11798574 0.03868506 0.17766598
-0.14311118 0.0274003 -0.07473787 0.053145524 -0.006279264 0.053150162 -0.06891193 0.122860596
-0.008518982 0.046274897 0.06434766 -0.044508856 0.24340202 0.010932026 -0.091270015 0.19535734
-0.058734715 -0.0033294223 -0.008150477 0.15601991 -0.072733104 -0.007405684 -0.11148542 0.13726322
-0.06764548 -0.15222931 -0.053992406 0.12451744 0.14065443 -0.13672379 -0.021486836 -0.0043321364
-0.14837894 -0.13241982 0.087963685 0.011847579 -0.060080554 -0.15047853 0.100510105 0.10224853
-0.1466718 0.07284943 0.13705711 -0.028798506 -0.08735223 0.13790031 0.168064 -0.108091466
0.07456837 -0.15034704 0.015056978 -0.050508 -0.16981708 -0.13215785 0.00039997307 0.065018855
-0.029502356 0.044277523 0.057062455 0.20803818 -0.08260835 0.14197989 0.17593992 -0.14460337
0.0051599243 0.015865115 0.036143057 0.09034647 0.16957414 0.011185981 -0.21252836 -0.023284703
0.14596243 -0.14508432 0.16123386 -0.11095978 0.16089073 0.10623791 0.14362006 0.11589699
-0.096196145 0.065727346 0.0240818 -0.09520849 -0.19581835 -0.15789632 -0.15306927 -0.06210417
0.116837874 -0.05361621 -0.0016712063 0.13479844 0.16562742 -0.108726434 0.16363606 0.084072776
-0.12361814 0.08395602 -0.074506946 0.1326315 0.017229032 0.10567478 -0.11745188 -0.12563775
0.14404841 -0.14414991 0.12868673 -0.06400661 0.02703197 -0.12503979 0.2280276 0.15296912
0.083047226 0.06896743 -0.07255849 0.08873833 -0.10637537 0.13733338 0.14294934 -0.14660707
-0.053032406 0.16089146 -0.071193345 0.098362185 0.09736819 0.121160015 -0.11677771 -0.063137524
0.082985654 0.20210038 -0.049132466 -0.033238392 -0.077829815 0.093365416 -0.14217 0.08429206
-0.0313836 0.060268596 0.22082089 -0.10891608 0.15835977 0.048715454 -0.0915422 -0.07750747
0.06574408 0.11998754 0.05120995 0.048747674 0.008926736 -0.0093479995 -0.11007617 0.19989172
-0.040384185 0.0051685115 0.11772144 -0.04681498 -0.17855678 0.05012542 -0.048402254 0.14725806
-0.095238365 -0.0067439214 0.009891548 0.16293067 -0.07275557 -0.1397681 0.24738677 -0.006672332
0.12098334 0.004899117 0.15573077 0.0068467623 -0.1864676 0.060682256 -0.1487276 -0.04540005
00000000: b0c5 aebb b654 d5bd 6cc1 9b3c 6ef6 aebd
00000010: 1a14 223e 43ea 123b b96f 6bbd c987 aebd
00000020: 264d 273e 91a0 6b3d e96a 50bd 78e2 06be
00000030: 7c2e e8bb 7936 88bc 4aad b03c 0584 53bb
00000040: edc3 20bd 8441 7bbd d5d3 5c3d bf65 813b
00000050: 1352 d6bd ec80 f5bc 1209 1a3e cd40 06be
00000060: 099a 61bd 02e5 9cbd cb98 a43d 2fdf 113e
00000070: ac8b f9bd 6bdd b93d 8376 70bd 90e6 43be
00000080: 1299 963d fe76 11be 7b38 0c3e 3918 c1bd
00000090: a38f 2e3e 5ac6 f5bd b5c6 233e 28ae 1ebd
000000a0: 83dc c4bb f06c 1abe 62e5 53bd 689e 18be
000000b0: 2c5c 313d f162 72bd 6aa0 bfbd 3d54 0cbe
000000c0: 102b efbd eaca c23d 87cc adbc cb10 05be
000000d0: ba70 fcbc 05f6 2e3e 335b 37bd 5a6d 2d3c
000000e0: 0865 863d a4b3 c63d 78cd 4b3c 530c 97bd
000000f0: 2a5e bfbd dd81 d93d 9b48 d03c a619 ffbd
00000100: a9a2 2abe f518 153d 2e38 13be 24aa acbc
00000110: 2515 09be 4cde 00be 9966 b93a 3b3f e7bd
00000120: 6e37 f33d 7791 073e 24ac 273d e626 e93c
00000130: d409 ce3d 82a2 f13d 3a74 1e3d 12ee 353e
00000140: bd8b 12be 9876 e03c 2b10 99bd 1faf 593d
00000150: 49c2 cdbb fcb3 593d b321 8dbd 569e fb3d
00000160: 3393 0bbc bf8a 3d3d b5c8 833d eb4e 36bd
00000170: 613e 793e 3e1c 333c c6eb babd c10b 483e
00000180: d093 70bd 7032 5abb 9489 05bc afc3 1f3e
00000190: 18f5 94bd 61ab f2bb 7852 e4bd bb8e 0c3e
000001a0: b789 8abd 00e2 1bbe 2427 5dbd 0003 ff3d
000001b0: b707 103e 5201 0cbe 2905 b0bc 98f4 8dbb
000001c0: a6f0 17be 1099 07be 4e26 b43d 591c 423c
000001d0: 0717 76bd 0b17 1abe 3ed8 cd3d ad67 d13d
000001e0: 2231 16be 1532 953d b358 0c3e d8ea ebbc
000001f0: bae5 b2bd bd35 0d3e f818 2c3e 0f5f ddbd
00000200: 4db7 983d 93f4 19be 8bb1 763c 7ae1 4ebd
00000210: 87e4 2dbe 6354 07be 7ab3 d139 9b28 853d
00000220: edae f1bc 595c 353d 52ba 693d f607 553e
00000230: 912e a9bd 2d63 113e 9829 343e e812 14be
00000240: 9514 a93b 8ff7 813c be0a 143d 9207 b93d
00000250: d8a4 2d3e 6845 373c 09a1 59be 90bf bebc
00000260: 2d77 153e fc90 14be 7d1a 253e e23e e3bd
00000270: 8ac0 243e 4393 d93d 2311 133e 675b ed3d
00000280: 7c02 c5bd 0f9c 863d 3247 c53c abfc c2bd
00000290: 9b84 48be 93af 21be 31be 1cbe f160 7ebd
000002a0: b248 ef3d ac9c 5bbd 610c dbba 9a08 0a3e
000002b0: 3c9a 293e f7ab debd 3690 273e 592e ac3d
000002c0: 822b fdbd 22f1 ab3d 1997 98bd 8dd0 073e
000002d0: e623 8d3c 056c d83d 9c8a f0bd 2fa7 00be
000002e0: 6d81 133e 099c 13be 74c6 033e e615 83bd
000002f0: 2672 dd3c 6e0a 00be 1180 693e f0a3 1c3e
00000300: aa14 aa3d cc3e 8d3d 8c99 94bd 71bc b53d
00000310: 54db d9bd 1fa1 0c3e 5061 123e 2a20 16be
00000320: 8238 59bd bbc0 243e d1cd 91bd 1d72 c93d
00000330: f968 c73d be22 f83d 2729 efbd 3f4e 81bd
00000340: 62f4 a93d 67f3 4e3e 203f 49bd fb24 08bd
00000350: 3d65 9fbd 5e36 bf3d 0395 11be 51a1 ac3d
00000360: 178c 00bd 34dc 763d df1e 623e 650f dfbd
00000370: 1029 223e db89 473d 7a7a bbbd 3dbc 9ebd
00000380: d5a4 863d 07bc f53d 86c1 513d a4ab 473d
00000390: 7241 123c 5a28 19bc 9d6f e1bd 6ab0 4c3e
000003a0: e369 25bd 9e5c a93b f017 f13d 11c1 3fbd
000003b0: 97d7 36be 5050 4d3d 7141 46bd d1ca 163e
000003c0: 550c c3bd 1dfc dcbb 2910 223c 4cd7 263e
000003d0: df00 95bd 5e1f 0fbe f552 7d3e 94a3 dabb
000003e0: 1dc6 f73d c688 a03b e377 1f3e ce5a e03b
000003f0: 5df1 3ebe f58d 783d 0c4c 18be 67f5 39bd

mu.bias f4 [8]
0.081385486 -0.073037796 -0.08655099 -0.14404164 -0.12475982 -0.12532866 -0.06425488 0.09989622
00000000: 6fad a63d d794 95bd a541 b1bd a77f 13be
00000010: 1482 ffbd 2856 00be 1098 83bd 6496 cc3d

logvar.weight f4 [8, 32]
0.120272264 0.098293126 -0.140006 0.07314668 -0.16670531 0.022747735 0.03212564 -0.051393345
-0.11713834 0.05060708 0.08812919 -0.09825183 -0.048818294 0.15598355 0.120789155 -0.03685334
0.038523857 -0.13066949 0.04890868 0.07336035 -0.0025269592 -0.14575079 0.02554339 0.117844366
-0.15280275 0.062763266 0.14833201 0.10056245 0.034126334 0.11173587 -0.10104773 -0.1033727
0.06101726 0.06413483 -0.1348865 -0.03828719 0.027142819 0.12489085 0.09394886 -0.041141246
-0.042592175 -0.10028948 -0.007519356 0.04003279 0.13292712 -0.073373914 0.010795208 0.09634951
-0.13001077 -0.0896111 -0.12603138 0.10979655 0.06263765 -0.045313217 0.046732247 -0.046787083
0.13110282 -0.007548107 -0.026511649 0.09977994 -0.08838807 0.03120175 0.01919103 -0.03903883
-0.028338585 0.0113991285 -0.11756777 -0.14652668 0.053357325 0.09845982 -0.13407682 0.18399422
0.14094692 -0.19906154 -0.105797246 0.03358564 -0.03907143 0.14688584 -0.04820291 0.072682455
-0.022718176 0.032202583 -0.15620679 -0.035530336 -0.10115709 0.01522103 -0.17466252 -0.11222532
-0.00771207 0.08750643 -0.15794933 -0.111612186 0.13251053 -0.04117717 0.05326595 -0.08640444
-0.060075518 -0.10572303 0.048461825 -0.080322325 0.04318034 -0.15790303 -0.07840772 -0.10017
0.121282086 -0.030491108 0.1816042 -0.1394996 -0.11327657 -0.13148068 -0.0043920707 0.10362241
0.14305894 -0.15729395 0.17094809 0.19173944 0.11856456 -0.022322727 -0.15888609 -0.081191584
0.063877225 0.07051751 0.024499178 -0.033826437 0.15885612 0.1743656 -0.003967059 0.04711689
0.04054779 -0.15704876 -0.18034747 0.16325466 0.008008817 -0.06308226 -0.1128528 0.0028730356
0.079652734 0.09517215 -0.09992295 -0.1418514 0.046118777 0.049149845 -0.033069663 0.12332203
0.11982443 0.06688863 -0.049890082 -0.039113227 -0.0051018624 0.11941975 0.11590255 -0.20691691
0.05597765 -0.19183932 0.07638709 0.009291574 0.015580991 -0.08415 0.059633177 -0.15638681
-0.15404482 -0.12901618 0.062482603 -0.16078262 0.033348992 0.10132232 -0.024647137 -0.12269618
-0.13842884 -0.07135862 -0.01303119 0.02477855 -0.11737997 0.04889625 -0.061796322 0.13884726
0.14273295 -0.1003059 -0.121162385 -0.027220119 0.019669106 -0.067393504 0.09211473 0.027930528
0.060377795 -0.19863908 -0.08959573 0.11956125 0.07866543 0.023794407 -0.11355001 -0.089724444
0.20241575 -0.011605383 0.0029435672 0.030455973 -0.07235727 -0.04599456 -0.010102576 -0.08906788
0.16338563 0.1529506 0.08425872 -0.0748584 -0.031051528 -0.148808 0.037211202 0.13297364
0.16392976 0.16607407 -0.10849215 0.04683234 -0.04845858 0.076869436 0.04799012 -0.017399305
-0.102326535 0.023319481 0.026172258 0.008216798 0.0921739 -0.076166525 -0.11795532 -0.023010034
-0.18445827 -0.07954831 -0.08617097 0.15163627 0.051104672 -0.15181583 -0.13770957 0.06731096
-0.1467194 -0.02606879 -0.12710758 -0.025036361 -0.09940104 -0.11678869 0.046535686 0.043214034
0.0665413 -0.04812848 -0.09230558 0.0937479 0.077208474 -0.012713663 0.04531735 0.15141597
0.14803647 -0.11988997 -0.051221225 0.01293225 0.07260414 0.01867972 -0.0059905024 -0.018519295
00000000: 4e51 f63d e84d c93d bc5d 0fbe edcd 953d
00000010: ccb4 2abe 7559 ba3c 2d96 033d d481 52bd
00000020: 3ae6 efbd 5f49 4f3d 147d b43d 4138 c9bd
00000030: b1f5 47bd 27ba 1f3e 4e60 f73d 87f3 16bd
00000040: 31cb 1d3d 39ce 05be 7854 483d f43d 963d
00000050: 579b 25bb b23f 15be 5f40 d13c 6358 f13d
00000060: 5378 1cbe 078a 803d 59e4 173e b0f3 cd3d
00000070: 0ec8 0b3d c7d5 e43d 1df2 cebd 11b5 d3bd
00000080: 3ced 793d 1f59 833d b01f 0abe 07d3 1cbd
00000090: 9e5a de3c c6c6 ff3d 4368 c03d b983 28bd
000000a0: 2275 2ebd 9264 cdbd ee64 f6bb 6cf9 233d
000000b0: 0c1e 083e 1045 96bd 62de 303c e452 c53d
000000c0: 8b21 05be 0686 b7bd 5f0e 01be 03dd e03d
000000d0: 2b48 803d 5a9a 39bd 506a 3f3d d0a3 3fbd
000000e0: d13f 063e 1c56 f7bb f52e d9bc 6d59 cc3d
000000f0: ce04 b5bd d09a ff3c 8236 9d3c 2ee7 1fbd
00000100: 5226 e8bc 69c3 3a3c 5fc7 f0bd 170b 16be
00000110: 368d 5a3d 4da5 c93d 6f4b 09be fb68 3c3e
00000120: 6454 103e cad6 4bbe 3aac d8bd 1991 093d
00000130: 5d09 20bd 3e69 163e 6a70 45bd 8ada 943d
00000140: 781b babc dbe6 033d acf4 1fbe 4288 11bd
00000150: 732b cfbd a161 793c bbda 32be 63d6 e5bd
00000160: 88b5 fcbb 9236 b33d 78bd 21be ee94 e4bd
00000170: d7b0 073e 64a9 28bd 662d 5a3d d0f4 b0bd
00000180: bf11 76bd 5185 d8bd e87f 463d 0880 a4bd
00000190: dedd 303d 55b1 21be 3a94 a0bd ee25 cdbd
000001a0: be62 f83d 7dc8 f9bc 74f6 393e fcd8 0ebe
000001b0: 8cfd e7bd dfa2 06be 5ceb 8fbb fc37 d43d
000001c0: 0b7e 123e aa11 21be 040d 2f3e 5857 443e
000001d0: fad1 f23d 27de b6bc 09b3 22be c647 a6bd
000001e0: 10d2 823d 7c6b 903d 80b2 c83c 978d 0abd
000001f0: 2eab 223e e58c 323e 1afe 81bb a4fd 403d
00000200: 7015 263d 64d1 20be 02ad 38be 3b2c 273e
00000210: 6a37 033c 4631 81bd 5e1f e7bd 8a49 3c3b
00000220: f920 a33d 9ee9 c23d 67a4 ccbd 7e41 11be
00000230: 0be7 3c3d 5951 493d 0e74 07bd 4390 fc3d
00000240: 8366 f53d e8fc 883d 8b59 4cbd 3135 20bd
00000250: 862d a7bb 5892 f43d 515e ed3d 07e2 53be
00000260: d248 653d 8771 44be d670 9c3d b03b 183c
00000270: 6a47 7f3c d656 acbd eb41 743d dd23 20be
00000280: edbd 1dbe d11c 04be c2ed 7f3d 33a4 24be
00000290: f498 083d 1482 cf3d cbe8 c9bc 2348 fbbd
000002a0: 4ac0 0dbe 7824 92bd c680 55bc 63fc ca3c
000002b0: e964 f0bd 6f47 483d 241e 7dbd fa2d 0e3e
000002c0: 9628 123e 2e6d cdbd fc23 f8bd bafc debc
000002d0: 1b21 a13c 9b05 8abd a6a6 bc3d 90ce e43c
000002e0: b54e 773d 0b68 4bbe f77d b7bd 87dc f43d
000002f0: 571b a13d 7dec c23c e88c e8bd 73c1 b7bd
00000300: 1346 4f3e 8124 3ebc dde8 403b ce7e f93c
00000310: 0c30 94bd cb64 3cbd 4685 25bc 3869 b6bd
00000320: 904e 273e 159f 1c3e d68f ac3d 5c4f 99bd
00000330: c65f febc 2061 18be c66a 183d 3e2a 083e
00000340: 34dd 273e 520f 2a3e 2231 debd 45d3 3f3d
00000350: 817c 46bd b96d 9d3d 4a91 443d fd88 8ebc
00000360: 9390 d1bd 7f08 bf3c 3467 d63c c09f 063c
00000370: abc5 bc3d 32fd 9bbd 8f92 f1bd 8a7f bcbc
00000380: a1e2 3cbe 39ea a2bd 687a b0bd 8a46 1b3e
00000390: 2253 513d 9c75 1bbe bd03 0dbe 54da 893d
000003a0: 9c3d 16be 378e d5bc 7d28 02be 0e19 cdbc
000003b0: c692 cbbd e92e efbd 349c 3e3d 3301 313d
000003c0: ce46 883d 5e22 45bd b50a bdbd e6fe bf3d
000003d0: 7a1f 9e3d f84c 50bc b09e 393d ca0c 1b3e
000003e0: df96 173e df88 f5bd 59cd 51bd cae1 533c
000003f0: 7bb1 943d 3606 993c fa4b c4bb c7b5 97bc

logvar.bias f4 [8]
0.03798494 -0.09625089 -0.15322474 -0.08319873 -0.16069892 -0.037877265 -0.1389289 0.098618165
00000000: 1996 1b3d 301f c5bd f2e6 1cbe 1964 aabd
00000010: 428e 24be 3125 1bbd 6143 0ebe 52f8 c93d

decoder.0.weight f4 [32, 8]
0.2680862 0.28025004 -0.0017503747 -0.059219945 -0.07863184 -0.31895474 -0.08729511 -0.15573418
0.016158054 0.018521484 0.17006503 0.1754741 0.22948882 0.28429663 0.18815003 -0.10916402
-0.21473451 -0.099985026 0.08814619 0.27916244 -0.12787993 -0.22308043 0.083414435 0.22095335
-0.30626452 -0.0805288 0.09233429 -0.21774137 -0.16783343 0.15751211 0.1193732 0.2552202
-0.26037684 -0.11762272 -0.11342 0.07687476 0.22516367 0.031508382 -0.18791205 -0.21009378
-0.23526965 0.09856263 -0.18473427 -0.18520474 -0.10832681 0.25991294 0.081844315 0.33683142
0.17282818 0.23799165 0.20926388 -0.14889897 -0.03992078 -0.07087427 0.15884072 0.08603884
-0.033384755 0.11475284 -0.10842345 -0.01973942 -0.0047484534 0.06552106 -0.16169824 -0.055224083
-0.0437296 0.02411432 0.33876836 -0.041036416 0.063191794 0.0042591137 -0.31953496 0.09553136
-0.35032588 -0.3360594 0.2065012 -0.24840523 0.31655073 0.23920985 -0.14728339 0.03824662
0.015977263 0.0014529392 -0.2704227 -0.25997874 0.09155827 0.112806164 -0.1673651 0.12527019
0.044665676 -0.26737103 -0.34616315 -0.33449164 -0.07466871 0.30079922 0.26647866 -0.20139328
-0.22703366 -0.2453521 -0.21907683 0.0198719 0.118398406 0.26528808 -0.06942252 0.227564
-0.19886032 -0.31496844 0.039274666 -0.29029176 0.1986209 0.1820216 0.26817656 -0.22692195
0.057793174 0.10018845 -0.0053459588 -0.16077885 -0.047859404 -0.14571866 0.16510749 0.0091799935
-0.018959954 0.07228166 -0.07231833 0.33239213 -0.15264647 0.1665121 0.064344965 0.22465125
-0.015071673 -0.20642151 -0.26306483 0.14951128 0.27288708 0.33793178 0.085670896 -0.20972851
-0.2844618 -0.35704947 -0.29662314 -0.27475482 -0.29401848 -0.31090152 0.026368754 0.19228958
0.29119107 0.1453389 0.043294832 0.14173275 -0.20282927 0.10717068 0.03915412 0.18143328
-0.36044624 0.21376175 -0.13004372 -0.23870607 0.36309355 0.1364469 0.07155852 -0.21808408
-0.2153033 -0.0075987917 0.027876006 -0.20798667 -0.105432875 -0.33702576 0.13200128 -0.07179058
-0.03392142 0.32276058 0.20868535 -0.23754323 -0.29887268 -0.1477711 -0.07818475 -0.13179399
-0.14049922 -0.06646977 0.19866425 0.17197996 0.3770795 -0.18555254 -0.20664525 -0.23519482
-0.005001662 -0.32333225 -0.21280317 0.014471042 -0.08172963 -0.014100357 -0.3219869 0.24307345
-0.128025 0.10935238 0.29310492 -0.2421724 -0.27655986 0.34233606 -0.042659175 0.22532703
-0.001295055 -0.12397722 0.32642803 0.05108474 -0.078935996 0.16471387 -0.017068237 -0.016677026
0.10287709 0.1369897 0.27130288 -0.12021963 -0.05582729 0.0713765 0.28888136 -0.09818792
0.059923165 -0.14379929 0.20671853 -0.1509305 0.11498128 0.044323064 0.077044085 -0.23259988
0.09013492 0.32880977 0.0025906328 0.07771341 0.0065434827 -0.3191614 -0.12746578 0.2313234
0.0020811318 -0.08224463 0.112989075 0.2647768 0.3983423 0.036733005 0.20227249 0.054393347
-0.25162354 -0.10199705 0.18972437 0.27261868 -0.2051866 0.32511678 0.15316665 0.11840071
0.10887378 0.2709202 0.29722604 0.077509925 0.358804 0.4265414 0.09263288 -0.055656537
00000000: 9842 893e ef7c 8f3e d46c e5ba 9d90 72bd
00000010: bb09 a1bd 094e a3be c7c7 b2bd c878 1fbe
00000020: e55d 843c 5eba 973c 8725 2e3e 7caf 333e
00000030: 1eff 6a3e 548f 913e 67aa 403e 6391 dfbd
00000040: 5de3 5bbe f3c4 ccbd fd85 b43d 61ee 8e3e
00000050: f5f2 02be 326f 64be 30d5 aa3d 9841 623e
00000060: b4ce 9cbe 49ec a4bd c319 bd3d 98f7 5ebe
00000070: 87dc 2bbe db4a 213e f079 f43d 39ac 823e
00000080: 1d50 85be 2ee4 f0bd bf48 e8bd 8470 9d3d
00000090: 4e91 663e ef0e 013d 046c 40be d322 57be
000000a0: 87ea 70be 34db c93d fb2a 3dbe 50a6 3dbe
000000b0: 72da ddbd 4f13 853e fe9d a73d 2b75 ac3e
000000c0: dff9 303e 15b4 733e 4549 563e f978 18be
000000d0: f983 23bd 8726 91bd 24a7 223e 2235 b03d
000000e0: 74be 08bd 8903 eb3d 1d0d debd 90b4 a1bc
000000f0: ea98 9bbb e82f 863d 3994 25be a632 62bd
00000100: cf1d 33bd 658b c53c 0c73 ad3e cd15 28bd
00000110: b36a 813d 0990 8b3b 169a a3be f2a5 c33d
00000120: ea5d b3be fa0f acbe 0d75 533e f15d 7ebe
00000130: f012 a23e 6df3 743e 75d1 16be 7da8 1c3d
00000140: c0e2 823c 8d70 be3a d874 8abe ef1b 85be
00000150: e782 bb3d eb06 e73d c261 2bbe d446 003e
00000160: 5bf3 363d dbe4 88be 4c3c b1be 7d42 abbe
00000170: e9eb 98bd 5b02 9a3e e46f 883e 0a3a 4ebe
00000180: 837b 68be 953d 7bbe ad55 60be 65ca a23c
00000190: dd7a f23d d7d3 873e 652d 8ebd 8a06 693e
000001a0: 0aa2 4bbe 8b43 a1be 79de 203d 1fa1 94be
000001b0: 4763 4b3e df63 3a3e 704e 893e 3a5e 68be
000001c0: 89b8 6c3d 9a2f cd3d 272d afbb 36a3 24be
000001d0: 3908 44bd 4637 15be f011 293e af67 163c
000001e0: e851 9bbc 6808 943d a21b 94bd 4d2f aa3e
000001f0: 5b4f 1cbe 2682 2a3e 4bc7 833d fa0a 663e
00000200: 2eef 76bc 2960 53be 6fb0 86be 7c19 193e
00000210: dbb7 8b3e 6505 ad3e 3974 af3d 12c3 56be
00000220: faa4 91be 30cf b6be fdde 97be aaac 8cbe
00000230: 9789 96be 7c2e 9fbe 4903 d83c 8fe7 443e
00000240: ff16 953e b8d3 143e ec55 313d 6422 113e
00000250: 7ab2 4fbe 4d7c db3d 1260 203d a5c9 393e
00000260: 698c b8be 5ce4 5a3e 2e2a 05be 5d6f 74be
00000270: 66e7 b93e bcb8 0b3e 468d 923d 6f51 5fbe
00000280: 7878 5cbe 49ff f8bb 395c e43c 75fa 54be
00000290: 31ed d7bd a48e acbe 582b 073e f106 93bd
000002a0: 30f1 0abd e040 a53e 9db1 553e 883e 73be
000002b0: d705 99be 4f51 17be 541f a0bd 01f5 06be
000002c0: 07df 0fbe 4e21 88bd a46e 4b3e 841b 303e
000002d0: 9010 c13e 7c01 3ebe d09a 53be e9d6 70be
000002e0: fbe4 a3bb ce8b a5be 13e9 59be f317 6d3c
000002f0: dd61 a7bd 2f05 67bc 78db a4be 3fe8 783e
00000300: fc18 03be 24f4 df3d d911 963e 0bfc 77be
00000310: 4199 8dbe ac46 af3e 63bb 2ebd 21bc 663e
00000320: d6be a9ba c5e7 fdbd 9321 a73e 3b3e 513d
00000330: 32a9 a1bd c1aa 283e b0d2 8bbc 429e 88bc
00000340: 39b1 d23d 0747 0c3e 36e8 8a3e b635 f6bd
00000350: 28ab 64bd d82d 923d 42e8 933e c016 c9bd
00000360: fe71 753d 1f40 13be 06ae 533e 868d 1abe
00000370: 4e7b eb3d 1a8c 353d 4ac9 9d3d aa2e 6ebe
00000380: a898 b83d c159 a83e 9bc7 293b 3528 9f3d
00000390: b66a d63b 1f69 a3be 6486 02be 0be0 6c3e
000003a0: 9963 083b df6f a8bd d166 e73d d390 873e
000003b0: 86f3 cb3e 5975 163d 8520 4f3e 8fcb 5e3d
000003c0: cdd4 80be d4e3 d0bd 1b47 423e ad94 8b3e
000003d0: 701c 52be b575 a63e b8d7 1c3e 127c f23d
000003e0: 37f9 de3d 0db6 8a3e 032e 983e 86bd 9e3d
000003f0: 28b5 b73e a263 da3e 4fb6 bd3d 1cf8 63bd

decoder.0.bias f4 [32]
-0.19984035 0.1668502 -0.17807315 -0.1357683 -0.1913666 -0.3112332 0.0049955947 0.29295406
-0.11764721 -0.22800955 -0.19338675 -0.026023056 -0.21536353 -0.3179248 0.37223688 0.15580736
-0.121444665 -0.102251075 -0.02650956 0.08685653 -0.25317922 0.085259855 -0.06276146 0.400144
-0.053822543 -0.32931837 0.009003831 0.14005877 0.28177384 0.21951042 -0.20225115 -0.2328579
00000000: f3a2 4cbe c7da 2a3e cf58 36be d806 0bbe
00000010: 9bf5 43be f559 9fbe 16b2 a33b 13fe 953e
00000020: 05f1 f0bd 567b 69be 2d07 46be 4e2e d5bc
00000030: 4288 5cbe 0ac7 a2be d595 be3e f78b 1f3e
00000040: fbb7 f8bd 0369 d1bd 942a d9bc d6e1 b13d
00000050: b5a0 81be b89c ae3d 1589 80bd addf cc3e
00000060: 0775 5cbd 6b9c a8be ce84 133c 916b 0f3e
00000070: a944 903e 57c7 603e ed1a 4fbe 4d72 6ebe

decoder.2.weight f4 [64, 32]
0.072066694 0.011354454 0.037647337 0.043348167 -0.10812507 0.1929812 -0.1571322 0.013670685
0.16001202 -0.08865505 0.07042155 -0.08237743 0.04444283 -0.12985972 0.07981182 0.02106474
-0.05867768 0.059847917 0.12489992 0.028871166 -0.10028502 0.14072019 -0.057446007 0.14139771
-0.05689869 0.0090805935 0.0023713256 0.16821395 0.0116346115 0.07332025 0.12807372 -0.023678238
-0.1758458 -0.013368853 0.059566293 -0.06568765 -0.05389521 -0.00043984997 -0.15281649 -0.1437832
-0.030247483 0.16230476 0.035289258 0.07847248 0.08855661 0.021387747 -0.21725616 -0.10704312
-0.015192919 -0.10484059 -0.099915065 0.054333482 -0.03875579 -0.03660103 0.0040869596 -0.09815322
0.082797475 0.20727776 -0.12895428 0.17238808 -0.20208421 0.14753231 0.12038068 0.13045116
0.09750128 0.12583603 0.093653895 0.15553741 -0.11845335 0.034764 -0.122553386 -0.14659995
0.06467449 0.1341052 -0.10104479 -0.10825093 -0.054540243 0.22118168 -0.04160313 -0.19841294
0.2256638 -0.06770647 0.07576452 -0.12621784 0.124146074 -0.07243425 0.15360345 -0.17118543
0.117815375 -0.0065899626 0.08412702 0.18370989 0.12688486 -0.019233292 0.059495874 0.12680611
0.114039816 -0.02299366 0.0936857 0.10284175 -0.18093477 -0.07099818 -0.097572885 0.14409144
-0.04915289 -0.14857075 -0.08547106 -0.0023839443 0.049684 0.044179592 -0.07378842 0.031181583
-0.039186593 -0.2085179 0.08625742 0.08985407 -0.012419727 -0.059945844 0.0010428492 0.09476344
0.06973798 -0.010241685 0.05489573 -0.013104297 0.032827888 0.03658403 0.07657369 0.012487321
-0.17214213 -0.028067378 0.06749144 -0.045478564 -0.11126137 0.021673266 0.017100506 -0.16914909
0.07033805 0.07821883 -0.009469471 0.060115404 -0.048920374 0.029932346 0.05396505 0.023833184
0.03272675 -0.18884113 0.020325826 0.17002189 0.03385303 0.018666875 0.14567678 0.0040146657
0.115519546 0.06577418 0.10047514 0.13398317 0.01567495 0.08365893 0.07464737 0.15829183
-0.111026004 -0.080287084 0.029356709 -0.16087833 -0.14598256 -0.11672229 0.13182938 0.039161637
-0.11248139 0.14858949 0.09463541 -0.16231167 -0.122617334 -0.07306744 -0.09828192 -0.1549878
-0.07110054 0.13578399 -0.032211106 0.08830502 -0.11230094 0.123736635 0.055914078 -0.054141205
0.13253808 0.10542054 -0.092310645 0.13323854 0.04497344 -0.06747811 0.0061305505 0.11297747
0.00894033 0.109846815 -0.17610517 -0.16558668 -0.118813545 -0.056404047 -0.17483315 -0.0062017264
-0.06875256 -0.16258036 -0.019969117 0.04513274 0.076587096 0.05849254 -0.105635166 0.08750134
0.11868903 0.099718176 -0.18664688 -0.015493947 -0.14357011 -0.12360231 -0.0487561 -0.03515991
-0.105964065 0.14377937 -0.08607046 -0.16296375 -0.055312276 -0.10341557 -0.15444168 0.1566981
0.03656832 -0.07478049 0.17055145 -0.029105231 0.12886469 -0.018862708 -0.041364383 0.047414307
-0.06126365 0.09665915 -0.0018030917 0.16499008 -0.16762438 -0.015741382 0.05924157 0.10786929
-0.14080296 0.19826303 0.1423741 -0.025230238 0.1634173 -0.10368729 0.0030949546 0.09945792
-0.03485551 -0.15740341 0.1461306 0.16619171 0.15147935 0.06849255 -0.14287083 -0.17715272
00000000: b497 933d 0808 3a3c 1834 1a3d d98d 313d
00000010: ad70 ddbd dd9c 453e 43e7 20be 02fb 5f3c
00000020: 31da 233e c790 b5bd 2c39 903d 7fb5 a8bd
00000030: af09 363d f2f9 04be 6174 a33d f68f ac3c
00000040: 0258 70bd 1723 753d 87cb ff3d 3983 ec3c
00000050: 3c62 cdbd f418 103e 814c 6bbd 90ca 103e
00000060: 9a0e 69bd c5c6 143c 3e68 1b3b 4740 2c3e
00000070: 199f 3e3c ed28 963d c225 033e ddf8 c1bc
00000080: ec10 34be 0909 5bbc c9fb 733d 3f87 86bd
00000090: 39c1 5cbd aa9b e6b9 ed7b 1cbe e73b 13be
000000a0: 92c9 f7bc 3833 263e 788b 103d 2eb6 a03d
000000b0: 2b5d b53d 5b35 af3c 6678 5ebe 6c39 dbbd
000000c0: b9eb 78bc aab6 d6bd 45a0 ccbd c98c 5e3d
000000d0: 64be 1ebd f6ea 15bd e7eb 853b 8e04 c9bd
000000e0: b991 a93d 9f40 543e 970c 04be 8086 303e
000000f0: 2aef 4ebe b612 173e 258a f63d fd94 053e
00000100: c0ae c73d 29db 003e 9dcd bf3d 3345 1f3e
00000110: ac97 f2bd b264 0e3d 45fd fabd 4c1e 16be
00000120: 0f74 843d e052 093e 92f0 cebd aab2 ddbd
00000130: 9765 5fbd 737d 623e 0b68 2abd c32c 4bbe
00000140: 6914 673e b1a9 8abd 6e2a 9b3d 403f 01be
00000150: 4c40 fe3d 6858 94bd 394a 1d3e 3c4b 2fbe
00000160: 3049 f13d 9df0 d7bb c94a ac3d 721e 3c3e
00000170: 1bee 013e 238f 9dbc f2b1 733d 76d9 013e
00000180: b58d e93d 335d bcbc 4ade bf3d b29e d23d
00000190: f746 39be 7e67 91bd 4bd4 c7bd b58c 133e
000001a0: 8a54 49bd ee22 18be 730b afbd f33b 1cbb
000001b0: 7381 4b3d a9f5 343d 621e 97bd 8570 ff3c
000001c0: 1f82 20bd b785 55be bba7 b03d 6905 b83d
000001d0: 1c7c 4bbc c689 75bd 36b0 883a 5613 c23d
000001e0: c9d2 8e3d becc 27bc 58da 603d 68b3 56bc
000001f0: 8976 063d 23d9 153d abd2 9c3d 9f97 4c3c
00000200: 0746 30be 8fed e5bc f438 8a3d bb47 3abd
00000210: 00dd e3bd 228c b13c 5c16 8c3c 6b35 2dbe
00000220: 650d 903d 3231 a03d d725 1bbc 923b 763d
00000230: bb60 48bd ae34 f53c 750a 5d3d cf3d c33c
00000240: 7c0c 063d 925f 41be 5982 a63c 381a 2e3e
00000250: 7aa9 0a3d 46eb 983c 4b2c 153e 758d 833b
00000260: 8395 ec3d 9db4 863d e9c5 cd3d e232 093e
00000270: c168 803c 6055 ab3d b8e0 983d 4117 223e
00000280: 9a61 e3bd 8e6d a4bd 7b7d f03c 4abd 24be
00000290: 747c 15be 190c efbd 48fe 063e f467 203d
000002a0: a55c e6bd d827 183e 36d0 c13d 0835 26be
000002b0: cc1e fbbd 62a4 95bd 0848 c9bd 1fb5 1ebe
000002c0: 299d 91bd f50a 0b3e cbef 03bd 43d9 b43d
000002d0: 09fe e5bd a269 fd3d 2906 653d 2bc3 5dbd
000002e0: 10b8 073e b9e6 d73d 5d0d bdbd af6f 083e
000002f0: 1236 383d f731 8abd c9e2 c83b bb60 e73d
00000300: 767a 123c 5ef7 e03d ea54 34be 8e8f 29be
00000310: 8454 f3bd ee07 67bd 7607 33be da37 cbbb
00000320: 24ce 8cbd 777b 26be 4696 a3bc 1cdd 383d
00000330: b2d9 9c3d e095 6f3d 4057 d8bd e733 b33d
00000340: 3c13 f33d 0b39 cc3d 5c20 3fbe 53da 7dbc
00000350: 0b04 13be 3523 fdbd 7ab4 47bd d603 10bd
00000360: b003 d9bd e63a 133e b645 b0bd f8df 26be
00000370: 208f 62bd 8bcb d3bd f625 1ebe 7775 203e
00000380: aac8 153d 8326 99bd 0aa5 2e3e 186e eebc
00000390: 1bf5 033e f785 9abc b36d 29bd 8135 423d
000003a0: 98ef 7abd 3cf5 c53d b855 ecba 29f3 283e
000003b0: baa5 2bbe 12f4 80bc 4aa7 723d 93ea dc3d
000003c0: a72e 10be 7705 4b3e 84ca 113e a5af cebc
000003d0: dd56 273e 005a d4bd b9d4 4a3b 98b0 cb3d
000003e0: a7c4 0ebd 5c2e 21be 43a3 153e 292e 2a3e
000003f0: 671d 1b3e d245 8c3d bb4c 12be 8667 35be

decoder.2.bias f4 [64]
0.05068566 -0.1657161 0.13315508 -0.21019842 -0.07605835 -0.12979999 0.017968042 0.12697668
-0.006303816 0.0063470006 0.12595782 0.058297034 0.055161443 0.13309173 0.02939571 -0.1641083
0.0748704 0.06766427 0.11426529 0.05579219 -0.021788651 0.042289723 -0.053193163 0.14144447
0.06449418 0.014443242 -0.0029373078 -0.071121745 0.10048492 -0.012077229 -0.0950292 0.11458893
-0.12655091 0.18810888 -0.026022404 -0.015478486 -0.04667867 -0.15578568 -0.12935935 0.1148005
-0.06793142 0.19969188 0.056223005 -0.04813101 -0.051765446 0.07178556 0.11681616 -0.092162676
0.095165916 -0.15900765 0.08337956 0.18698777 -0.055188842 -0.015186218 -0.14048472 -0.117994644
0.07575644 -0.094811976 -0.04348822 -0.12285925 -0.015829751 0.054996144 0.1306534 -0.10961767
00000000: c49b 4f3d 7bb1 29be ce59 083e 413e 57be
00000010: 7bc4 9bbd 4aea 04be b731 933c 2d06 023e
00000020: 3e90 cebb 80fa cf3b 16fb 003e dfc8 6e3d
00000030: f7f0 613d 3349 083e 46cf f03c 020c 28be
00000040: a755 993d 9193 8a3d ec03 ea3d 5a86 643d
00000050: 1d7e b2bc fd37 2d3d 13e1 59bd d2d6 103e
00000060: 8615 843d 59a3 6c3c d97f 40bb 47a8 91bd
00000070: 0acb cd3d 92df 45bc ab9e c2bd 9aad ea3d
00000080: 9096 01be 9d9f 403e f02c d5bc 7a99 7dbc
00000090: 2232 3fbd 4886 1fbe c776 04be 861c eb3d
000000a0: a11f 8bbd 077c 4c3e 184a 663d 0625 45bd
000000b0: 0108 54bd 4f04 933d 503d ef3d c9bf bcbd
000000c0: 59e6 c23d e7d2 22be e7c2 aa3d b979 3f3e
000000d0: b20d 62bd 9dcf 78bc 3adb 0fbe 2da7 f1bd
000000e0: 3126 9b3d c82c c2bd b420 32bd a19d fbbd
000000f0: 65ad 81bc a343 613d 01ca 053e 3b7f e0bd

decoder.4.weight f4 [6, 64]
-0.13719153 0.11309981 0.08573826 -0.13200119 0.108853474 0.09969747 0.030825967 -0.12956612
-0.0058484413 0.10643279 -0.083402835 0.039473742 -0.115720816 0.15234764 0.014851856 0.10019178
-0.10856388 -0.015442319 0.076603 -0.067898095 -0.03489816 -0.060195137 0.03990298 0.11058024
-0.095030576 -0.07536003 0.02703383 0.095035106 0.12215443 0.17515261 0.12775432 0.08964611
-0.065056145 0.044491183 0.108297504 0.08439619 0.13008755 -0.12147958 -0.068615824 -0.01141744
0.18995275 -0.16482286 0.011475268 -0.03373257 0.1894406 0.11545522 -0.07741399 0.113745295
-0.041804377 0.08933447 0.18156816 0.051854905 -0.05116051 -0.07403568 0.10152629 0.11539985
-0.08436302 0.15471336 0.07607156 -0.024066834 0.11287435 0.18566556 0.058638368 -0.11885094
0.017558167 -0.010779077 -0.055796154 0.012347193 0.10305343 0.064413875 -0.030368656 -0.09215482
-0.075183354 -0.016662804 -0.054638714 0.17170519 0.0627571 0.11577964 -0.051664963 -0.11303408
0.01523544 0.011301153 0.12750594 -0.060263872 0.043354306 -0.035405505 -0.022381114 0.09600428
0.071231544 -0.07749974 -0.07897116 0.06843296 0.07756363 0.060575698 0.10252291 -0.07050708
-0.06813399 -0.12396753 0.041569777 0.12713608 0.020218475 -0.07129602 0.0989778 -0.0910202
-0.017631143 -0.14155464 -0.048302934 -0.056096982 0.13702793 0.01233735 0.0066573624 -0.12953788
0.13464664 -0.014106847 0.12965226 -0.1245769 -0.019620258 0.040385593 0.04993465 -0.051721904
0.07387851 -0.057344012 0.00082498847 0.016623065 0.10610258 0.016979141 -0.0613335 -0.017677004
-0.08213117 -0.013459071 0.07744975 0.035295106 0.14025612 0.040064488 0.018638771 -0.1666729
-0.073041596 0.020996343 0.079577066 -0.010977777 0.090135194 0.068820804 0.096454434 0.081832215
-0.08649889 -0.016867375 0.15589125 0.011341069 0.05379725 0.054707687 0.034859996 0.18093237
-0.017126549 0.0320862 -0.101876505 -0.11972131 0.16477105 0.14562877 0.12082023 -0.005985559
-0.039285768 -0.1020835 -0.07628795 0.036032308 0.14675301 0.042752016 0.039298035 -0.12783922
0.0053108395 -0.1498696 0.10659999 -0.08050037 -0.005024609 -0.034055214 -0.10304305 -0.09964323
0.106543764 0.09386839 0.0680577 -0.1560783 0.055389658 -0.05211275 -0.082262956 -0.11251487
-0.013867245 0.020770429 -0.02618098 -0.017359631 -0.025069147 0.12000242 0.023571681 -0.11869052
0.072691195 0.01755797 0.004247313 0.10127782 0.07822474 0.109865665 -0.06630584 0.07283232
-0.038915664 0.06104947 -0.06804222 0.086435005 0.04018579 0.047368836 0.09207768 0.069333576
-0.15357009 0.096177384 0.13226914 -0.088459566 -0.07214832 0.09833843 -0.037444733 0.16745602
-0.09310739 -0.099792875 0.0857761 0.04133299 0.08277533 0.055204097 -0.03197264 -0.1035597
-0.15019156 0.015543827 0.13173972 -0.06399716 -0.08032695 0.038741063 0.08478995 -0.109063074
-0.0003951725 -0.10156413 -0.13701922 -0.10645686 0.045674194 -0.012124198 0.014300566 0.08902589
-0.06367752 -0.11449324 0.04791044 0.038731147 -0.1350283 0.057229612 -0.010585047 0.040345505
0.012537243 0.0797802 0.14987473 -0.0027412463 0.05874629 0.15722862 0.094558805 -0.066550456
00000000: f07b 0cbe e0a0 e73d 8a97 af3d 522b 07be
00000010: 92ee de3d 302e cc3d bd86 fc3c fbac 04be
00000020: 48a4 bfbb 6ff9 d93d 1bcf aabd 38af 213d
00000030: 09ff ecbd 0501 1c3e 3355 733c 5931 cd3d
00000040: bd56 debd c801 7dbc 09e2 9c3d 280e 8bbd
00000050: 5ff1 0ebd 2d8f 76bd 4f71 233d e577 e23d
00000060: 649f c2bd 5c56 9abd 0d76 dd3c c4a1 c23d
00000070: 1a2c fa3d 355b 333e 07d2 023e 6198 b73d
00000080: 283c 85bd 633c 363d 15cb dd3d e9d7 ac3d
00000090: ac35 053e 49ca f8bd 7486 8cbd 3710 3bbc
000000a0: f982 423e 53c7 28be c302 3c3c 2a2b 0abd
000000b0: b7fc 413e c973 ec3d 3a8b 9ebd 4bf3 e83d
000000c0: 113b 2bbd fef4 b63d 01ed 393e cf65 543d
000000d0: af8d 51bd 05a0 97bd 04ed cf3d c256 ec3d
000000e0: 85c6 acbd 2e6d 1e3e 68cb 9b3d cf27 c5bc
000000f0: ab2a e73d 1d1f 3e3e c92e 703d 1f68 f3bd
00000100: 25d6 8f3c ba9a 30bc 828a 64bd e24b 4a3c
00000110: ad0d d33d 6ceb 833d b0c7 f8bc abbb bcbd
00000120: bbf9 99bd 6f80 88bc d8cc 5fbd 7cd3 2f3e
00000130: cb86 803d e01d ed3d a49e 53bd 697e e7bd
00000140: 119e 793c 7928 393c eb90 023e 40d7 76bd
00000150: 4994 313d 5d05 11bd 9958 b7bc e49d c43d
00000160: d8e1 913d 2fb8 9ebd a2bb a1bd 9426 8c3d
00000170: aed9 9e3d 391e 783d 88f7 d13d 0466 90bd
00000180: d589 8bbd b0e2 fdbd 1245 2a3d f62f 023e
00000190: 37a1 a53c a603 92bd dfb4 ca3d cc68 babd
000001a0: 306f 90bc b3f3 10be 4cd9 45bd f3c5 65bd
000001b0: 0d51 0c3e 9922 4a3c 0126 da3b 94a5 04be
000001c0: cfe0 093e 6820 67bc 90c3 043e 2c22 ffbd
000001d0: aaba a0bc 5d6b 253d 4788 4c3d 59da 53bd
000001e0: 9e4d 973d 8ee1 6abd 0a44 583a 182d 883c
000001f0: 4f4c d93d d717 8b3c d638 7bbd 5dcf 90bc
00000200: 6334 a8bd 6f83 5cbc f99d 9e3d 9a91 103d
00000210: 4d9f 0f3e a91a 243d 56b0 983c 4dac 2abe
00000220: d596 95bd 8600 ac3c 4df9 a23d 22dc 33bc
00000230: cd98 b83d ecf1 8c3d e789 c53d a697 a73d
00000240: 5426 b1bd 732d 8abc f5a1 1f3e e4cf 393c
00000250: 815a 5c3d 2b15 603d 5bc9 0e3d 5646 393e
00000260: fa4c 8cbc d26c 033d a1a4 d0bd 7230 f5bd
00000270: beb9 283e b51f 153e 9970 f73d 8222 c4bb
00000280: 1dea 20bd 2711 d1bd db3c 9cbd 9d96 133d
00000290: 6c46 163e bd1c 2f3d faf6 203d 49e8 02be
000002a0: 8d06 ae3b 6b77 19be 1851 da3d 61dd a4bd
000002b0: 7aa5 a4bb 7b7d 0bbd 3c08 d3bd c011 ccbd
000002c0: 9e33 da3d 123e c03d d661 8b3d fdd2 1fbe
000002d0: 44e0 623d 2e74 55bd 7b79 a8bd 326e e6bd
000002e0: 7133 63bc bf26 aa3c 7f79 d6bc c935 8ebc
000002f0: d05d cdbc d4c3 f53d 6619 c13c 0414 f3bd
00000300: 1fdf 943d bbd5 8f3c 0b2d 8b3b bf6a cf3d
00000310: 4b34 a03d 4001 e13d 5bcb 87bd 1d29 953d
00000320: 0866 1fbd 020f 7a3d b859 8bbd d604 b13d
00000330: db99 243d d305 423d 3993 bc3d c3fe 8d3d
00000340: 7a41 1dbe a6f8 c43d 9071 073e 4a2a b5bd
00000350: 80c2 93bd a965 c93d a65f 19bd 9779 2b3e
00000360: 16af bebd 3560 ccbd 61ab af3d c84c 293d
00000370: 1d86 a93d b11d 623d bef5 02bd 1c17 d4bd
00000380: d1cb 19be 89ab 7e3c c7e6 063e f110 83bd
00000390: 7582 a4bd f3ae 1e3d 5aa6 ad3d 765c dfbd
000003a0: 282f cfb9 db00 d0bd c44e 0cbe 0e06 dabd
000003b0: dd14 3b3d 92a4 46bc ec4c 6a3c 3553 b63d
000003c0: 5c69 82bd 6f7b eabd bd3d 443d 8da4 1e3d
000003d0: dc44 0abe 9969 6a3d e86c 2dbc 5441 253d
000003e0: 0269 4d3c cd63 a33d c378 193e 7ba6 33bb
000003f0: f39f 703d 8a00 213e 0ca8 c13d 9b4b 88bd

decoder.4.bias f4 [6]
-0.13095525 -0.061830733 0.017852455 -0.027231015 -0.12029495 0.033203628
00000000: 2219 06be 3942 7dbd 503f 923c 9413 dfbc
00000010: 335d f6bd 8700 083d
