models/ae.pt (torch, 27797 bytes, 14 tensors)

encoder.0.weight f4 [64, 6]
000000 87 f0 b1 be 4a c2 e3 3c b9 7d ff bd 51 60 aa be
       -0.3475382 0.027802605 -0.124751516 -0.3327661
000010 70 69 43 be 54 bf 82 3e 99 0a 8b be af df c1 3e
       -0.1908319 0.25536597 -0.27156523 0.3786597
000020 ba 33 ac 3e b6 df ae bc e4 b6 73 ba 36 95 12 3e
       0.33633214 -0.021346908 -0.0009296967 0.14314732
000030 ec a3 4e 3e b5 72 b7 3e 75 52 1f 3d 50 1c a8 be
       0.20179719 0.35829702 0.038896997 -0.328341
000040 aa 57 3e be 2f 6a 99 3e 89 b7 31 be 50 fa 92 bd
       -0.18588129 0.29963824 -0.1735517 -0.071766496
000050 58 74 ce 3e 01 b3 37 3b 95 2e a0 bd 97 35 69 3e
       0.40323138 0.0028030279 -0.07821385 0.22774349
000060 b6 18 22 be 4c af a8 be 9e 3e 83 3e 69 24 d6 be
       -0.15829739 -0.3294624 0.2563371 -0.41824654
000070 a6 57 e3 be 4a a0 82 be 5f 97 ee be 38 8e 13 be
       -0.44402808 -0.25512916 -0.46599862 -0.14409721
000080 f9 75 65 3e 9e bf ea bd 11 e8 57 be a3 6a a9 be
       0.22408284 -0.11462329 -0.2108462 -0.3308917
000090 62 6e 5b be b7 93 b7 be 20 74 ae bc 57 e3 92 3e
       -0.21428826 -0.35854885 -0.021295607 0.28689072
0000a0 d8 67 74 3e c4 cd f5 3d ff 1c 01 3d b8 79 8a bd
       0.23867738 0.12002137 0.031521793 -0.06761497
0000b0 0d 95 43 3e ae b8 78 be 96 2d cb 3d 82 1b de 3d
       0.19099827 -0.242892 0.09920804 0.108450904
0000c0 ba 77 0b 3d 22 d2 b3 3e b6 9f 98 be 11 6e d8 3d
       0.034049727 0.35121256 -0.2980935 0.105678685
0000d0 ee 9f 83 be 4a 21 81 3c 7a 4c 37 bd e7 2c e5 bc
       -0.25707954 0.015762944 -0.044750668 -0.027975513
0000e0 f8 2d a3 3e a1 e4 26 3e 2b 75 5a 3d d6 3b 87 3e
       0.3187101 0.16298153 0.053334396 0.2641284
0000f0 33 b5 7d bd 71 5f cc 3e f8 9d a9 3e 75 c5 26 be
       -0.061940383 0.39916566 0.33128333 -0.16286261
000100 28 a9 6b 3d 8f 96 a2 be 08 59 43 3d 11 a4 9c bd
       0.057534367 -0.31755492 0.04769233 -0.07648481
000110 8f a3 b6 bd 72 83 91 3e ab 41 98 be 37 58 9a 3e
       -0.08917915 0.28420597 -0.297376 0.30145428
000120 30 1b d0 3e 12 69 ce 3e 54 9f 16 be 50 b1 c8 bd
       0.40645742 0.40314537 -0.14709216 -0.09799445
000130 bc b4 55 be d0 c5 ba bd 92 d0 ca 3e 0a 1c bc 3a
       -0.20869726 -0.09119761 0.39612252 0.0014351618
000140 da c4 0a bd f5 7b 8e bd 04 98 c3 3d 75 7b ad bd
       -0.03387914 -0.06957237 0.09550479 -0.08470813
000150 63 af 46 be eb 08 c7 3e 5e 1c 6e 3e 15 c5 9c bd
       -0.19402842 0.3887399 0.23253009 -0.07654778
000160 b7 fb 45 3e 2c ba ff bd 80 c2 80 be 5b 15 a5 3e
       0.19334303 -0.12486681 -0.25148392 0.32242855
000170 a7 1f 94 3e 47 f6 cf 3e b4 9c a5 be 5c 0d 8a 3e
       0.289304 0.40617582 -0.32346117 0.26963317
000180 67 e6 09 be df 11 6a be 7b ad ae 3d 3d d3 79 be
       -0.13466798 -0.2285838 0.085291825 -0.24396987
000190 f9 5e b3 3e 12 6a 87 3e a0 a0 70 be 09 22 bc ba
       0.35033396 0.26448113 -0.23498774 -0.0014353405
0001a0 3e bb 72 be f7 d5 10 3e e3 dd fa bd 2a ff 37 be
       -0.2370424 0.14144121 -0.12249353 -0.17968431
0001b0 35 48 2d be a9 00 40 3d 89 e4 cd 3e 35 ef 80 3e
       -0.16922076 0.04687563 0.4021342 0.251825
0001c0 d5 06 ff bd fe 74 78 3e 02 5a 35 bd ef 1c a8 bd
       -0.12452475 0.24263379 -0.04427529 -0.08208644
0001d0 8b ee a1 be a8 d2 14 3e b8 80 db 3d c8 51 11 3e
       -0.31627306 0.14533484 0.107179105 0.14191353
0001e0 56 f7 36 be 25 b6 33 3e 19 90 c8 bc 31 36 2b bd
       -0.17867789 0.17549951 -0.024482774 -0.041799728
0001f0 e8 04 ac 3d 3d 36 d2 bd fe 49 13 be d5 97 04 3e
       0.08399373 -0.102642514 -0.14383695 0.12948544
000200 fc de 0c 3e 82 6f 70 bd dc 1a ca bd 65 24 bc be
       0.13756937 -0.058700092 -0.09868404 -0.36746517
000210 83 79 d1 be 26 fc a9 be a1 0d a8 3e bf 57 2b be
       -0.4091302 -0.33200186 0.32822898 -0.16732691
000220 eb 73 09 3e 90 24 0a 3e 8d ed 19 3e a4 ce d3 bc
       0.13423125 0.1349051 0.15032025 -0.02585537
000230 80 00 b1 3e d7 79 03 be f3 37 8d be 0b c6 a6 be
       0.34570694 -0.12839447 -0.27581748 -0.3257297
000240 16 db 81 bd cd 04 ca 3e 6d b8 ae 3e 4a 4a 22 be
       -0.063406155 0.39456788 0.3412508 -0.15848652
000250 0d c2 bb 3e 82 0b a5 3d 0c 06 55 3e cf 9f 9a be
       0.36671486 0.080588356 0.20803088 -0.3020005
000260 6f a5 dc be b7 cc a9 3e 05 7c 83 3e 35 67 b5 3e
       -0.43094966 0.33163998 0.25680557 0.35430303
000270 e9 c0 46 3e 23 b1 c8 be 91 3b f8 3d 4e 1f 0c 3e
       0.19409527 -0.39197645 0.121207364 0.13683817
000280 b2 61 65 3e 74 84 fb 3c 99 96 a4 3e e7 a5 95 be
       0.22400549 0.030702807 0.32146147 -0.29228136
000290 7c 54 df 3b 9f 22 92 3e 78 a0 82 3e 98 82 9e be
       0.0068154912 0.2854204 0.25513053 -0.3095901
0002a0 f5 74 39 be 52 ee 1e 3e 08 b5 2d 3d 6f 6d ab 3e
       -0.18111022 0.155206 0.042408973 0.3348193
0002b0 bf da d3 3b 64 5a a8 3e 6e 20 13 3e 73 1b a1 be
       0.0064652856 0.32881463 0.1436784 -0.31466255
0002c0 90 28 87 3e 38 50 65 3e d1 89 14 be 08 f3 9d be
       0.26398134 0.22393882 -0.14505698 -0.3084948
0002d0 54 05 b4 bd 7e d8 87 be f1 33 0a 3d a1 dd 7d 3c
       -0.08790079 -0.26532358 0.03374094 0.015494735
0002e0 be 35 32 bd 50 e0 3f be d6 47 b3 3e cf 15 4a 3d
       -0.043508284 -0.18737912 0.35015744 0.049337205
0002f0 c4 85 33 bd 45 bb 98 3e 7c 55 0b 3c ad 34 c4 3e
       -0.04382874 0.29830375 0.008504268 0.38321438
000300 c8 72 c0 3e 21 68 7e bd 36 1d 9e 3e 2a 2f 01 be
       0.3758757 -0.062111024 0.3088166 -0.12615648
000310 f6 12 c3 3e 70 ce d2 3e d2 3d 2b bd a6 0a 09 be
       0.38100404 0.41173124 -0.041807003 -0.13382968
000320 78 27 a4 be 4c 55 a3 be 56 e6 29 3e 00 0e 53 bc
       -0.32061362 -0.31901014 0.16591772 -0.012881756
000330 c6 8c 8b 3e 20 29 8d 3d f6 bd cc bd 21 10 ad be
       0.2725584 0.068926096 -0.0999717 -0.33801368
000340 58 ac 9b 3e a6 da 4f 3e b5 23 e8 bd 3e 64 d9 3d
       0.30404925 0.20298252 -0.113349356 0.10614823
000350 a1 46 b0 3e be 76 50 3e 36 86 78 be ab b4 58 bc
       0.34428886 0.20357797 -0.24269947 -0.013226668
000360 c8 9b ae be 53 a1 05 3e 71 76 06 be 90 21 6f be
       -0.34103227 0.13049822 -0.1313112 -0.23352647
000370 3e 22 01 be 14 fe ca be ba a1 d6 3e 3a 6e 41 3e
       -0.12610719 -0.3964697 0.41920263 0.18889704
000380 f6 60 92 3d d0 26 c9 3e f3 de 6c bc 62 0c cd 3d
       0.071474 0.39287424 -0.014457452 0.100121275
000390 87 be 22 3e b6 48 a2 3e e7 84 d4 be 12 11 08 be
       0.15892993 0.316961 -0.41507646 -0.13287762
0003a0 f5 9d 63 b9 59 5e 9e be 19 e0 45 3e da 01 d0 3c
       -0.0002170725 -0.30931357 0.19323768 0.025391508
0003b0 03 71 03 3e b3 b5 cb 3e 52 5c 5f bd f2 e2 14 3c
       0.1283608 0.39787063 -0.054531403 0.009087311
0003c0 f8 82 f4 3d 87 b0 05 be e5 ce 92 3e ae 54 4f 3e
       0.11939043 -0.13055621 0.28673473 0.20247146
0003d0 7d 2c 05 3d 5e cf 08 3e 8b 51 b8 3e 3f 54 9d 3e
       0.03251313 0.13360354 0.35999712 0.30728337
0003e0 fc 47 d7 bc e3 bd 81 3d 10 8e 21 be 07 ab 84 bb
       -0.026279442 0.06335046 -0.15776849 -0.0040487084
0003f0 e1 64 15 be 28 c8 8a 3d 23 b8 ab be 62 c5 5c be
       -0.14589263 0.06776458 -0.33538923 -0.2155967

encoder.0.bias f4 [64]
000000 21 89 fc 3d ed 04 a3 bb 54 48 14 bd e2 f7 b5 be
       0.12330843 -0.0049749524 -0.03620179 -0.35540682
000010 da e1 ac 3e 6a 82 ad bd e0 a3 ab 3e 3a 7f aa be
       0.3376606 -0.0847214 0.33523464 -0.3330019
000020 6b 3a 3f be 0e 6d 32 be 39 06 91 3d f3 4a 5d be
       -0.18674628 -0.17424414 0.07081265 -0.21610622
000030 77 3e 7a 3e c9 b6 86 be f3 49 9c be 22 8a 71 bd
       0.24437891 -0.2631133 -0.3052517 -0.058969624
000040 c2 62 b0 bd d0 d1 51 3e 2c a7 7b be cc fb 33 ba
       -0.086125866 0.20490193 -0.2457549 -0.0006865829
000050 af 1c 09 3e 31 48 3f 3e 10 f1 c4 3e 7e 15 7b bc
       0.13389848 0.18679883 0.38465166 -0.015324948
000060 bf 5c b9 3e ba 3c 8a 3e 07 e2 26 be d1 52 a2 3c
       0.36203572 0.26999456 -0.1629716 0.01981488
000070 5b 55 70 be a3 5b d0 be 31 ba c4 bd cd 5b 3d bd
       -0.2347006 -0.40694913 -0.09605826 -0.046230126
000080 65 2a 10 3e 7b c8 b8 3d 6a 22 92 3e 71 3d 81 be
       0.14078672 0.090226136 0.2854188 -0.2524219
000090 07 2f 50 be 57 87 a2 3e 33 70 14 3e 67 12 93 3e
       -0.2033044 0.3174388 0.14495926 0.28724977
0000a0 ff df 95 be 66 3c b0 be a0 d5 f7 bd e0 29 7e 3d
       -0.29272458 -0.3442108 -0.121012926 0.062051654
0000b0 d7 d4 e1 3d 9e 47 90 3e 92 79 40 be 23 74 1a 3e
       0.11026924 0.2817964 -0.18796375 0.15083365
0000c0 75 86 b5 be 2a 68 62 3e 28 7c 06 3e fb 19 8c 3e
       -0.35454145 0.22110048 0.131333 0.27363572
0000d0 29 f3 bc bc a7 ef cb bd 73 8d 08 3e 29 ad b3 bd
       -0.023065167 -0.099578194 0.13335209 -0.08773262
0000e0 d1 38 7c be 76 43 55 3b cd af 2b be 1e ba da bd
       -0.24631049 0.003254143 -0.16766281 -0.1068003
0000f0 0d c2 6f 3d c3 af af 3e 3a e0 81 3e af a1 f5 bd
       0.05853467 0.34313783 0.25366384 -0.11993729

encoder.2.weight f4 [32, 64]
000000 c4 d9 62 bc 58 f8 0d be 0b 70 94 3d bb 1b f4 bc
       -0.013845865 -0.13864267 0.07247933 -0.02979838
000010 9a 2f 00 3d 88 c2 ee 3b 06 d3 5e bd f2 40 49 bd
       0.031295396 0.0072863735 -0.054400466 -0.049134202
000020 58 25 fe bd e1 9c 42 3d 5d ad e3 bd d4 65 11 3d
       -0.124094665 0.047512893 -0.11117051 0.0354975
000030 0c 19 74 3b 91 e0 35 be 7c 7e 21 bd 87 0d 99 3d
       0.0037246374 -0.17761447 -0.039427266 0.07473283
000040 1b e5 a8 bd 7c 80 55 bd 3c 29 0a be 00 e0 1d bd
       -0.082468234 -0.052124485 -0.13492292 -0.0385437
000050 15 3f a9 bd 8a 25 f9 3d 41 de 51 bd 55 66 ae 3c
       -0.08263985 0.12165363 -0.05123735 0.02128903
000060 10 a4 33 bd 93 a4 82 bb 9a 5d 69 3c 14 c4 41 bd
       -0.043857634 -0.003986904 0.014243508 -0.047306135
000070 ec a8 7b 3d 8e db f6 bc ab 49 87 3c 26 fb 97 bd
       0.061440393 -0.030133989 0.01651462 -0.0742095
000080 6b 9f 0e 3d ee 05 d6 3c 83 07 bc 3d 7d 67 b8 3b
       0.03482 0.026125874 0.0918112 0.005627571
000090 30 2e b4 3d 9e 9a 49 bd 61 0d 5c 3d ac b0 cf bb
       0.08797872 -0.04921972 0.053723697 -0.0063381996
0000a0 a9 6a 44 bd c9 d7 70 3c f1 74 ca 3c 6e 89 49 3d
       -0.04795328 0.014699885 0.024713965 0.04920333
0000b0 19 f6 4d 3c 47 dc 08 3e fe 86 88 3d db a1 ba bc
       0.012570881 0.13365279 0.06666373 -0.022782257
0000c0 ad 67 1d 3d 5c 9c 05 3e c7 f6 17 bd a9 b2 24 3d
       0.03842895 0.13047928 -0.03710058 0.040209446
0000d0 9b 9f f6 3c c2 b7 01 bc 3d 09 98 3d 88 f9 68 3d
       0.030105403 -0.007917346 0.07423637 0.056878597
0000e0 f7 55 2e 3d 7d bd f2 bd 3a 2b b4 ba ec 98 5e bd
       0.04256245 -0.11852548 -0.0013745793 -0.054345056
0000f0 63 d8 12 3e 7a a0 ae bd ca b5 fd 3d e0 0b 1b 3e
       0.14340357 -0.08526702 0.12388189 0.15141249
000100 c0 9c 9c bb 3a 99 c4 bd 10 fc 97 bd 7c 43 3b 3d
       -0.0047794282 -0.09599538 -0.07421124 0.045718655
000110 03 84 01 be a4 1f eb bd 67 10 5e bd a0 7d 3e bc
       -0.12648015 -0.11480644 -0.05421486 -0.011626631
000120 e0 6d e8 bd 6b 0d f0 bd 35 ee db 3d 45 29 1b bd
       -0.11349082 -0.11721309 0.10738794 -0.037881155
000130 42 9e 8d bc a0 60 bc 3c f8 52 db bc 2c 6d 9d 3d
       -0.017287377 0.022995293 -0.026772961 0.076868385
000140 41 ed f9 bd 2e 0a 9a bd 94 6b 30 bd 8b 01 35 3b
       -0.12203456 -0.07521473 -0.043071344 0.0027619328
000150 04 75 11 bd 98 bc a3 3d fc 1b 05 3c 20 c9 35 bd
       -0.035511985 0.07994956 0.008124348 -0.04438126
000160 ba e9 35 bd 04 31 34 3d 59 ce da bd 83 41 05 bd
       -0.044412352 0.043992057 -0.10683889 -0.03253318
000170 34 40 94 bd 88 92 6c 3d 45 80 cd bd 7c ca 9c 3d
       -0.07238808 0.05775693 -0.10034231 0.07655808
000180 cf 9d db bd bf 02 76 bc 25 a5 94 3c 3b 5b de 3c
       -0.10723459 -0.015015303 0.018145153 0.027143111
000190 a1 a1 4f 38 4d f2 c2 bd a5 d9 8e bd 06 f0 bd bd
       4.9503175e-05 -0.095188715 -0.06975106 -0.092742965
0001a0 36 b7 95 bd 6b 09 d1 3d 10 02 7f 3d 8b 9e b0 bc
       -0.07310335 0.102068745 0.062257826 -0.021559974
0001b0 90 7e d4 bc 41 7f 5c 3d 45 1b ac 3d 08 5e e1 bd
       -0.025939256 0.053832296 0.08403639 -0.11004263
0001c0 fc 2c 5c bd 4c 40 58 bd a6 e6 e4 bd 56 75 e0 3d
       -0.053753838 -0.052795693 -0.11176805 0.1095988
0001d0 17 a7 d3 3d 37 d2 a1 3c 8f 8e 5c 3d 98 08 f4 bd
       0.10334604 0.019753559 0.053846892 -0.11915702
0001e0 74 2a c3 3c a6 7f c0 3c 46 2d 32 3d 99 cc 82 3d
       0.023823954 0.023498368 0.043500207 0.0638668
0001f0 7f df b3 bd ca 55 ca bd de ea da bc 2d 61 f0 3c
       -0.08782863 -0.09879644 -0.026723322 0.029343212
000200 6f c8 5b bd da bc 2f 3d fe bf 5a bd 1c 68 af bc
       -0.053657945 0.042904712 -0.053405754 -0.021411948
000210 9b da f9 3d 02 ee d3 3d 22 a7 ff 3d 6d 92 e7 bd
       0.12199899 0.10348131 0.1248305 -0.113072254
000220 ad 55 4d 3d 08 4a a2 3d 34 09 84 bd 25 30 90 3d
       0.050130535 0.079242766 -0.06447068 0.07040433
000230 e5 23 13 bd ad a9 af bd 6d 43 c3 3d d0 fa 99 bd
       -0.035922904 -0.08577285 0.09534345 -0.07518542
000240 30 2e 9b 3c d2 72 16 3e 90 e2 9b 3d d2 b5 ab 3d
       0.018942922 0.14692238 0.07611573 0.08384289
000250 a5 97 a2 bd d8 96 49 bc 09 43 0d 3d 1f ba 99 bc
       -0.0793908 -0.01230403 0.034487758 -0.018765507
000260 30 84 1b 3e f7 b1 c1 3d f3 10 07 3b 71 a8 16 bd
       0.15187144 0.09457772 0.0020609468 -0.036781732
000270 25 ea 6e bd 6b 37 ae bd 40 76 68 3c 9a 1c 92 bd
       -0.058328766 -0.08506664 0.014188349 -0.071343616
000280 4f d7 f1 bd b8 d0 dd 3c 11 b3 40 bd c2 9e 94 3d
       -0.11808645 0.027077064 -0.04704577 0.07256843
000290 60 db af 3d 6d 06 d8 bb 95 00 0e 3b b6 3a dc 3c
       0.08586764 -0.006592563 0.0021667827 0.026883464
0002a0 13 ca 23 be ed a2 7b bd a0 be e1 3d 0f 2f 03 3e
       -0.15995054 -0.061434675 0.11022687 0.1281092
0002b0 92 4f 07 ba b8 39 b9 3b 60 75 26 be 84 0b 67 bd
       -0.0005161698 0.0056526326 -0.16255713 -0.056407467
0002c0 c1 1d 92 3c 24 c3 40 bd ec 34 fc 3b 89 67 cd bd
       0.017836453 -0.0470611 0.0076967385 -0.100295134
0002d0 42 5e 07 3e 97 4d 13 be e9 86 2d bd 27 20 8d 3c
       0.1321955 -0.14385067 -0.04236499 0.017227245
0002e0 07 09 f4 3c dc 83 51 3d d0 3d 49 3d 6c c3 e4 3d
       0.02978946 0.05115114 0.049131215 0.11170086
0002f0 2b 04 36 bd 5d 5c 91 3d b7 54 87 bd 70 3e 1b 3e
       -0.04443757 0.07097695 -0.06607955 0.15160537
000300 36 71 85 bd d1 27 e4 bd e7 43 a5 bd 18 12 32 be
       -0.06515734 -0.11140407 -0.08069592 -0.17389715
000310 c3 ff 47 3d bf 3d 7b 3d 87 47 71 bc 4f d0 0d be
       0.048827898 0.061338183 -0.014726526 -0.13848995
000320 2b 29 d6 bb 81 f7 a2 bd 68 f5 46 3d 68 91 25 bd
       -0.0065356693 -0.07957364 0.04857388 -0.040421873
000330 a9 67 c2 bd 6e fb 21 bc cd df bb 3c bc 79 21 bc
       -0.09492428 -0.009886606 0.022933865 -0.009855684
000340 99 1b a1 bc d7 6f ad bd ac df 68 bd 0f 68 83 3d
       -0.01966648 -0.084685974 -0.056853935 0.06416332
000350 51 f1 b8 3d f3 c4 97 3d 79 76 93 3d 20 e5 42 3d
       0.090304025 0.07410612 0.07200331 0.047581792
000360 1b ec 39 3d cc ac a3 bd 7b 27 1c 3d ee 74 ab bd
       0.045391183 -0.07991943 0.03812359 -0.08371912
000370 52 40 00 be 28 3e 07 bc 31 9e b8 3c 84 95 f8 bc
       -0.12524536 -0.008254565 0.022536369 -0.030344732
000380 37 9b c5 3d 0d da ea bd 6e 49 e8 bc 9d 65 e4 bb
       0.096487455 -0.11467371 -0.028355327 -0.006970121
000390 b2 43 2b 3d 1c dc 94 bd 96 c4 61 3c 1c fe 7f 3d
       0.041812606 -0.07268545 0.01377978 0.062498197
0003a0 0f 7d 9f 3c 62 68 67 3c c8 6a a5 3d 0f ce e2 3c
       0.019468812 0.014124008 0.080770075 0.027686147
0003b0 cc da 32 3d 22 e9 e8 bc 44 c1 5d bd 38 5a fe bd
       0.043665692 -0.028431479 -0.05413939 -0.124195516
0003c0 10 df 00 bc 67 5c b9 bd 9e 1d fc 3c 02 72 b4 3c
       -0.007865682 -0.090508275 0.030775841 0.02202702
0003d0 16 ad e8 3d f9 cc ce bd da 60 3a 3d 57 1e c0 bd
       0.113611385 -0.10097689 0.04550252 -0.09380787
0003e0 cf 0f 4f bd 37 df e4 3c e4 6a 1b ba 02 b5 24 be
       -0.050552186 0.027938468 -0.00059287087 -0.16084674
0003f0 e5 65 96 bd 10 0a 9d bd f9 85 92 bd 71 29 c6 3d
       -0.073436536 -0.07667935 -0.071544595 0.09675873

encoder.2.bias f4 [32]
000000 01 88 27 3d 75 ad a8 3d f0 c4 62 bc 39 34 e0 3d
       0.040901188 0.08236209 -0.013840899 0.10947461
000010 7c df 2f 3d 1f 34 17 3e 2e 39 8f 3d 31 f0 0a 3e
       0.04293774 0.14765976 0.06993328 0.13568188
000020 17 9f 49 bb 0b e9 c1 3c 25 a0 92 3d 05 10 22 3d
       -0.003076499 0.023670694 0.071594514 0.03956606
000030 b4 7c 03 3e 1a cb 26 3d 90 1e 5b 3d 12 37 3e 3d
       0.12840539 0.040721036 0.053495944 0.046439238
000040 98 93 59 bc 60 ae cb 3c 6a 0a e4 3d ff 5a 82 3d
       -0.013279818 0.024863422 0.11134799 0.063650124
000050 1c f4 ac 3d 64 11 68 3d 96 d0 8d 3d d8 db 97 bd
       0.08444998 0.05665721 0.0692455 -0.07414979
000060 2e 55 01 3d bc 06 9c bd 79 a9 82 bd 80 3e 4d bd
       0.031575374 -0.07618472 -0.063799806 -0.050108433
000070 c9 56 ec bd 5f a1 93 3d a1 1f f4 3d 9d d5 fb 3d
       -0.115399905 0.072085135 0.11920095 0.12296603

mu.weight f4 [8, 32]
000000 30 0f 9f 3c 26 55 5e 3c c8 0b c4 3c 33 32 be 3d
       0.019416422 0.013570106 0.023931399 0.092869185
000010 c3 d3 f7 3b 9a e5 0f 3d 5a 90 5e 3e d4 a8 a4 3d
       0.0075630858 0.035131074 0.21734753 0.08040014
000020 27 95 3c 3e db e8 23 3c c3 61 9b bd a3 44 18 3e
       0.18416272 0.010004248 -0.07587006 0.14869933
000030 49 db 9d bc db 52 a1 bd 72 cc cf bd a0 17 12 be
       -0.019269602 -0.078771316 -0.10146417 -0.14266825
000040 a8 88 0c 3d 74 8a 32 3e 17 13 1f 3e 84 74 8b bc
       0.034310013 0.17435628 0.15534626 -0.017023332
000050 e0 cd 0a be f8 19 57 bd 6b 05 26 3d df 23 c9 bb
       -0.13555098 -0.052515 0.04053251 -0.0061383094
000060 b9 f4 cc 3d 91 da df bd ba 51 e0 bd 15 3b 0f 3e
       0.10007615 -0.1093036 -0.10953088 0.13987382
000070 1b 4d ff 3c 46 55 02 bd 5d 2e 4e be 81 46 1c bd
       0.031164696 -0.031819604 -0.20134874 -0.038153175
000080 fb 4c 10 be 99 c7 6a bd c3 13 73 3b ca a5 19 be
       -0.14091866 -0.057319257 0.0037090636 -0.1500465
000090 95 5b 2d bb 38 89 42 3e 03 18 28 be 22 d8 1a be
       -0.0026452292 0.18997657 -0.1641541 -0.1512151
0000a0 54 96 49 bd 72 4d 81 3d 9e af 2c bd 2f 2f a7 3d
       -0.04921563 0.063136 -0.04215967 0.081632964
0000b0 f6 73 70 3d b1 8e 04 be 98 7c 0f 3e 59 83 10 3e
       0.05870434 -0.12945057 0.14012372 0.14112605
0000c0 b4 38 11 be cb d6 98 3d 73 21 5a bd f4 62 f3 bd
       -0.14181787 0.074628435 -0.053254556 -0.11884108
0000d0 90 ee f2 bd 6b 5d 12 be 9f 44 08 3e da 62 a4 bd
       -0.118619084 -0.14293449 0.13307427 -0.08026667
0000e0 e5 ca fd 3d b1 02 c8 bd 00 e9 e3 3d 5d 9e d9 bd
       0.12392215 -0.09766138 0.111284256 -0.106259085
0000f0 7b c7 ce bd 30 b2 24 3e 6f 96 51 3d 42 09 53 3d
       -0.10096642 0.16083598 0.051168855 0.0515225
000100 b2 70 fc bd 0a 29 18 3e 99 16 51 be 77 b8 d4 39
       -0.123261824 0.14859405 -0.20418777 0.00040573228
000110 1b ae 15 bd 93 ad a4 3d 9c ea 13 3e 5f bc b2 bd
       -0.036542993 0.08040919 0.14444965 -0.08727335
000120 20 de 0a be 45 7a a3 bd 69 50 2a bd 10 f8 a8 3d
       -0.13561296 -0.079823054 -0.04158059 0.08250439
000130 1e 34 44 bd 16 ee 26 3e 16 1a a2 3d c5 e6 9f bd
       -0.047901265 0.1630176 0.07915132 -0.07807688
000140 c8 64 fa 3d 4b 3b 04 3e 7b e0 63 be 81 b0 fd bd
       0.12226254 0.12913243 -0.22253601 -0.12387181
000150 35 23 2d 3e 2b 82 20 be cb ff 8e 3d 5f 79 d1 bb
       0.16907962 -0.15674655 0.069823824 -0.0063926424
000160 c2 d0 87 3d c2 48 9c bd 93 3c 03 be 65 b1 c1 3c
       0.06631614 -0.07631065 -0.12816076 0.023644159
000170 60 16 e8 3d 76 1d d1 3d 40 d0 50 bd 2d 09 14 be
       0.11332393 0.10210697 -0.050979853 -0.14456625
000180 72 e3 49 3d ee 87 27 3e 80 8d 2c 3d af 61 41 bd
       0.049289174 0.16360447 0.042127132 -0.0472123
000190 06 61 8e 3c b4 9f cf 3d 92 ec 9f 3d 1c 59 43 3c
       0.017380249 0.10137883 0.07808794 0.011923101
0001a0 59 4b 69 be f0 48 0f be dd ca ed 3d 32 b8 4b be
       -0.22782649 -0.13992667 0.11610959 -0.19894484
0001b0 81 37 06 3e 01 a4 d9 bd de c9 e6 3d 54 36 f3 3d
       0.1310711 -0.106269844 0.11268972 0.11875597
0001c0 83 77 a2 bd 9f 05 ed bd c5 5b 04 be 4f da 09 3e
       -0.07932951 -0.11573338 -0.12925632 0.13462184
0001d0 0b c4 34 3e d5 17 02 bd da 03 48 bc 55 57 14 3e
       0.1765291 -0.03176101 -0.0122079495 0.1448644
0001e0 1f c6 12 be 42 3e 6b bb 20 aa 2c 3d 45 72 ab 3d
       -0.1433339 -0.0035895263 0.04215443 0.083714046
0001f0 c2 c7 3a be d3 ea bc 3b 43 b9 60 bd 9b bd 35 3e
       -0.18240264 0.005765298 -0.05486418 0.1774811
000200 19 77 4d be 85 b2 fd b9 e1 8e bd bd 6a 9b 87 bc
       -0.20064963 -0.00048388928 -0.092557676 -0.0165536
000210 ee d3 57 bd 48 a6 1f be 84 90 0a be 4d 8c 00 3e
       -0.052692346 -0.15590775 -0.13531691 0.1255352
000220 0e 82 c3 3d e7 d4 09 be 2e da e6 bd 1d 1a 23 bd
       0.0954629 -0.13460122 -0.11272083 -0.039819825
000230 5d e2 7b bd b0 33 3d 3e c4 e6 34 bd fd f0 13 3d
       -0.061495174 0.18476748 -0.044165388 0.036118496
000240 99 14 de bc 5a 49 42 3e 42 69 68 be fe 60 1c be
       -0.027109431 0.18973294 -0.22696403 -0.15271375
000250 6e 51 4d 3e 12 32 22 3e 67 e5 16 3e 8a 53 4b 3e
       0.20050594 0.15839413 0.14735948 0.19856086
000260 8e c0 eb 3d be 67 bf 3d 53 21 d4 3c 1c f9 10 bc
       0.11511336 0.09345959 0.025894796 -0.008848455
000270 db e0 fc bd c9 c1 be 3d 90 91 34 be 5c 8d 79 bd
       -0.12347575 0.09314305 -0.17633653 -0.060925826
000280 83 08 3b be fc d2 0c 3e cd eb 36 3e be b3 0f bd
       -0.18264966 0.13752359 0.17863388 -0.035083525
000290 81 ee b9 bd 3e 3a 2d be 09 4a 10 3d 2f 5a 25 be
       -0.09078694 -0.16916749 0.035226855 -0.16147684
0002a0 dc d1 0c be 95 1e f7 3d e3 79 c0 bd a9 32 ac bd
       -0.1375193 0.1206638 -0.09398248 -0.084081
0002b0 d4 93 8a 3d 49 da 8d 3c ee 9b 2a bd 09 c4 71 3d
       0.06766477 0.017316 -0.041652612 0.059024844
0002c0 8a eb 18 be 7e a8 f5 3d 82 a5 f4 3d 12 8f dd bd
       -0.14933601 0.11995028 0.119456306 -0.10818304
0002d0 19 b6 fe 3d ae 23 3b be c7 a0 c5 bd e5 81 3a bd
       0.12437076 -0.1827533 -0.096498065 -0.045534033
0002e0 5c f7 9d bd 51 8b 0b 3e 55 c5 c4 bd 94 49 2d bd
       -0.07713196 0.13627364 -0.096079506 -0.042306498
0002f0 0f bd 32 bc 06 b4 41 be cb 5e d8 3d 6b e6 03 be
       -0.010909333 -0.1891633 0.10564955 -0.12880866
000300 ca 4d ec bd e5 ed 12 bd 3f 6b 70 3d 53 86 4d 3e
       -0.115382746 -0.035871405 0.058696028 0.20070772
000310 54 a3 1a 3e bf 46 12 3d 63 d7 40 bd d0 be 30 3e
       0.15101367 0.035712 -0.04708041 0.17260289
000320 26 0b 19 bd 03 50 0c bd 2f 83 21 3e 68 0a bf 3d
       -0.037364148 -0.034255993 0.15772699 0.09328157
000330 d3 cd 22 3e 58 fb c0 3b 9f ac 1d 3d 5d c8 08 bd
       0.15898828 0.0058893375 0.038494702 -0.033394206
000340 67 a9 d2 bd e1 87 3d be 6f 53 59 bd 98 14 a5 bd
       -0.10286217 -0.18508865 -0.053058084 -0.080605686
000350 c4 4a 13 be 78 0d 05 3e 65 85 3d bd da 08 7b 3c
       -0.1438399 0.12993419 -0.046269793 0.015321935
000360 43 e2 d5 bc d3 63 e5 3d c6 35 d7 bd 50 7c 19 be
       -0.026108867 0.112006806 -0.10508303 -0.14988828
000370 f8 9c ca bc 7d 0a d6 3b 5b 76 d4 bd 15 d6 2e 3e
       -0.024733052 0.006532012 -0.10374137 0.17073853
000380 49 16 08 be 98 e7 f1 bc 8c aa ad bd c3 fa 25 bd
       -0.13289751 -0.029529378 -0.08479795 -0.040522348
000390 c0 f8 12 be 36 a8 8e bd 19 f9 c1 3d 7a df 88 bd
       -0.14352703 -0.069656774 0.0947134 -0.0668325
0003a0 92 81 bf 3c 7b ae 70 3d ff a8 36 bc da 65 80 bc
       0.023377214 0.058760148 -0.01114869 -0.015673567
0003b0 8e 02 db 3c 05 34 0d be 05 f7 15 be cf 9f 01 3d
       0.026734617 -0.13789375 -0.14645012 0.031646546
0003c0 97 82 3f 3d a5 d4 8b 3c 4f 2f da bd f8 f8 3d 3c
       0.0467554 0.01706917 -0.10653555 0.011595003
0003d0 09 f9 99 3d 37 2e 06 3e 11 45 98 bd a6 da 2d bd
       0.07518203 0.13103567 -0.07435048 -0.042444848
0003e0 67 98 b5 3d af 48 9c 3d ce 05 15 be 0f 80 b8 bd
       0.08866959 0.07631051 -0.14552996 -0.090088
0003f0 7a 49 a5 bd 0c 1f f8 bd 3e 99 4d bc 30 d9 07 3e
       -0.08070655 -0.12115297 -0.012548743 0.13266444

mu.bias f4 [8]
000000 4f ad 0a be 54 a4 19 3d 52 28 a0 3d b8 c5 d1 3d
       -0.13542674 0.03751023 0.078201905 0.1024279
000010 43 03 a3 3d 1f 66 c5 3d ce 80 d4 bd 2b 7a 01 3e
       0.079596065 0.09638619 -0.1037613 0.1264426

logvar.weight f4 [8, 32]
000000 a0 7c c6 3d 20 3a ec 3d 73 9e cb 3d e4 79 54 3d
       0.09691739 0.11534524 0.09942331 0.051874056
000010 17 14 54 be a4 1f f6 3d 3e 7b 29 be 18 b8 a2 3d
       -0.20710789 0.12017754 -0.1655092 0.07945269
000020 f1 74 4a 3d 0b 39 8c bd 23 06 0e be c9 86 a5 3a
       0.04942793 -0.068468176 -0.13869528 0.001262867
000030 6a 83 03 bd a0 62 b3 bd e8 e2 e6 bd 4d 6e d2 3c
       -0.032107748 -0.087590456 -0.11273748 0.025687361
000040 f9 1d d8 3d ec d5 e2 3c c8 5e ce 3d 0b 0f d0 3c
       0.10552592 0.027689897 0.10076672 0.025397798
000050 82 4c a6 bd a0 d4 2b bd db f4 ae 3d eb 7f f5 bd
       -0.081200615 -0.041950822 0.08542796 -0.11987289
000060 90 a0 9f 3d f4 88 a9 bd 36 0b 5a bd 12 23 4a bd
       0.07794297 -0.08278075 -0.053233348 -0.049349852
000070 fb 54 40 bd 85 68 77 3c 05 9d 8d 3d d4 c9 16 3e
       -0.046956044 0.015100603 0.06914715 0.14725429
000080 44 25 ba bd 95 ed c3 3d 83 85 98 3a b6 e0 56 bd
       -0.09089139 0.095667996 0.0011636469 -0.052460395
000090 0d eb bd 3b 8c 86 c4 3d 40 ac 11 bd ea 69 98 3d
       0.0057958425 0.09595975 -0.03556466 0.074420765
0000a0 07 0b 3e bd ec 85 0d be f6 15 e8 bd 58 64 a0 3d
       -0.046397235 -0.13820618 -0.11332314 0.07831639
0000b0 3a 22 ff bd 8a 9d 06 3c 6a 4c 90 3c 3f 3e f6 3c
       -0.124577 0.008216271 0.017614562 0.030058978
0000c0 f9 fa 05 3e 46 c9 85 3d a8 54 92 3c f0 07 4a bd
       0.1308402 0.065325305 0.017862633 -0.049323976
0000d0 8d 95 28 be da 4b ea 3d 20 4b 18 be b7 fb 1c be
       -0.16463299 0.11440249 -0.14872408 -0.15330397
0000e0 50 23 05 be bf a6 14 3d 9a 90 8c 3c f1 69 40 be
       -0.13001752 0.036291834 0.017158795 -0.18790413
0000f0 72 1d ba bc 1b 4a 7b bd 13 88 cf 3d 2c e4 0f be
       -0.022719119 -0.06134997 0.10133376 -0.14051884
000100 fd e5 5d bd b0 85 20 3e d0 c3 80 bd 18 ed a9 bd
       -0.054174412 0.15675998 -0.06287348 -0.08297175
000110 13 24 e0 3d 4d db c3 3d 22 99 4e bd 0f 41 3b be
       0.109443806 0.09563313 -0.050439008 -0.18286537
000120 61 12 8f 3d f5 97 ec 3d cc d8 bb 3d 1b 54 ea bd
       0.069859274 0.11552421 0.0917221 -0.11441823
000130 d0 2f 69 bd 98 e4 d5 bd f2 a1 a6 3b 15 2c 87 bd
       -0.056930363 -0.104439914 0.0050852234 -0.06600205
000140 31 b6 ea 3d 2c 2e cb 3b cf 20 d2 bd c2 5d d2 3d
       0.114605315 0.0062005725 -0.10260164 0.10271789
000150 ff 50 3c be 6b ff 25 bd 46 67 75 3d b6 07 00 3e
       -0.18390273 -0.04052679 0.059912942 0.12502941
000160 b3 65 93 3d c3 98 8f 3d 78 30 fb bd 49 13 97 3d
       0.07197132 0.07011559 -0.12265104 0.07376725
000170 6b 75 12 be af 18 c9 bc 14 c1 54 be 61 5a 84 3b
       -0.14302604 -0.024547903 -0.20776778 0.0040390943
000180 14 26 9c 3d 2d 0e 21 3d 51 5a 41 bc 99 73 42 be
       0.0762445 0.03932016 -0.011801318 -0.1898941
000190 4a fd 45 bd e2 3a 1f bd e9 c2 d1 3d 0b aa 0a be
       -0.04833726 -0.038874514 0.10242254 -0.13541429
0001a0 8b f1 b2 bd 9c 49 e9 3c 2e cb a6 3d 4d ea a1 3d
       -0.08737477 0.028477482 0.08144222 0.079060175
0001b0 d0 89 b7 bd c6 e8 32 bd c6 0d 23 be a4 0e 21 3c
       -0.089618325 -0.04367902 -0.15923223 0.009830151
0001c0 54 26 67 3a 18 fb 96 3d db 0d 03 be 5d 7c 4a 3d
       0.0008817662 0.07372111 -0.12798254 0.04943501
0001d0 64 8d bb 3d cd 96 af bc c6 61 9f bd e8 c1 09 be
       0.091578275 -0.021434212 -0.07782321 -0.13452876
0001e0 cf bc 1e be 02 c2 dd 3d 37 5a 93 bc 15 c5 ab bc
       -0.15501712 0.1082802 -0.017987354 -0.020968
0001f0 bf d0 ae 3d ff 3e 70 3b b2 ee db bd b1 1c 83 3d
       0.08535909 0.0036658642 -0.10738887 0.06401957
000200 7a 7e 63 bc dc 01 a6 3d aa a9 15 bd 74 25 64 3d
       -0.013885135 0.081058234 -0.036538757 0.05569978
000210 7e fb ca bc 6c 17 ce bd ba a7 de bb 0a 45 41 be
       -0.024778124 -0.10063061 -0.006794897 -0.18873993
000220 21 94 2f 3d 40 9f 84 3d 04 f7 e9 bd ae ab b5 bd
       0.042865876 0.06475687 -0.114240676 -0.08870636
000230 fc f9 27 3d e7 8f ce 3d 3e fc 07 3e f0 70 08 bb
       0.041009888 0.10086041 0.13279817 -0.002081927
000240 be da be bd b2 8e ef bd a8 50 02 be 24 d6 22 be
       -0.093190655 -0.11697139 -0.1272608 -0.15902
000250 3a 3b ae bc 71 2c 3a bd fa e9 01 be a9 e4 39 be
       -0.021268476 -0.04545254 -0.12686911 -0.18153633
000260 6b 9b 1a be be c7 f4 bd e6 a7 c4 3d 84 c1 1d 3e
       -0.1509835 -0.1195216 0.096023366 0.15405852
000270 11 39 23 3d 25 cc f4 3d 87 b4 b4 bd 44 63 e0 3d
       0.039849345 0.11953 -0.08823495 0.109564334
000280 8c d5 36 bd f8 01 3b 3e 67 a5 5c 3d 98 a6 7f bc
       -0.044637248 0.1826247 0.053868677 -0.015603684
000290 ec 4b e7 bc cb 9a 82 3d 7c a0 cf bd 28 6b 9c 3d
       -0.028234445 0.06377181 -0.10138032 0.07637626
0002a0 f7 40 be bd 3d d0 b4 3c fc 89 ad 3c 8b cb f4 3b
       -0.09289735 0.022071952 0.02118396 0.0074705533
0002b0 1c 75 9b 3d be 4a 6f 3d bc 78 da bd be b3 09 3a
       0.07590696 0.05842089 -0.106675595 0.0005252919
0002c0 e0 42 b7 bd da 41 96 bc 23 e5 e9 bd 58 15 f4 bd
       -0.08948302 -0.018341947 -0.114206575 -0.119181335
0002d0 04 a5 7f 3d c1 61 b3 bb c8 5d 01 bc 19 dc 9a bd
       0.06241323 -0.0054742997 -0.007895894 -0.075615115
0002e0 03 05 55 bc fc 44 43 bd 72 24 06 be 03 6b 02 be
       -0.013001683 -0.04767321 -0.1309984 -0.12736134
0002f0 e3 4a 2f bd 21 0e 92 3d 8e d0 c0 3d 4f 32 03 be
       -0.042796027 0.07131601 0.09414779 -0.1281216
000300 b8 2a 0d 3c 10 06 80 bd 80 2a fb 3c 07 7d 47 3c
       0.008616142 -0.06251156 0.030659914 0.012175805
000310 39 ae f1 bd e5 b1 cb bd 83 32 b0 3d 35 05 09 3d
       -0.118008085 -0.0994604 0.08603384 0.03345223
000320 2e b3 aa bc 80 36 85 bd 19 1c aa 3d fa 6d e2 bd
       -0.020837393 -0.06504536 0.083061405 -0.110561326
000330 4d c7 36 3d 9c 39 7d 3d f6 9a 36 be 0f 77 23 be
       0.04462366 0.06182252 -0.1783255 -0.15963386
000340 f9 65 9a bd 43 69 97 3d c1 30 41 be 57 16 90 bc
       -0.07538981 0.07393124 -0.18866254 -0.017588777
000350 71 bf 1f be d6 7e 9e bd d7 76 0e be 68 47 ed 3d
       -0.15600373 -0.07739036 -0.13912521 0.11585885
000360 ab ff 3e be 61 c0 15 be 50 5d 9d 3b 01 35 f1 3c
       -0.18652217 -0.14624168 0.0048023835 0.02944422
000370 66 d4 2b 3e 75 d5 8e bd c8 f6 f2 3d c2 84 5f 3d
       0.16780242 -0.069743074 0.11863476 0.054569967
000380 ae b3 cc 3d 9f 19 24 3e a7 20 17 3e ff ad c0 3d
       0.09995209 0.16025399 0.1475855 0.09408187
000390 e8 e9 0b 3d 26 c7 b3 bd 58 57 07 be 4d 15 eb 3d
       0.034158617 -0.08778219 -0.13216913 0.11478672
0003a0 d8 2b bd bd 3f 82 e0 bd 0b db 18 3e e4 44 15 be
       -0.09236878 -0.109623425 0.14927308 -0.14577061
0003b0 5b 17 df bd 8d 85 0b 3e b4 a2 f9 bd 46 62 04 3e
       -0.108931266 0.13625164 -0.12189236 0.12928113
0003c0 c5 84 46 3d 9e 65 d1 3d 1f da 0d 3e cd 22 e7 bd
       0.048466463 0.1022446 0.13852738 -0.112859346
0003d0 75 76 d7 bd da 9b f7 bd d5 0a 13 be 9a ae e2 3d
       -0.10520641 -0.12090273 -0.14359601 0.11068459
0003e0 8f b6 08 be 4f 22 19 3e d5 58 ab bd 53 57 a7 3c
       -0.1335089 0.14954494 -0.08366553 0.020427382
0003f0 42 dc 7c 3d 1d e1 04 3e 5e 4e 6e bd 19 ad ed bd
       0.06173349 0.12976499 -0.058180206 -0.116052814

logvar.bias f4 [8]
000000 f2 dc c5 bd 93 41 05 3d 23 76 fa bc 77 e6 b5 3d
       -0.096612826 0.03253324 -0.03057391 0.08881848
000010 f1 ea 16 be 45 d0 03 be e3 46 c9 3d b9 b3 dd bd
       -0.1473806 -0.12872417 0.09827974 -0.10825295

decoder.0.weight f4 [32, 8]
000000 ea 9b d3 3e 9f 00 d6 bd ad ef 88 bd 88 f9 6c 3e
       0.4132989 -0.10449337 -0.066863395 0.23142064
000010 30 63 54 be 73 bf 24 3e 8a 00 70 be eb 83 98 3e
       -0.20740962 0.16088657 -0.23437706 0.29788145
000020 a8 c7 02 be 4b 40 a1 3e a0 c1 51 bd a7 87 b0 3d
       -0.12771475 0.31494364 -0.051210046 0.08619624
000030 f5 9f b3 be 0c a7 b7 be 52 09 69 be 2c 56 d7 bd
       -0.35082975 -0.35869634 -0.22757462 -0.10514483
000040 bf 99 79 bd 0c 4d 7c bd 1c 31 63 3e a1 81 b8 be
       -0.06093764 -0.061596915 0.22186702 -0.360364
000050 c2 9f a5 3e a1 6d a8 bd 07 af 81 be a4 ba 64 3b
       0.32348448 -0.08224035 -0.25328848 0.0034901286
000060 4d 61 0c be f5 fa d2 3c a9 b9 17 bd e4 9d a3 3d
       -0.13708992 0.025754431 -0.037042294 0.079890996
000070 f6 c6 70 be 98 dd 78 be 52 e0 ba 3d f5 d5 95 3e
       -0.23513398 -0.24303281 0.09124817 0.292648
000080 26 48 86 3e a2 28 6a 3d 7c af ea bd 71 c6 8f bd
       0.2622692 0.057167657 -0.11459252 -0.070202716
000090 01 c6 b7 be 14 18 4a 3e 5f 02 f4 3b a0 38 42 be
       -0.35893252 0.19735748 0.0074465717 -0.18966913
0000a0 4b 5e 83 bd 2f 65 d3 3d 4f c5 76 be cb e7 41 3e
       -0.06414469 0.103220336 -0.24098705 0.18936078
0000b0 05 86 9f 3e 49 15 8c 3c 70 cf ad bb e7 b0 a8 3e
       0.31156936 0.017099993 -0.0053042695 0.32947466
0000c0 9c 34 78 be 24 2b 16 3d 10 06 8a be 3e 1b 04 3e
       -0.24238819 0.036662236 -0.2695775 0.12901017
0000d0 2d 95 94 be ea e9 fe 3c 74 4c 6c 3e 04 66 34 3e
       -0.29020062 0.031117398 0.2307604 0.17617041
0000e0 dd 9f 9a be d2 27 88 be c3 6e 9c 3e ea 1e 68 bd
       -0.3020009 -0.2659288 0.30553254 -0.056670107
0000f0 d2 6d 1c be ef c1 bb 3c 1d 0f a6 3e 86 fd 0c 3e
       -0.15276268 0.022919623 0.32433406 0.13768587
000100 9f a2 8a 3e c0 b4 22 be d6 4b 6d 3d 80 db ff 3d
       0.27077195 -0.15889263 0.05793365 0.12493038
000110 94 a6 d5 3e 6e 46 31 be 54 7c 47 be a4 e1 43 3e
       0.41728652 -0.17312023 -0.19481021 0.19129044
000120 ea 7c 3c 3d 07 43 0a 3e 7b b4 7a 3d 7f ae ac be
       0.046017565 0.13502131 0.061207276 -0.3372688
000130 2e b5 bc 3d 2c 93 44 be 3d 10 9c bd b7 a1 44 be
       0.09214245 -0.19196767 -0.07620285 -0.19202314
000140 db 8d 0f 3d 6c 91 02 be 4e 2b b2 be 7c 3f c9 bd
       0.035047393 -0.12750787 -0.34798664 -0.09826562
000150 8f d7 67 be e0 58 11 3e 5f 56 7f be 1f d0 1e be
       -0.22640823 0.1419406 -0.24935292 -0.1550908
000160 b6 40 6b 3e 62 d2 d7 3d 20 fb ab bd 13 9b 86 3e
       0.22973904 0.10538174 -0.08397508 0.26290187
000170 cf 94 cf bd b6 c6 97 be c9 2d 14 3e 48 88 4f 3e
       -0.10135805 -0.29643792 0.1447059 0.20266831
000180 88 6d 6a bd f4 50 a7 bd 8e 53 b8 3d af 8a 57 3e
       -0.057233363 -0.081697375 0.09000312 0.21048997
000190 e6 48 e0 3e 28 dc 2a be 70 7d a2 3d 5a c2 54 be
       0.43805617 -0.16685545 0.079340816 -0.20777264
0001a0 8b a0 3a 3e 70 b7 f1 bd da e1 93 bd 84 47 99 be
       0.18225305 -0.11802566 -0.07220812 -0.29937375
0001b0 c6 d4 ba 3e bc 27 6c 3e ce 7d ab ba dd 96 a6 3d
       0.36490458 0.23062032 -0.0013083757 0.08134244
0001c0 45 d7 b0 3e 58 38 29 3e a9 27 02 3e 87 e0 be be
       0.34539238 0.165254 0.12710442 -0.37280676
0001d0 29 9d a9 3e e9 25 8c 3e 4f a7 99 3e 5f e8 c4 bd
       0.33127716 0.27372673 0.3001046 -0.09614634
0001e0 81 57 99 3e f8 53 9d bd 9b d2 48 3e 79 b3 e6 bd
       0.29949573 -0.076820314 0.1961159 -0.112647004
0001f0 f8 68 f1 3d ef 98 6a be 81 12 38 be a3 7e 21 be
       0.11787599 -0.22909902 -0.17975809 -0.15770964
000200 bb 06 c2 3d 2e a6 d2 3d f7 f4 ba 3d e2 13 0e 3d
       0.0947394 0.102856025 0.091287546 0.03468693
000210 67 e6 64 3e b7 5f d9 bd e6 ba 20 bd 66 5d 31 bd
       0.22353517 -0.10613959 -0.03924074 -0.043301962
000220 fe 34 73 bc 83 80 16 3e 22 4c 17 3e fd 8c 49 bd
       -0.014844177 0.14697461 0.14775136 -0.049206723
000230 f1 e1 94 be 9d 33 d8 3c d1 ff 88 bd 64 db 89 bc
       -0.2907863 0.026391799 -0.06689418 -0.016828246
000240 87 b2 c0 3d 91 07 62 3e e9 90 59 be 7b 8a 82 3b
       0.094090514 0.22073199 -0.21246685 0.0039837933
000250 2a 9f a4 be fc f1 dc 3d 50 ba 9c 3e 3d 4a 91 be
       -0.32152683 0.10788342 0.30610895 -0.28376952
000260 4f 59 9d 3e 93 93 24 bc e8 5c b9 3e 26 0a 22 be
       0.307322 -0.01004495 0.36203694 -0.15824184
000270 d8 e5 9f 3e 31 e5 2f be 52 f2 79 be c0 eb 9e 3d
       0.31230044 -0.17177273 -0.24408844 0.077598095
000280 e2 e6 97 3a 38 12 8c 3e 89 7b 5c bd f9 ac 14 be
       0.0011589194 0.2735765 -0.05382875 -0.14519109
000290 b9 38 ba 3e b1 fb 77 3e e2 e5 ad be c0 40 34 bb
       0.363714 0.24217106 -0.3396445 -0.0027504414
0002a0 21 f8 a7 3e b6 d2 84 3e 46 d0 55 be aa 98 88 be
       0.32806495 0.2594201 -0.20880231 -0.26678973
0002b0 01 fd b6 3e 17 fa 88 3e 94 ae d6 bd df 78 8a 3d
       0.35739902 0.26753303 -0.10482517 0.067613356
0002c0 86 e4 c9 3d b4 57 73 be 6c a1 7a 3e 0d 19 b6 be
       0.098580405 -0.23763925 0.2447564 -0.35565987
0002d0 e8 9f 0f be 80 f1 de bd c3 00 17 be 41 c0 8f 3e
       -0.14025843 -0.10885906 -0.14746384 0.28076366
0002e0 0f 11 b3 be ee b2 9e be 7b f8 21 3e 25 f1 79 3e
       -0.34973952 -0.30995888 0.15817444 0.24408396
0002f0 e2 7c c4 3e 56 1e a2 be 49 03 ff 3c 4a 58 86 3d
       0.38376528 -0.3166377 0.031129496 0.065598086
000300 10 3e 85 be ad 9a 40 3d b4 21 84 3d d0 3b a8 be
       -0.26023912 0.04702251 0.06451741 -0.32858133
000310 9b 32 04 be 62 6d 46 3e c5 f7 03 be 9b 60 d1 3d
       -0.1290993 0.19377664 -0.12887485 0.10223504
000320 1d 5d fd bd 35 e0 ca 3d cb 04 07 3e 4b 05 b1 be
       -0.123712756 0.09906045 0.13185422 -0.3457435
000330 b0 35 a2 bd 4e 31 1e be 40 6f 95 3e fb 1c 51 be
       -0.07920396 -0.15448496 0.2918644 -0.20421211
000340 2e 7a f5 bd ac 5a 99 3e 73 b4 08 3e b2 82 0b be
       -0.119861946 0.2995199 0.13350086 -0.13624075
000350 f0 4a 63 3e 92 18 83 be a9 23 1b 3d d3 81 2a be
       0.22196555 -0.25604683 0.037875805 -0.16651087
000360 05 4f 61 be be b4 e3 bd 41 c3 5d 3e 06 91 7b be
       -0.220028 -0.11118458 0.21656515 -0.24567041
000370 98 36 b4 3e 5d e9 4a 3e 09 49 75 be c4 d4 3a 3e
       0.35197902 0.19815584 -0.23953642 0.18245226
000380 fa 4b 17 3d 54 2a 91 3e df ad cb 3d fe 66 4d 3e
       0.03693769 0.28352606 0.09945273 0.2005882
000390 0a bd 88 3e 02 dc ca 3e d1 06 7c be db bc 63 be
       0.26706725 0.39620978 -0.24611975 -0.22240011
0003a0 87 ff bd bc f5 d0 03 3e 76 fe ae 3e 0a 39 8d bc
       -0.023193134 0.1287268 0.34178513 -0.017239112
0003b0 20 7d d2 3e b1 94 95 be 12 3e fd bc ad 93 88 3e
       0.41111088 -0.29215005 -0.030913386 0.26675168
0003c0 b0 bf ad be 1e 03 5d 3e 69 58 d2 bd ce e3 6c 3e
       -0.33935308 0.2158322 -0.10270769 0.23133776
0003d0 ec ec 84 3d c3 6e 72 3e 3e 27 93 bd 8d 24 1d be
       0.06490502 0.23675065 -0.07185219 -0.15345974
0003e0 90 b5 a8 3e 0e 20 4a 3e 7c db 5f be 90 45 74 3e
       0.3295102 0.1973879 -0.2186107 0.23854661
0003f0 1e 88 96 be 62 73 3e 3e 47 1b 46 be 20 f1 a5 3e
       -0.29400724 0.18598703 -0.19346343 0.32410526

decoder.0.bias f4 [32]
000000 5e df 66 be df a7 c3 3e 25 b7 04 be 22 5e 60 bd
       -0.22546145 0.38214013 -0.12960489 -0.054777272
000010 91 89 8b 3e 75 99 47 3e 07 92 ae bd 7e f0 01 3e
       0.27253392 0.19492133 -0.08523946 0.12689397
000020 c0 cc 87 3e ca b6 10 be 2a 90 aa 3e 3c d8 86 3e
       0.265234 -0.14132228 0.33313113 0.2633685
000030 92 3c d5 3c 34 e7 15 3e a4 5d 18 bb 73 0f a0 be
       0.026029859 0.14638978 -0.0023249174 -0.31261787
000040 88 59 56 3e 4f a4 56 bd be ff 12 be 3f 47 f4 3d
       0.20932591 -0.05240279 -0.1435537 0.119276516
000050 1d e5 06 3e e7 13 81 be 00 66 4e 3e b4 50 61 3e
       0.13173337 -0.25210497 0.20156097 0.22003442
000060 7e bf 4a be 8f 7e a7 3e bb 8d a9 bd b4 52 b4 bd
       -0.19799611 0.32713744 -0.08278986 -0.08804837
000070 92 c7 0e 3e c8 c9 69 3e 04 b4 d5 3d 39 b0 89 be
       0.13943318 0.2283088 0.10434726 -0.2689226

decoder.2.weight f4 [64, 32]
000000 af a9 2a be b1 f6 a9 3d 57 3d f5 bd 2b 0a 5a be
       -0.16666292 0.08299006 -0.1197459 -0.21292941
000010 9c a8 89 3d 9e b8 17 bb 07 ab fa 3d cd 31 5c bd
       0.06721613 -0.0023150812 0.12239652 -0.05375843
000020 71 34 a5 3d c9 26 d3 bd d9 fb 37 be 9c 01 1c bd
       0.08066643 -0.10310132 -0.17967166 -0.038087472
000030 12 60 9f 3d 94 08 c1 bd ec d8 8a 3d ff d0 a6 bc
       0.07781996 -0.09425464 0.06779656 -0.020363329
000040 25 f7 01 be 5e 19 49 bd ec 4d f1 3d 32 ea 9f 3c
       -0.12691934 -0.049096458 0.117824405 0.019520853
000050 b7 78 0c be da 46 60 3d 59 2b 27 3e 9f 0c c4 3b
       -0.13717924 0.05475507 0.1632513 0.00598295
000060 c7 4f 11 3d fb ef 2c 3e 34 cc 23 be 2a 04 aa 3d
       0.035476472 0.1688842 -0.15995866 0.083015755
000070 3c 09 3f be 0c f4 10 bd 5a c0 05 3e 9a d2 1a 3d
       -0.18655866 -0.03538899 0.13061658 0.0377985
000080 e2 0f f2 3c b8 35 ea bd cc 5c af 3d c6 6c 98 bd
       0.02954859 -0.11436027 0.085626215 -0.07442622
000090 42 f8 3c bd da f2 e7 bd ab 94 ca bd 38 bf 24 be
       -0.046135195 -0.11325617 -0.098916374 -0.16088569
0000a0 93 49 2f 3e 63 6c a9 bd 77 d6 27 bd 21 26 6f 3d
       0.1711791 -0.08272626 -0.040976014 0.058385972
0000b0 70 42 52 3e 65 c5 44 bc ea 2b a5 3d 3a 7a 1f 3e
       0.20533156 -0.012009953 0.080650166 0.1557397
0000c0 29 0c 4a 3d f2 bc 5b bc ea d3 3d be 3b 90 c6 3d
       0.049328003 -0.013411747 -0.1853787 0.096954785
0000d0 3e 15 66 3d 12 df 3b 3e c9 eb be bd 07 08 a8 bd
       0.056172602 0.18346813 -0.09322316 -0.08204656
0000e0 9d 6a 4c bd db 78 e9 bd 40 95 82 3b 61 c2 61 3d
       -0.04990636 -0.114000045 0.003985077 0.055117015
0000f0 d8 f7 19 3e 30 e4 53 bd 0c d7 fa bd bf 6f 11 be
       0.15035951 -0.05173129 -0.12248048 -0.14202784
000100 ac 5a bb bd bc 12 1e be 69 76 ef 3d 2c 99 30 3d
       -0.09148154 -0.15436834 0.11692507 0.043114826
000110 b7 84 9f bd 0f 6b 63 bd 99 7b d3 bc 2b 37 b0 3d
       -0.07788985 -0.05552202 -0.025815772 0.086042725
000120 33 79 07 3e b1 e3 5e 3e 4d 8c 56 bd 2c e2 41 be
       0.13229828 0.21766545 -0.052379895 -0.18933934
000130 ea d9 38 3e 66 68 96 3d 30 73 2b 3d 26 05 4c 3e
       0.18051878 0.07344131 0.0418579 0.19923839
000140 77 1d 87 bd 2f 8f e7 bd 6c 0a 09 be 33 e6 6f 3e
       -0.06597417 -0.11306607 -0.13382882 0.23427658
000150 56 a4 13 3e d2 bb 76 3d 0a fe cd 3d 73 75 2b 3e
       0.14418158 0.060237713 0.1005822 0.16744022
000160 47 8e 44 3d 5a 58 ac 3a dc 36 5a 3e 0e 1c 66 3e
       0.04798725 0.0013148889 0.2130999 0.2247164
000170 fc 32 09 be 9d fb a6 3b a3 92 3d 3d e2 77 5a 3d
       -0.13398355 0.0050959126 0.04628242 0.053336985
000180 4b e3 25 be 6c 05 29 bd e5 2a f8 3d 81 14 7f bd
       -0.16199987 -0.041264936 0.121175565 -0.062275413
000190 3c 9a 4a 3c 65 8b 92 3d 3b 0e 68 bc f3 69 ec 3d
       0.012365874 0.07155494 -0.014163549 0.11543646
0001a0 ce 6f 4b bb 3b 7c dc bc e2 51 c9 bd 4d 26 66 bd
       -0.0031041983 -0.026914706 -0.09830071 -0.05618887
0001b0 8f 60 2a bd 46 51 24 be e4 2d 8c bd 36 76 c6 3d
       -0.04159599 -0.16046628 -0.068446904 0.09690516
0001c0 df 33 22 3e 84 6e 25 bd 70 c6 12 3e 4f 59 e7 bb
       0.158401 -0.0403886 0.1433351 -0.007060207
0001d0 c8 c3 2f bd d0 90 84 3c 5c 5c 28 3a ba 39 ed 3d
       -0.04291132 0.016182333 0.0006422454 0.11583276
0001e0 bb d5 2d 3e 4a 0e d0 bc 40 37 b0 bd ff d1 21 bd
       0.16976063 -0.025397439 -0.08604288 -0.03950691
0001f0 2c af cd bd ba 65 23 3e 94 d8 1b be 66 1c 00 bd
       -0.10043177 0.15956774 -0.15219337 -0.031277083
000200 cd 78 82 bc 41 68 80 3c fc cf 2a be 9a ea 41 3e
       -0.015926743 0.015674712 -0.16680902 0.1893715
000210 da 34 a4 3d 8d eb cc 3c 86 ab 81 3d cc e8 bf bc
       0.08017893 0.025014663 0.063315436 -0.023426436
000220 fc 69 46 3d 51 3a d0 bd f5 66 e5 3d 5e 3e 02 ba
       0.04844092 -0.10167373 0.11201278 -0.00049684
000230 45 cf 12 bc 9b cd a1 bd 26 e8 3d bd a8 5a d6 bd
       -0.00896055 -0.07900544 -0.046363972 -0.1046651
000240 d5 6f b8 3a 73 f1 e2 bd d4 04 92 3d 36 4f eb 3d
       0.0014071414 -0.11081209 0.07129827 0.11489718
000250 18 4b 02 bb ef 34 18 3e 90 72 df 3d 4f 68 40 bc
       -0.0019881185 0.14863943 0.10910523 -0.011743619
000260 4e d3 f5 3d af 29 fb bc c2 56 93 bd ad b3 71 3d
       0.12003194 -0.030659525 -0.07194282 0.059009243
000270 f6 44 58 bd f4 a4 02 be 8e 2d 3f 3e 2d 91 1b 3d
       -0.05280014 -0.12758237 0.18669721 0.037980247
000280 15 60 35 be 3f 4d 13 3e 17 2e 0b bb ae 86 40 3c
       -0.17712434 0.14384936 -0.0021237188 0.01175086
000290 21 89 d0 bd 78 8f 73 bc 8a 57 2d be 62 67 38 3d
       -0.10182405 -0.014865749 -0.16927925 0.04502047
0002a0 b6 82 8c bd 06 1a 9e bd a1 de 5f bc 71 b1 2a bd
       -0.06860869 -0.07719807 -0.013663919 -0.041673128
0002b0 1e fb 2b be 73 95 80 bd e0 cf 93 3d 65 c2 e0 bd
       -0.16795012 -0.06278505 0.072173834 -0.10974578
0002c0 bf f4 c5 3d 52 b1 2c bd 21 f0 e2 3d c0 94 30 bd
       0.09665822 -0.042161293 0.11080957 -0.04311061
0002d0 2b fa 94 bd b0 04 81 bd 0e 79 0e 3e 52 ab 32 be
       -0.07274278 -0.06299722 0.13913366 -0.17448166
0002e0 63 7b 03 be 67 e0 d2 bd 7b 37 ca bc 2f dd 83 bd
       -0.12840037 -0.102967076 -0.024684658 -0.06438672
0002f0 84 68 a9 3d 0f ad ca bb 9e 6d 33 3b 46 5f 7e 3d
       0.08271888 -0.006185181 0.002737857 0.06210258
000300 6f d1 b1 3d 6c de ed bd 5b a0 af 3d db df a1 3c
       0.086825244 -0.11614689 0.08575507 0.019760063
000310 e8 95 d2 bc 1c 7c e9 3c b1 71 43 bd 03 41 7f 3d
       -0.025706246 0.028501563 -0.047715846 0.06231786
000320 52 c9 12 3d 68 4a e6 bd 7d 36 15 be a2 8f c6 bd
       0.035836525 -0.112446606 -0.14571567 -0.096953645
000330 ed 49 0c be b5 43 f2 bd cd 7e c1 bd 10 21 15 be
       -0.13700075 -0.1182932 -0.094480135 -0.14563394
000340 0d 3a cc 3d 86 15 33 bc 7b d2 a3 bd 6b 9e e5 bd
       0.0997201 -0.010930425 -0.0799913 -0.112118565
000350 6e 8f 17 be ea b2 de bd 6a cd 54 3d cd 66 9e 3d
       -0.14800808 -0.10873969 0.05195371 0.077344514
000360 b4 8a de 3d df 6e 0c be 00 62 20 be ae 02 6e bd
       0.10866299 -0.13714169 -0.15662384 -0.058108024
000370 a6 db 51 bd 28 cc 76 3c b3 43 26 bc e5 ae 17 be
       -0.051234864 0.015063323 -0.010147977 -0.1481281
000380 91 12 2f 3e 4a 01 2e 3e cd c7 03 bd 08 7c 7b 3d
       0.17096926 0.16992679 -0.032172967 0.061397582
000390 1f 18 5b 3e d0 10 04 be f5 f0 54 3e 30 0e 59 3e
       0.2139592 -0.12897038 0.20795043 0.21196818
0003a0 db ea 53 bc 93 21 a5 3d a2 4f 4c 3e 1f 76 22 3e
       -0.012934412 0.080630444 0.19952253 0.15865372
0003b0 db f7 56 bd 10 e4 09 3e be 90 a8 3d 9f 8c 03 bd
       -0.052482467 0.13465905 0.082307324 -0.03211653
0003c0 91 cf 09 3e 1a c6 92 bd 16 49 28 3e e4 b2 2c be
       0.13458087 -0.07166691 0.1643413 -0.16865116
0003d0 ad a0 e5 3d 1b 80 6e bd a3 e5 09 3e 06 98 a8 3c
       0.11212287 -0.05822764 0.13466506 0.020580303
0003e0 4a f7 f9 bc 55 fc fe 3d 87 53 a1 bd ef 3a 9e bd
       -0.030513424 0.12450472 -0.0787726 -0.077260844
0003f0 95 fa 9d 3d 5d 77 17 be ea 8a 1f 3e a4 ed cb bd
       0.0771381 -0.14791627 0.15580335 -0.09957436

decoder.2.bias f4 [64]
000000 3a da 22 be ed b5 e9 3d e5 1c 38 3c 67 4f fe bd
       -0.1590356 0.11411653 0.011237358 -0.124174885
000010 33 7c fc 3b fa 7e 12 be 6e 7b 2c be 7d 8e 8c 3c
       0.0077052354 -0.1430625 -0.1684396 0.017157787
000020 d5 f4 7d bd f5 44 ec bd 67 b7 79 3d 1a ea e1 3c
       -0.06200107 -0.1153659 0.06096592 0.027577449
000030 97 06 83 3a 3f b2 4c 3e 23 f7 93 bd 4e 89 02 3e
       0.0009996471 0.1998987 -0.07224872 0.1274769
000040 c5 b7 0c 3e d8 9c 0d bc ab ca 5c be d9 07 32 be
       0.13741978 -0.0086433515 -0.21561687 -0.17385806
000050 92 21 2a 3e 75 56 ef 3d 8f d5 52 bd 04 8b e7 3c
       0.16614369 0.11686412 -0.051473197 0.02826453
000060 c6 42 e3 bd 5d 26 9f bd 84 dd da 3c 40 9e af bd
       -0.110967204 -0.07770989 0.026716955 -0.08575106
000070 f4 01 29 3e d9 0d 09 3e 64 19 7b bc 65 69 a5 3c
       0.16504651 0.13384189 -0.015325878 0.020191858
000080 40 86 07 3d ea 8b 23 3e 10 2b 23 3d 46 c9 d4 bd
       0.033087015 0.15971342 0.03983599 -0.10389952
000090 ed 7f b2 3d 8c 5a 10 be c1 43 92 3d 19 a1 ef 3d
       0.08715806 -0.14097041 0.07141829 0.11700649
0000a0 c0 aa 22 be 64 7c ff bc 2d 23 ff 3c 8b 79 8d 3d
       -0.15885448 -0.031187244 0.031144703 0.06907948
0000b0 73 46 00 3d 6d 8c 1d 3e 34 57 af 3d 08 29 1f 3e
       0.031317186 0.153856 0.085615546 0.15542996
0000c0 3e dc b4 bd 7c 9e e3 bd f4 b2 ca bd 4f 30 25 3d
       -0.0883107 -0.11114213 -0.09897414 0.040329274
0000d0 d7 4d 56 3e b2 6f 9c 3d 07 6f 43 be 8c e6 92 3d
       0.20928131 0.07638492 -0.19085322 0.071728796
0000e0 06 c1 6c 3d eb bc 7b 3d ed ee 2f bd b7 27 84 bd
       0.05780127 0.061459463 -0.042952467 -0.064528875
0000f0 f7 19 95 bd e0 08 3b 3e 58 3a 0f be 48 85 6b bd
       -0.07280343 0.18265104 -0.139871 -0.057500154
