models/ae.pt (torch, 27797 bytes, 14 tensors)

encoder.0.weight f4 [64, 6]
00000000: c366 903e 22ca 83be 8d49 b53d 26e4 bdbe
00000010: 694d a03d ac57 b0be 28fa cdbe 2f75 cd3e
00000020: 8fb3 343d 98fb adbd d980 fc3d df8e 113d
00000030: defc eebd 308a 9a3e 4998 4e3e 9223 003e
00000040: f545 8abe 014c 4fbe 8c48 373e cced 41bd
00000050: 1600 01be ab94 a6bd 0a7d 133e e192 36be
00000060: ed63 c8be 701b cdbe bc0f 0c3d 93ac 9dbe
00000070: 1fe3 8abe c3a4 5cbe 6e5f b6be 9f9f 383e
00000080: c6d2 c2be 11a6 133e e160 cbbd 0f7b 14be
00000090: fdc2 003e 0880 b73e c8d3 ab3e 1301 c63e
000000a0: ae13 a33e 3c2d 7bbd 9934 b9bc 2934 163e
000000b0: a6b8 98be ba5c 4dbd 3db6 c7bd 2df9 46be
000000c0: 049f d5bd a478 b1be 7914 6dbe 1390 c9be
000000d0: b7db 063e 7c7f 383d 7aad bd3e 999c 183d
000000e0: a32d b7be f610 e9bd 7fc2 35bd 5220 57be
000000f0: ebdd 16bd 77f6 a83e ab59 bc3e 6cc3 d73e
00000100: 8add 3cbe da44 433e fcb1 36be 8c72 90bd
00000110: e940 73be aaaf 57be 275a 3e3e 2f8a 24be
00000120: 8243 c93e ef15 0c3e 4fdd 153e afea 2c3e
00000130: bfc8 c43d f76d febd a5da af3d 0fed e5bd
00000140: 98ad 8b3e 1f22 21be 8cfc af3e 06d6 bdbe
00000150: 28f1 66bc 274d cf3e 830e 693e 7e23 c4bd
00000160: cbb6 d73e 9220 ed3d b062 bd3e a48b 4dbe
00000170: f4e4 aabe 2488 d93d 59f4 9d3e 6a12 033d
00000180: 2cfd 02be 4d2b ccbe eeb6 603e 2272 a53e
00000190: eac8 d5bd 0e0a 1abe aec2 6c3d 72e3 ba3d
000001a0: 75e4 a4be 0006 d23e 8762 7f3e 5361 9f3d
000001b0: 657b 463e 705d b2bd 6bf1 01be a7c8 60be
000001c0: fb36 c7be bd7d d4be fcb0 3cbe b0f4 263e
000001d0: eb61 903d 8ae2 47bd aafe 9dbe 63da 453e
000001e0: f61e 04be 9a54 41be c556 be3d b445 0c3e
000001f0: d218 543e a0e2 6a3e 3d1c ad3e 254c d7be
00000200: 25ec a13e 67f6 78be 73d7 733e 1ca6 6e3e
00000210: 611d 743e 841c 80be 8364 c1bd ad5c cb3e
00000220: 24b4 093d 8a14 88be 5926 c1bc 32c3 d4be
00000230: 0273 70be 9811 93be 945a 29be c67a 90be
00000240: 118a 81bd 37ab 50be 8dab 26be cb0e a4bd
00000250: b195 03bc 3a9b b3be 0d5c 8fbe bf1e 933e
00000260: 0f72 0fbe 0827 9d3e de5a a73e b6df 883e
00000270: c516 353e a72b a33e d980 593c 596d 2ebe
00000280: fa2a 823e 5cba c03e 8c32 7d3e aafc 273e
00000290: f02c b7be d084 63be 3714 cbbe 709d e9bd
000002a0: baec 993e c4b9 acbe fc92 5abe b271 bf3e
000002b0: b608 2bbe 53b4 0a3d d726 a2bd 8c6b d53d
000002c0: 7800 febc 0092 913e b7e3 cbbd 02ff a5be
000002d0: aedd dc3d 62ab 4c3e ff55 6d3e 9575 153e
000002e0: fe56 283c 00c3 84be 634c 17bd e37b 5ebe
000002f0: 7827 e53e 84dd 1abe 416d e7bd edfe 213d
00000300: b319 803e 2c0a 933e 16cd b4be f939 963e
00000310: e52e d03d 5431 623c f4f1 a63e 12e1 6a3e
00000320: 9aa0 02be f010 58bd 1f16 fb3d d9df 9c3d
00000330: 3a63 96bc 3cee d3bd 4b91 f3bd 3aff e6bd
00000340: 0956 953d a06b 03be ecad c63e 9186 973e
00000350: 3428 0bbd c24b a8bd 4503 b33e 0e0d 15be
00000360: 2991 af3c 26b1 ed3e daca 103e 211b 17be
00000370: eedf b1bd 9e0d 4dbe 9592 003e 4100 8bbe
00000380: 0a98 44bd 12df 31ba f723 413e 5787 44bd
00000390: 6c84 b2be 6062 1a3e 3d19 d0be a210 37bd
000003a0: 7edc 903e e85d 493e 0341 29be 681b 55be
000003b0: 2cfd 1abe a4bb b6be b4af 16be 9efc a2be
000003c0: 47d6 5cbe 05d7 1b3e 7514 aabe 551a 62be
000003d0: 3ffa c23e 2ee0 853d db94 52bc 5886 74bd
000003e0: a4cc 8d3e ed73 25be 86ad 8e3d 29a1 e23d
000003f0: b4a3 ad3e 5c02 b7be e19b 89be 4a9f e4be
0.282034 -0.25740153 0.08851919 -0.37088126 0.07827265 -0.34441888 -0.40229917 0.40128466
0.044116553 -0.08495253 0.12329263 0.035536643 -0.11669324 0.30183554 0.2017528 0.12513569
-0.27006498 -0.20243837 0.17898768 -0.04734592 -0.12597689 -0.08133825 0.14403167 -0.17829467
-0.39138737 -0.40059996 0.034194693 -0.30795726 -0.27126405 -0.21547227 -0.35619682 0.1802964
-0.38051432 0.14418818 -0.099305876 -0.14500068 0.12574382 0.35839868 0.33560014 0.38672695
0.31850952 -0.061322436 -0.022608088 0.14668335 -0.29828376 -0.05013726 -0.09751556 -0.1943099
-0.104307204 -0.34662354 -0.23152341 -0.39367732 0.13169752 0.045043454 0.37046415 0.03725872
-0.35777006 -0.11380188 -0.04437494 -0.21008423 -0.03683273 0.33000538 0.3678716 0.42141283
-0.18443885 0.19069234 -0.17841333 -0.07053098 -0.2375523 -0.21063104 0.18589078 -0.16068338
0.39309317 0.13680242 0.14635204 0.168864 0.09608602 -0.12423318 0.08586625 -0.11226856
0.2728088 -0.15735672 0.34372365 -0.3707735 -0.014095582 0.4048855 0.22759442 -0.09577082
0.42131647 0.11578478 0.36989355 -0.200728 -0.33377802 0.1062167 0.30850485 0.031999983
-0.1279189 -0.39876786 0.21944782 0.3231364 -0.10438712 -0.15042898 0.05780285 0.09125413
-0.3220555 0.41020203 0.24939929 0.07782235 0.19383009 -0.08709228 -0.1268975 -0.21951543
-0.38909134 -0.4150218 -0.18426889 0.16304278 0.07049926 -0.04880003 -0.30858356 0.19321589
-0.12902436 -0.18879929 0.09293894 0.13698465 0.20712593 0.22938013 0.33810607 -0.4205028
0.31625476 -0.24312745 0.23812656 0.23305553 0.23839332 -0.25021756 -0.09442999 0.39719144
0.03361906 -0.2657817 -0.023577856 -0.41555172 -0.23481372 -0.2872436 -0.16538459 -0.2821867
-0.06325162 -0.20377813 -0.16276379 -0.08010634 -0.008031295 -0.35079366 -0.27999917 0.28734395
-0.14008354 0.3069384 0.32686514 0.26733178 0.17684467 0.31869242 0.013275349 -0.170339
0.25423414 0.3764218 0.24726313 0.16404977 -0.35776472 -0.22218633 -0.3966386 -0.11406982
0.3006342 -0.33735478 -0.21345133 0.3739143 -0.16702542 0.033863377 -0.07917564 0.104209036
-0.031006083 0.28431702 -0.099555425 -0.32421118 0.107844695 0.19987252 0.23177336 0.14595635
0.010274647 -0.25930023 -0.036938082 -0.21726947 0.44756675 -0.15123564 -0.113001354 0.039549757
0.25019607 0.28718698 -0.35312718 0.29341105 0.101651944 0.013805706 0.3260647 0.2293742
-0.12756577 -0.052750528 0.12260079 0.07659883 -0.018357862 -0.10348174 -0.11892947 -0.11279149
0.072918005 -0.12834024 0.38804567 0.29594854 -0.033973888 -0.08217575 0.34963432 -0.14555761
0.021431522 0.46424216 0.14139882 -0.14756443 -0.08685289 -0.20024726 0.12555917 -0.2714863
-0.04799656 -0.0006785254 0.18861376 -0.047980633 -0.34866655 0.1507659 -0.40644255 -0.044693597
0.28293222 0.19664729 -0.16528706 -0.20811236 -0.1513564 -0.35690033 -0.14715463 -0.31833357
-0.21566115 0.15218742 -0.33218732 -0.22080357 0.38081548 0.065368995 -0.012852873 -0.059698433
0.2769519 -0.16157503 0.06966691 0.11065895 0.33913958 -0.35743988 -0.2687674 -0.44652778

encoder.0.bias f4 [64]
00000000: b173 ce3e 581a 7e3e ab60 6fbe 9a26 92be
00000010: 92d9 05bc fcbc 9d3d 2080 28be d8f7 c53e
00000020: 5e8d aa3e 5dc5 65be 13f0 2a3b d4a9 5a3c
00000030: 713c 603e 8ef3 0fbe 7326 463d 823a de3e
00000040: efb6 a33e 7450 943e 0ecc e0bc fb3c c8be
00000050: 23cf f83d 7684 c4be 7ab4 e83d 6630 ddbd
00000060: 7172 3abe bcae ddbe 3fa6 4e3d 722d b3be
00000070: be19 3f3e be8c 68be 3bb3 933e e617 013e
00000080: 9934 b7be 2ff8 dc3e 24e9 9d3e ddd1 25be
00000090: 4288 b33e 5f36 cb3e c780 7dbd 3f01 c43e
000000a0: c09f cdbe 6825 d8bd 9393 af3e fecc 1bbe
000000b0: 3180 8ebe 0317 803e a2df 293d 4f69 c9bd
000000c0: bfc9 823d 9e5a 41be 337b a73e fa8d 033e
000000d0: 7247 cd3e ce67 cd3e 8b95 78be 3c02 e5bb
000000e0: 784a 1e3e 7c44 9cbe a512 9e3d 84e6 e9bd
000000f0: 8580 363c 6300 d53e f83a a6be e20e c23e
0.4032264 0.24814737 -0.2337672 -0.28545076 -0.008169549 0.077020615 -0.16455126 0.38665652
0.3331098 -0.2243857 0.0026083037 0.013346154 0.21898057 -0.14057752 0.04837651 0.43404013
0.31975505 0.2896763 -0.02744105 -0.39109024 0.12148883 -0.3838231 0.11362548 -0.10800247
-0.18207718 -0.43297374 0.050451513 -0.3499561 0.18662164 -0.22709939 0.2884768 0.12606773
-0.35782316 0.431581 0.30841935 -0.16193338 0.35064894 0.3968992 -0.06189039 0.382822
-0.40160942 -0.1055401 0.34292278 -0.15214917 -0.27832177 0.25017557 0.04147304 -0.09834539
0.06386136 -0.18882224 0.3271118 0.12847129 0.4009357 0.4011826 -0.24275796 -0.0069887917
0.15458095 -0.30521 0.077184 -0.114209205 0.01113904 0.41601858 -0.32466865 0.3790198

encoder.2.weight f4 [32, 64]
00000000: ad1f c3bd 773d 293c a025 66bd f4f3 cf3d
00000010: c686 5a3c 3480 313d b9fa e63d 262a 3ebd
00000020: df00 15bd c421 c53d 8063 6a3d a22e 4b3d
00000030: 0cc8 3e3c 0171 20bd 35dc b5bd cf52 003e
00000040: ce10 e1bd de48 1ebd 20aa cc3b b4ff 4bbd
00000050: 77c6 eebc 3f3b e0bd 8aa0 dc3d 7b6a 4bbc
00000060: d6ec f2bd 8573 36bc 6218 a9bd 5e0e fabd
00000070: c71e a13d 5d88 b4bd f186 98bd dbe6 f53d
00000080: a117 103d 500c 75bd 0f72 f43c 8253 adbd
00000090: 5673 bebd 6fea 8a3d ee4a d8bc b0be e0bd
000000a0: 0858 38bd 870d 1c3d fc9a e5b9 ef39 7c3d
000000b0: ef4f be3d fa1c b3bd 4b1b f53d 6730 88bd
000000c0: f7fe 273d 85b1 903b 430a e83c d5bc 833c
000000d0: 8e61 013e 5ef8 7ebd 4a82 c0bd eddb 043d
000000e0: 193f 923d 92a5 af3d 875b 08be 58f8 723d
000000f0: 1b4d edbc d49b e33c 4cb2 5dbd 9e84 e53d
00000100: b47d fb3d 061b 263d 7371 ae3d 23c8 b43d
00000110: 5576 613c 4819 e8bd 0a96 263d 7e3a 2d3c
00000120: c4ba b63b 2e72 2abd 60da 73bd e8e0 01ba
00000130: 337e 3a3c 3124 753b fb93 a1bc 94ff c53d
00000140: 4cbe acbd ae9c ad3c b21e fd3b c6b3 c4bd
00000150: d5ed c6bd 98c6 b53d b5f1 4a3c 8298 b6bd
00000160: d744 c43d 32be c4bd 99ba 153d 4bb6 b2bd
00000170: 6835 4bbc 9495 34bd c8d9 53bd e5fb 6d3d
00000180: 41c0 a7bc 8284 9abc 707c c13d 4502 9abd
00000190: 3ba0 80bd 92eb 99bd 6e7c cf3d ca0b 773d
000001a0: 02c7 f0bd 3d91 2ebd e2a8 ea3d daa8 f6bd
000001b0: 5cf1 84bd 7785 c13d 54bb b93d 840a d33d
000001c0: 2db2 833b fc57 cdbd be75 753d 2292 bd3b
000001d0: 29dd 603d f19c 9f3d f74f 643d 1f32 a8bd
000001e0: 5bd9 afbd 1580 573d 046a 00be c3b1 4fbd
000001f0: 95f8 0b3e a585 b1bd 9ee0 c83c 40b8 1d3e
00000200: 6e57 973d 0477 863d 8c56 a9bd a8a5 6ebd
00000210: c092 0bbc 0494 4a3d 225c d83d 4090 15bb
00000220: 70db 3abd 2c1c bebd 3585 933d e0a7 8f3b
00000230: 1a5c 87bd 38bd f6bd 6c16 6dbd 6d29 c53d
00000240: e675 e93d d33f 05be 468e e4bd c4cb 80bd
00000250: 7d6f e63d aa87 81bc 5c78 943d f043 bcbd
00000260: a840 c73c bb83 033c f018 2f3c 2804 cd3d
00000270: 18d7 88bb ecb8 4d3d 2102 febd ea8c e8bd
00000280: 61cb 843d c40c 6abd 0ed5 7bbd 1c30 6ebd
00000290: 16a4 f3bd 4d7d b4bd 780d c63d 3291 a6bd
000002a0: 40bf 3ebd c0c8 babb e4c0 41bd ad35 203d
000002b0: c1c9 be3d f16b 64bc 4853 72bd f058 e23d
000002c0: 4c99 e8bd 78d1 91bc 83b2 dcbd 3e0e 513d
000002d0: 3092 04be 29a5 4bbc e414 54bd 13b6 0ebd
000002e0: caa7 64bc d4e1 41bd bafb 883d 28b4 31bd
000002f0: 38c6 ac3c 1806 abbc 5e3b 8cbd 1554 a4bd
00000300: 79be 85bd b3e5 9bbd e522 113d e217 ef3d
00000310: 7a03 39bc 3226 15be 2eb2 c23b 124c d53c
00000320: ca3d 033d 5202 cc3d 6740 efbd 08a2 c9bd
00000330: 6363 62bd a18b fbbd c9cd 7e3b f5f6 81bd
00000340: 10b3 b13d 3db0 ce3d 1ad7 7b3d df74 afbc
00000350: 3d61 09bd ad55 bfbc 1559 49bd 9ca8 a2bd
00000360: 36a0 0cbe f094 073d 9646 08be f156 75bc
00000370: 6283 003d 30e1 64bc cd36 9e3c f6a6 96bd
00000380: 2caf 8f3d 03cb 9b3d 6c8f e1bd 247e ffbd
00000390: 5205 563d 7f68 c03c 3c24 d33c 38bc 0cbe
000003a0: d25e 33bb 94e4 1a3c e42f a73c 4381 c13d
000003b0: 0742 893d dfe1 c4bd fada b03c f654 5dbd
000003c0: 97f5 953a f177 383b 340c 12be 85df 9d3d
000003d0: 94eb d4bd b7b3 6e3d c203 9bbd 1a1f b83d
000003e0: 2639 0dbd e6b2 88bd d26c ffbd 68b4 a7bd
000003f0: 04b5 95bc da93 ac3d 4fb7 45bd 6bc2 943d
-0.09527526 0.010329596 -0.056188226 0.10153952 0.013337797 0.043335155 0.1127829 -0.046426915
-0.036377784 0.09625581 0.057223797 0.04960502 0.011644375 -0.03917027 -0.08879892 0.12531589
-0.10989533 -0.03864371 0.0062458664 -0.049804404 -0.02914737 -0.109488 0.10772808 -0.012415524
-0.11861579 -0.01113594 -0.08256604 -0.122097716 0.078671984 -0.08815072 -0.07447613 0.12006923
0.035178784 -0.059826195 0.029839544 -0.084631935 -0.09299342 0.06782996 -0.026402917 -0.10973871
-0.04500583 0.03809884 -0.00043793756 0.061578687 0.0929259 -0.08745761 0.11968096 -0.06649857
0.041014638 0.004415693 0.028325206 0.016081253 0.1263487 -0.06224858 -0.09399851 0.0324363
0.07140941 0.08576502 -0.13316165 0.05931887 -0.02896743 0.027784266 -0.054125115 0.11206935
0.12279835 0.040553115 0.085177325 0.088272355 0.013761123 -0.11332947 0.040670432 0.010573028
0.0055764634 -0.041612796 -0.05953443 -0.0004954473 0.011382627 0.0037405605 -0.019723883 0.09667888
-0.08434734 0.021192875 0.0077246064 -0.096046016 -0.097133316 0.088757694 0.012386729 -0.08915807
0.09583443 -0.096065894 0.036554907 -0.08726176 -0.01240287 -0.04408796 -0.051721364 0.058101553
-0.020477416 -0.018862013 0.09447563 -0.07519964 -0.062805615 -0.075156346 0.10131155 0.060313977
-0.11756708 -0.04261898 0.11457993 -0.12043925 -0.06491348 0.094492845 0.09068933 0.1030474
0.004019043 -0.10026547 0.05992674 0.0057852427 0.054898415 0.07793606 0.055740323 -0.08212685
-0.08586379 0.052612383 -0.12540442 -0.050706636 0.13669045 -0.08668069 0.024521168 0.15402317
0.07389723 0.06565669 -0.08268461 -0.05826345 -0.008518875 0.049457565 0.10564448 -0.0022821575
-0.04561943 -0.09282717 0.072031416 0.004384026 -0.06609364 -0.12047809 -0.05788271 0.09627042
0.113994405 -0.13012628 -0.11159949 -0.06288865 0.112517335 -0.01581176 0.07249519 -0.091926455
0.024322823 0.008027012 0.010687098 0.10010558 -0.004176032 0.050225183 -0.1240275 -0.11355002
0.06484104 -0.05714108 -0.06148248 -0.05815135 -0.11896531 -0.08812962 0.09670538 -0.081331626
-0.04656911 -0.005700201 -0.047303095 0.03911369 0.09315825 -0.013941751 -0.059161454 0.1105212
-0.11357364 -0.017800078 -0.10776236 0.051038973 -0.12946391 -0.012429514 -0.051777735 -0.03484161
-0.01395602 -0.047334507 0.06688638 -0.0433847 0.021090612 -0.02087693 -0.06847261 -0.0802385
-0.065304704 -0.07612171 0.03543367 0.11674477 -0.011292333 -0.14565352 0.005941651 0.02603725
0.03204135 0.0996138 -0.11682206 -0.09845358 -0.055270564 -0.122824915 0.0038879982 -0.063459314
0.086767316 0.100922085 0.061484434 -0.021418033 -0.03354 -0.023356283 -0.04915722 -0.07942316
-0.1373299 0.033101022 -0.13308176 -0.014974342 0.031375296 -0.0139697045 0.01931324 -0.07356064
0.07015833 0.07607081 -0.11013684 -0.12475231 0.052251168 0.023487328 0.025774114 -0.13743675
-0.002736975 0.009453911 0.020408578 0.09448483 0.06702047 -0.09613394 0.021588791 -0.054036103
0.0011440989 0.0028147663 -0.14262468 0.077086486 -0.103964955 0.05827686 -0.07569076 0.08990307
-0.03447833 -0.06674747 -0.12471928 -0.08188707 -0.018274792 0.08426638 -0.04827052 0.07263645

encoder.2.bias f4 [32]
00000000: c12f c9bd d086 2cbd fb65 9a3b f6e4 0c3d
00000010: e411 e73c 9454 7dbd 22c4 8a3d bbcb 9b3d
00000020: 9e20 dbbd 3bc8 e33d 3879 55bc fdbc a4bd
00000030: f774 7ebc 3c29 aabd c435 fa3a 6f09 893c
00000040: f216 13bc 7105 a4bd 620e d7bd 4205 f1bd
00000050: 3f47 eebd a681 9a3d 600a 943d db37 51bd
00000060: 4c67 e13d 0698 363d 726e acbd 6f24 cdbd
00000070: 70e3 d4ba b3bc cc3d 140c cc3d 078e e33d
-0.098235615 -0.042120755 0.004711864 0.03439804 0.028206773 -0.061848238 0.067756906 0.07607218
-0.106995806 0.11122175 -0.013029389 -0.08043859 -0.015530816 -0.08308646 0.001908951 0.016728131
-0.008977639 -0.0800885 -0.1050079 -0.11768581 -0.11634683 0.0754426 0.072285414 -0.05107866
0.110060304 0.044578575 -0.08419503 -0.10016715 -0.0016242098 0.09996929 0.09963241 0.11111074

mu.weight f4 [8, 32]
00000000: 763c 9b3d 244c 86bd 1872 24be 01f1 d83b
00000010: 201b 553d b070 833d bc7a ecbd d4b3 903d
00000020: ea6c 09be 715f 2a3e 6a01 a7bd d2e7 283e
00000030: 4760 a5bc f54d 53bd b2d7 d23d 3837 c93c
00000040: 5702 26be 0366 1cbd 01e5 38be 7781 ef3d
00000050: 902e d63d 0c71 7cbd 0f9b 0a3e 3af4 11be
00000060: 7219 a6bd 840d f73d 705d 343e a733 06be
00000070: 7caa 27be c87a c3bd 8eb3 28bd c693 6cbd
00000080: 1ec2 ce3d 8893 8fbd 20d4 6e3d 2278 823c
00000090: 56df fbbd cc6b 9c3d f8bf 56bd 5d54 ae3d
000000a0: aecf 22bd a8c3 4fbd c7ef 263e 37a6 e9bc
000000b0: f184 9b3d f159 4d3c 821c 933d 048d 7cbd
000000c0: ac14 bfbc c6ab a73d d678 963c a0be 6c3d
000000d0: e53d 90bd 8e20 dabc e738 51bd 7c84 363e
000000e0: ec0b 4cbc 4c3d d4bb 17b5 993d 6d3a cabd
000000f0: bd65 bdbd 73eb 1d3e ad4e 3d3e 2a47 ecbc
00000100: 59a5 8ebd f1ef ac3d 18db 66bd cd65 033e
00000110: 848a 2fbe 0174 d5bd f362 d7bd 5279 f6bd
00000120: 57ab 2d3b 4f31 0f3e d435 023e 1ea1 2e3c
00000130: 3473 903b e6d1 d5bd ea2e 283e 8c98 0d3d
00000140: b604 d4bd 1a46 c0bc 7ceb 803d c2e2 b9bd
00000150: 9410 103e a60c 363e c609 7ebd 07c1 073c
00000160: 8d88 a7bd bdfa e9bd b96a 0bbe b867 583e
00000170: e5db 493e 7aa5 7b3b 7386 0ebd b966 c6bd
00000180: 67ec a63d da34 3ebe 34f9 16be 30ba d03d
00000190: 2d77 97bd 4768 bfbd ae21 97bc 966f 02bd
000001a0: 6e58 ec3d 2414 e33d 7d7b 903a 81bf 533d
000001b0: aed9 98bd d861 afbd 0220 e9bd ba02 3a3d
000001c0: 8315 383c bcac 8e3d 15b9 c83d 1b32 8a3d
000001d0: 0d25 38bd 476f 81bd 1a8c f9bc 42d5 f83d
000001e0: 79ee 473d ab70 9bbd f95c 1abe 7f44 e03d
000001f0: d726 0b3e 1edc 3abd bc5e 5a3d 9d87 1cbd
00000200: 1e4b 213e dec8 02be 1297 f23d da3a 8e3c
00000210: 54c0 26bd fd81 21be 7daf 86bc b07c de3d
00000220: 0be7 06be f8ed 1cbe bb34 dc3d 7caa 46be
00000230: 8a44 f03d 3eea 693d 981d 0a3e ba02 9b3c
00000240: 5cf3 0c3e a832 4d3d 020d 5ebd 0ea5 283e
00000250: 00b2 b13d 2956 f23d ff1a d43b 5a8d aabc
00000260: b1e9 5fbe 9f8b 34bd 58fe bebd 37ce 3f3e
00000270: ca6c 8c3c 5a33 0fbe 1a34 82bc 2426 9dbc
00000280: 356e 4bbd 1f63 353e 3fae 0abe 1a79 0cbe
00000290: 20db d23d 5aa7 ba3d 8aca 013d 81ec 23be
000002a0: d37e 7bbd b2fd c7bd e879 98bd ab59 21bd
000002b0: b27a 3abe edaa debc 9824 9cbc 04b8 83bc
000002c0: 6d82 fe3d db6e 2abd 0421 2d3e 9e2e 0abe
000002d0: 2d55 31be d17d 2dbe 1c0c 563e b6f3 2d3e
000002e0: e522 493e 194c 9e3d 73ad 083e ef43 963c
000002f0: a0e8 40be 1d04 003e 4baf 2bbd e3cc 363d
00000300: b84d 383d c129 bfbd 56de a73b 2de2 d8bc
00000310: c260 483d d70e 233c 81b3 e4bd 0274 06be
00000320: d7a8 e43d fcdf 183d 887f 563d eb5f 4bbc
00000330: fdc2 8e3d 9cd5 fd3d 8214 86bd 5f53 c8bd
00000340: 5b6d f83d a8af 703c 0e0c 85bd ea58 98bd
00000350: 4653 24bd d810 3cbe 9f78 e83d 8a5c 18be
00000360: 3a76 04bd 80ee 6dbd 9f86 21be 14e8 2abe
00000370: 9b66 23bd dd40 15be eb48 f33d 3326 013d
00000380: 1a4d 40be be3d 813d a620 a6bd a8df 0f3e
00000390: c68c c63d 5cd0 f03d 7240 0a3e dd35 00be
000003a0: 881a e73d 6d0e 09be 8a40 343d 6c81 8e3d
000003b0: 8c1f a93d bbb5 8ebd 081a e6bd c1ab 34be
000003c0: dab0 a03d c7ce f2bd 4d26 5abd f2e2 4e3c
000003d0: 3889 953b 3b9b 65bd 5488 a53c 6839 febd
000003e0: e4f1 023d 970f 1d3e 8b0f 89bd b0ac 3dbe
000003f0: 07ef 773d 7fd9 0b3e f2de e53c b3a9 0a3e
0.075798914 -0.065574914 -0.16059148 0.006620527 0.05202782 0.06417978 -0.11546847 0.070655495
-0.13420454 0.1663797 -0.081545666 0.16494682 -0.02018751 -0.051588017 0.10295047 0.024562463
-0.1621183 -0.038183223 -0.18056108 0.11694615 0.104581 -0.061631247 0.13535713 -0.14253321
-0.08110322 0.12063125 0.17613769 -0.13105641 -0.16373628 -0.09544903 -0.04118686 -0.057758115
0.10095619 -0.07010561 0.058307767 0.015926424 -0.12298457 0.07637748 -0.05242917 0.08512185
-0.03974884 -0.0507237 0.16302405 -0.02852164 0.07593716 0.012533651 0.07183172 -0.06165792
-0.023325287 0.0818706 0.018368166 0.05779898 -0.070430554 -0.026626851 -0.051079657 0.17823976
-0.012454014 -0.0064770337 0.07505243 -0.09874425 -0.09247921 0.15421848 0.18487044 -0.028842527
-0.06965131 0.08444203 -0.056361288 0.12831803 -0.17142683 -0.104225166 -0.1051692 -0.12034859
0.0026499832 0.13983653 0.12715846 0.0106585305 0.0044082645 -0.104404256 0.16424146 0.03456931
-0.10352461 -0.023470927 0.06294915 -0.09076454 0.14068824 0.17778262 -0.06202104 0.008285767
-0.08180342 -0.11424778 -0.1361493 0.21133316 0.1971279 0.0038398192 -0.03479619 -0.096875615
0.08150559 -0.18574849 -0.14743501 0.101917624 -0.07395778 -0.09346061 -0.018448677 -0.031844698
0.11540304 0.11087826 0.001102313 0.051696304 -0.07463394 -0.08563584 -0.11383058 0.045412757
0.011235598 0.0696654 0.098009266 0.06747838 -0.04495721 -0.063200526 -0.030462313 0.12150051
0.04881141 -0.07589849 -0.15074529 0.109505646 0.13589035 -0.045620076 0.053313002 -0.03821527
0.15751311 -0.12771937 0.118452206 0.017362047 -0.040710762 -0.15772243 -0.016441101 0.10863626
-0.13174073 -0.15325153 0.10752245 -0.19400972 0.11731823 0.057108156 0.13487852 0.018922199
0.13764709 0.050097138 -0.054211624 0.16469213 0.08676529 0.1183284 0.0064729447 -0.020819355
-0.2186649 -0.044078466 -0.09325856 0.18731008 0.017141718 -0.13984433 -0.015893985 -0.019183226
-0.04966565 0.17713593 -0.13543032 -0.13718072 0.10295701 0.09113951 0.031687297 -0.16008188
-0.061400246 -0.097651854 -0.07445127 -0.039392155 -0.18210867 -0.027181113 -0.019060418 -0.016078956
0.124272205 -0.041609626 0.16907126 -0.13494346 -0.17317648 -0.16942526 0.20903057 0.169875
0.19642217 0.07729358 0.13347416 0.01834294 -0.1883874 0.12501569 -0.04191522 0.04462899
0.044995993 -0.09334136 0.00512294 -0.026475037 0.0489204 0.009952269 -0.1116705 -0.13130191
0.11165016 0.037322983 0.052367717 -0.012413005 0.06970785 0.123942584 -0.0654688 -0.09781527
0.12130233 0.014690317 -0.0649644 -0.07438834 -0.04011848 -0.183658 0.11351132 -0.14879051
-0.032339312 -0.05808878 -0.1577401 -0.16690093 -0.039892774 -0.14575525 0.118791424 0.03153057
-0.18779412 0.063106045 -0.08111696 0.14050162 0.09694819 0.117584914 0.13501146 -0.12520547
0.11284357 -0.13384409 0.04400686 0.06958279 0.0825797 -0.06968256 -0.11235434 -0.17643644
0.07846232 -0.11855846 -0.053259183 0.01262735 0.004563477 -0.056056242 0.020206608 -0.12413293
0.031968966 0.15337978 -0.06692418 -0.18522906 0.06053069 0.13657187 0.02806041 0.13541298

mu.bias f4 [8]
00000000: aea3 cfbc e6f3 9cbd c86f 23be ba27 013e
00000010: 54c1 47bd fe46 ea3c 2428 053e 7dfd 78bd
-0.025346603 -0.076637074 -0.1596061 0.1261281 -0.048768356 0.028598305 0.13003594 -0.06078862

logvar.weight f4 [8, 32]
00000000: 1f8c 3abc 80c7 5d3c 35ac 20be dd7f 99bd
00000010: 48c8 ce3c bd44 d6bd 7e19 4dbd 109a 14be
00000020: 522f 0a3e c8fb fd3c 6d69 c93d a361 07be
00000030: afa0 00be ed2f 94bd e05b 8fbc 7fed dabc
00000040: baed 173e 8e83 9a3d 3e38 dc3c acd1 e53d
00000050: 17e4 dabd 0845 bd3d 9ed2 d03c 76b0 00bd
00000060: e447 b13d 4ca9 283b 3de3 b4bd 29a7 d9bc
00000070: a43f 583d aec7 a63d c0ff 06be b745 733d
00000080: 040d 60be c667 28bd b5ad a83d f982 333e
00000090: 5b44 293e 3699 8cbd 1d89 19be 18dd 0ebe
000000a0: 4ab7 c3bc fad1 163e d1ba 433c 699a f0bc
000000b0: 8b57 5ebe 3b3a f3bc 0131 80bb a4df 373d
000000c0: 67d2 0abe bdc3 b83d 7663 093e 1a65 733d
000000d0: a3d9 a53d a5f5 ea3d 400a 3ebd 7e37 10be
000000e0: 3b5a b83d f859 cebd 9373 0fbe 7ff1 5e3d
000000f0: f4e5 d13d d10b 243d 2c51 a63d c11d cc3d
00000100: fb98 2d3e 49c2 793d 0060 61bd fa46 d53c
00000110: 9cdf 8d3d bebe 63bd 89b9 53bc b73c 06be
00000120: 6d17 203e 1aeb 5ebc fe5c d0bd 7143 1a3d
00000130: 8b39 09be 61bf 263e 4906 503d 4449 2bbe
00000140: 7bdd 203e 76b6 c339 f603 a0bd 6a37 e9bd
00000150: 476b 003e d0f4 a7bd 5b5f 03be 1d1f cb3d
00000160: 8aad 16bd c6fa d4bd 3fed f23c 42c4 2a3d
00000170: 559b bb3d 84e5 3dbe fe23 313e 94b9 e83c
00000180: 9cb9 e5bd 7bde 64bd 9f28 0abe 93ae a63d
00000190: 3dff 933d fc6d e2bd 8dd0 bebd f757 e33d
000001a0: 7631 27be 60d0 13bc 9885 f4bd 1efb 143e
000001b0: a895 023d 8f1c 33be 0dc6 25be 3982 97bd
000001c0: e9bf 3c3d 89d0 a4bd 8649 15be 630d 3fbd
000001d0: 04c9 c83d fc99 9d3d bf0b 3e3d e921 2fbe
000001e0: 1ecb 7d3d 3a07 d83d 0cce 03be 2231 ae3d
000001f0: 6cf0 eb3d 0c21 003b a43d 1d3c f4f2 27be
00000200: 252c f8bc be08 8dbc fc7c 0fbd bb2d 3f3d
00000210: 9fe1 f83d 7628 d3bd c278 e1bd edf2 d0bd
00000220: 9d89 1dbe ee3b 71bd ae14 0ebe 5b05 f53d
00000230: 3cd0 873d 8c45 063e 3d8f a03d 4bca 95bc
00000240: 5162 a93d 30af b9bd e8d7 153d c2eb 07be
00000250: 4cfd fa3d ecda 3fbe 0d82 20be 87ec 363e
00000260: 8d69 00bc f0fd 513d 94f0 2abe a6d7 073e
00000270: d370 22be 4646 d53d 553c 0fbe 7166 7cbe
00000280: d44b db3d d76f bebd c291 e1bd 7fc3 0bbe
00000290: a44e 2cbe 6338 a23d 8aaf b03d b5a2 b6bd
000002a0: b3c3 963d 1d1e adbc a70a 383d b2ed d93d
000002b0: cf56 383d a897 febd 4934 713d dcc7 ca3c
000002c0: ba66 5c3c 3d3c acbd a5e2 953c dbe7 b43d
000002d0: d45a 13be 6c5c 61be 5cc3 18be 38d1 c73d
000002e0: fdf5 02bd 0818 7cbd 54df efbd e015 fc3d
000002f0: 36fa 93bc 1b27 df3d bf72 3abe 5c83 40be
00000300: ac5d f73d 668d 703d b89d fa3d 2904 a1bc
00000310: 71b6 ce3d 795c 3abd 49b4 823d 73d6 3f3c
00000320: 2a96 063e 306f 90bd 96c1 2abd f580 033e
00000330: 4359 bdbd 6c07 853d 98e3 643d e08d cd3c
00000340: 7c14 ecba cdaf 963c ad6c b53d 2db3 153e
00000350: a8ab 623b 97f0 c3bd e229 d53d 5311 843d
00000360: cc4f 16be 9452 3a3d 6882 2abd 4378 743d
00000370: 5934 6f3d 2fbe f8bc 2872 7fbd 17d1 56bd
00000380: b2e7 1d3e 5b6e 35bd 7942 0bbe a451 233e
00000390: fc71 bc3d 36d4 b33c 47e6 c93d c612 d83c
000003a0: c3f2 b03d fd97 17be a7ed 82bc 4477 00be
000003b0: cd94 babd 198a ccbd 3275 3e3e 723c 67bd
000003c0: 8e0d a8bb c175 e63c 7a47 4e3d f6ac 0cbe
000003d0: 5414 05bd f42b e9bd 7cb0 923d ee8c 36bd
000003e0: dae4 493d 6a93 4ebe f96b 34bd e22a 933c
000003f0: d376 50bd bb99 b33d 5e7c 27bc 8aea 85bd
-0.011385947 0.013536334 -0.15690692 -0.07495091 0.025241986 -0.104623295 -0.05007314 -0.14511895
0.13494614 0.031003848 0.098345615 -0.13220839 -0.12561296 -0.072357036 -0.017499864 -0.026724575
0.14836779 0.07544623 0.026882287 0.11221632 -0.10688036 0.09241682 0.025491055 -0.031418286
0.0865629 0.0025735674 -0.08832405 -0.026568966 0.052795067 0.08143555 -0.13183498 0.059392657
-0.21879965 -0.04111459 0.08236257 0.17530431 0.16529982 -0.0686516 -0.14993711 -0.13951528
-0.02389111 0.14728537 0.011946396 -0.029370504 -0.21713082 -0.029690852 -0.0039120917 0.044891015
-0.13556825 0.09021709 0.13416848 0.05942259 0.080981515 0.11472634 -0.046396494 -0.14083669
0.09001585 -0.10075754 -0.14008932 0.054429527 0.10248938 0.04005033 0.08120951 0.099666126
0.16952889 0.0609763 -0.055023193 0.02603482 0.06927416 -0.055601828 -0.012922653 -0.13109098
0.15633936 -0.013605857 -0.10173987 0.037661973 -0.13400857 0.16283943 0.050787244 -0.16727167
0.15709488 0.00037329242 -0.078132555 -0.113875225 0.12540923 -0.08200991 -0.12829344 0.09918044
-0.036786593 -0.10399394 0.029654143 0.041691072 0.091604866 -0.18544585 0.17298886 0.028408803
-0.11217043 -0.055876236 -0.13492058 0.08138766 0.07226417 -0.11056134 -0.09317122 0.11100762
-0.16327462 -0.009021848 -0.119395435 0.14548919 0.031881005 -0.17491363 -0.16188832 -0.07397885
0.046081457 -0.080475874 -0.14578828 -0.046643626 0.09803966 0.07695386 0.04639792 -0.1710278
0.061961286 0.10548253 -0.1287157 0.08505465 0.11520466 0.0019550947 0.009597216 -0.16401273
-0.030294487 -0.017216083 -0.035031304 0.04667447 0.12152409 -0.10310452 -0.11009361 -0.102025844
-0.15384527 -0.058895044 -0.13875076 0.11963912 0.066315144 0.13112468 0.078398205 -0.018284937
0.082707055 -0.090666175 0.036582857 -0.13273528 0.12255344 -0.18735856 -0.1567461 0.17863666
-0.007837665 0.051267564 -0.16693336 0.13265857 -0.15863352 0.10413794 -0.13987859 -0.24648453
0.107078224 -0.092986755 -0.11014129 -0.13648795 -0.16826874 0.07920911 0.086272314 -0.08917753
0.073615454 -0.021132523 0.044932034 0.1064104 0.045004662 -0.1243127 0.058887754 0.024753504
0.013452226 -0.08409927 0.01829655 0.088332854 -0.14390117 -0.22007912 -0.14918274 0.09756702
-0.031972874 -0.061546355 -0.11712518 0.1230886 -0.018063646 0.10896131 -0.18207835 -0.1880011
0.12078413 0.058728598 0.12237114 -0.019655304 0.10093392 -0.045498345 0.06382043 0.0117088435
0.1314322 -0.07052457 -0.041688524 0.12842162 -0.09245541 0.06495556 0.055881113 0.025092065
-0.0018011476 0.018394375 0.08858619 0.14619131 0.0034587178 -0.09567373 0.10408379 0.06448617
-0.14678878 0.04548891 -0.04162827 0.059685003 0.058399532 -0.030364124 -0.062364727 -0.052445497
0.15420416 -0.044294696 -0.13599576 0.15949112 0.09201428 0.021951776 0.09858375 0.02637614
0.08640053 -0.14804073 -0.015982462 -0.12545496 -0.09110413 -0.099872775 0.18599394 -0.05645413
-0.005128569 0.028132321 0.050361134 -0.13737854 -0.03249009 -0.113853365 0.07162568 -0.044567995
0.049290515 -0.20173422 -0.044048283 0.017964784 -0.05089457 0.08769556 -0.010222523 -0.065388754

logvar.bias f4 [8]
00000000: 56ee 23be 790d f1bd adb8 1dbd 739d 8f3d
00000010: 6bee 0e3d ed9f 1abc c249 8b3d 8b9b 283d
-0.16008887 -0.11770148 -0.0385062 0.07012453 0.03489534 -0.009437543 0.068011776 0.041163962

decoder.0.weight f4 [32, 8]
00000000: 43f0 d43d c625 263d 4379 3b3e 37bf a83e
00000010: 74b1 043e a700 923d baf8 f7bd ebad 963d
00000020: b9f3 8c3e 8614 883e 9066 d8bd cc1f 5ebe
00000030: 0cc3 fe3b bcb6 ba3e 36bb 53be beeb 793e
00000040: ff03 e13c 0132 973e 40f2 6e3d 28f2 8fbe
00000050: 1ae3 463e 7caa 96be ca6c 96be dcf0 d83c
00000060: 2b7d b23d 1884 313e 68f6 74bc 70e9 a73b
00000070: c78a 11be b3cb 09bd 681d 363e e773 a4be
00000080: 6742 91be 896c 93be 766d 583d fc01 c13d
00000090: 0f4d 16be 495e 813e c9b0 083e 7684 853e
000000a0: e234 2f3b 326b 1d3e f60b bb3e b0a2 22bc
000000b0: ee5e 693e 6f78 c7be d9d4 71bd 3241 8f3e
000000c0: 8a56 793e deb7 533e 83bb 07be 0984 fbbd
000000d0: bb87 89be e9f2 fbbd ed24 3a3e b306 babd
000000e0: 5b9f c6bd 9521 00be 815a 863e 13d3 313e
000000f0: 013f 5fbd 84ef 35be 6161 43bd 5baa f0bd
00000100: 6da8 983d abfb 08bd 57fc 32be ed01 4abe
00000110: fffb dfbd 4878 ac3c 3ee6 06be 9b5b 77be
00000120: 1cc7 e83d 1d42 ae3d 07e5 8b3d 5d68 bbbd
00000130: 81fc bb3e ff95 1d3e 8f09 debd c1f6 80be
00000140: ddbb 81bd 4c2c ef3c 3853 c03b 012d 533e
00000150: 2e0a b23e d948 80be d998 20bd 37dc 803e
00000160: f086 7e3e 7f6a 38be 0f9d a4be de1d 62be
00000170: 9530 44be 4cfc 0bbe 9f6f 9abe ae67 613e
00000180: b386 b33b 822a 62be 76de 663e f9fb 2d3e
00000190: 1188 e13d 690e 82be 6c79 37be 041f 6cbe
000001a0: 1240 cebd 91a2 803e f22f 633e 6824 823e
000001b0: d8f3 afbe a70a a73d 5667 30be 71cd 9e3e
000001c0: 9e5e 9bbd 5fb4 68be 8afc 75bd 2b32 773e
000001d0: 14ca 58be 2cf6 9d3e 2cc7 e53d 263c f83b
000001e0: a82e 5cbe 9069 053e 7d6d b13e fbe3 48be
000001f0: f61a 833e 64c9 9fbe 84d9 febd 47e7 84be
00000200: d6f9 bbbd 9fb4 86bb 8672 933e bc2d 35be
00000210: 376f 513d d2c8 71be 127f 4cbe 867c 713e
00000220: 2854 2e3e 88ed b23e c49f 21be 844f 90bd
00000230: ef95 be3e 7fb1 99bd 9a21 86be cd22 ecbb
00000240: e18c a9bd 5314 9c3e 2055 8abe c6e8 6f3d
00000250: 810d 2e3e 4826 37be b667 183e f78d 93be
00000260: 4c85 a53c 937b 853e 9914 b13e a61c 9bbe
00000270: 8ca5 e0bc 56e0 4f3e 614a 13be bfe1 ce3d
00000280: 3541 963e d236 06be c4db 883e 60a8 88be
00000290: 6788 c93e 35fc 67be 8e34 763e 8ca8 f1bd
000002a0: 3570 6e3e e369 923e 44f2 c73c 621d 2a3e
000002b0: 2a73 a13c 006e bcbe aed7 a1be a899 23be
000002c0: 58f0 403e 7538 50bd 2237 b43e c3cf 35be
000002d0: ce19 9c3d c09e 4fbe d164 a3be aec8 67be
000002e0: d2dd a7be dc45 223e c245 6bbe 84a7 5abe
000002f0: 0c4b d53e 1a59 973e 6af5 63bc 50d8 243e
00000300: e6d5 a5be de83 35be 0e07 943e 69e3 903e
00000310: 4989 7c3e 9ca6 31be e90b 113e 7313 803e
00000320: 17ae 413e 8d01 43be 104d 933d 4e94 9d3e
00000330: 421a 2fbe 48d4 863e bdc9 1dbd b2a9 09be
00000340: 84ab 51be 1b12 483d 62bf b7bd 1e3c 52bd
00000350: a188 7c3d 252c 95be 9865 28bd 1db4 633d
00000360: df56 a43e 4d2b 88be 88d0 7a3d 0076 9cbe
00000370: 3b5e c9be 1004 083b 843b 153e 1001 08be
00000380: ba86 fb3d 8d5b 8ebe db3b a4bd 1b1f f1bd
00000390: 4276 123e 67d1 6fbe 4cee a03d 712e 7f3d
000003a0: c7e0 0ebe 7f24 9f3e b07e 68be 6800 2bbe
000003b0: d1a8 513c 073f 263e 0b67 9c3e 924a 8fbe
000003c0: b856 70be ecc9 d3bb 6e98 9e3e 41b9 023e
000003d0: 7415 0c3e d8a8 84be 158c 9fbe 37b4 b2be
000003e0: 9363 9d3d b3e2 09bd 3d86 c6bc 9ac6 a33e
000003f0: 7545 423e 8723 a7be 4bb5 ce3d af09 483c
0.10397389 0.040563367 0.18307976 0.32958385 0.12958318 0.07129031 -0.12107988 0.07357391
0.27529696 0.26578158 -0.10566437 -0.21691817 0.0077747162 0.3646754 -0.20676884 0.24406335
0.027467726 0.29530337 0.058336496 -0.28114438 0.1942257 -0.29426944 -0.29379874 0.026482038
0.0871528 0.17335546 -0.014951326 0.0051242635 -0.14213096 -0.03364153 0.17784655 -0.32119676
-0.28370973 -0.28793743 0.052838765 0.094242066 -0.14677833 0.25267246 0.13348688 0.26077622
0.0026734401 0.15372923 0.36532563 -0.009926483 0.22790119 -0.3895907 -0.059040878 0.27979428
0.24349418 0.20675609 -0.13255124 -0.12281043 -0.26861367 -0.12302191 0.18178149 -0.09083309
-0.096983634 -0.1251281 0.26240924 0.17365675 -0.054503445 -0.17767149 -0.04770029 -0.11751243
0.07454 -0.033443134 -0.17479073 -0.19727297 -0.10936736 0.021053448 -0.13173768 -0.24156038
0.11366102 0.08508704 0.06830793 -0.09150765 0.36716083 0.1538925 -0.10841667 -0.25188258
-0.0633466 0.029195927 0.0058692954 0.20622636 0.3477339 -0.25055578 -0.039208267 0.2516801
0.24856162 -0.18009375 -0.32151076 -0.22081706 -0.19159158 -0.13670462 -0.30163285 0.22012207
0.005478704 -0.22086528 0.225458 0.16990651 0.11012281 -0.2540162 -0.17917413 -0.23058707
-0.10070814 0.25124028 0.22186258 0.254184 -0.34365726 0.08156329 -0.1722692 0.31016114
-0.07586406 -0.22725056 -0.060055293 0.24140231 -0.21170837 0.30851877 0.1121963 0.0075755296
-0.21502173 0.1302855 0.34653845 -0.19618218 0.25606507 -0.31208336 -0.124438316 -0.259577
-0.09178512 -0.004110887 0.28798312 -0.17693228 0.051131453 -0.23611763 -0.19970348 0.23582658
0.1702429 0.34946847 -0.15783602 -0.070464164 0.37223765 -0.07504558 -0.2619751 -0.007206297
-0.08278824 0.30484256 -0.2701807 0.0585716 0.16997339 -0.17885697 0.14883313 -0.28819248
0.020205162 0.26070842 0.34586027 -0.30295295 -0.027422689 0.20300421 -0.14383842 0.101016514
0.29346624 -0.1310685 0.26730168 -0.2669096 0.3936188 -0.22654803 0.24043486 -0.11799726
0.23284991 0.2859641 0.024407513 0.16612771 0.019708235 -0.36802673 -0.31609863 -0.15976584
0.18841684 -0.05083509 0.35198313 -0.17755036 0.07622109 -0.20275402 -0.31912854 -0.22635147
-0.32786423 0.15846962 -0.22975829 -0.21352965 0.4165882 0.29560167 -0.013913492 0.16098142
-0.32389754 -0.17726085 0.28911632 0.282985 0.24661745 -0.17348713 0.141647 0.2501484
0.18914066 -0.1904356 0.07192433 0.3077721 -0.1709986 0.26333833 -0.03852247 -0.1344364
-0.20475584 0.04884539 -0.0897205 -0.051326863 0.061653737 -0.29135242 -0.041112512 0.05559169
0.32097527 -0.26595536 0.061234027 -0.30558777 -0.39329705 0.0020754375 0.14573485 -0.13281655
0.122815564 -0.27804223 -0.08019229 -0.11773511 0.14302924 -0.23419724 0.078579515 0.06230015
-0.13952933 0.31082532 -0.22704577 -0.16699374 0.012796597 0.1623498 0.30547366 -0.2798658
-0.2347058 -0.00646328 0.3097567 0.12765981 0.13680059 -0.25910068 -0.31161562 -0.34903118
0.07685008 -0.033663463 -0.024233932 0.31987458 0.18971808 -0.32644293 0.10093173 0.01220934

decoder.0.bias f4 [32]
00000000: aa39 10be a76d 8d3e 9480 f43d 822f b53d
00000010: c85e 553e dfbf c13d a660 ad3e 3f72 4ebe
00000020: b4cf 553e 2b75 a4bc 9aa7 533e 3927 ab3e
00000030: ae5e 80be d814 11be 3748 1a3e c4d5 613e
00000040: 69ad 8a3e 246b ae3e 4092 983e 0650 2c3e
00000050: 8b3b 863e 0379 4dbe a8bd 1b3c 5906 a9bd
00000060: 675f 033e 4b17 843e 4553 333e 5dbb cb3e
00000070: cc7a 87be da58 a4be 8c12 3e3e 030f b4be
-0.14084497 0.2762272 0.11938587 0.08846952 0.20836937 0.09460425 0.338628 -0.20160769
0.20880014 -0.020075401 0.20669404 0.33428362 -0.25072235 -0.14168108 0.1506661 0.22054201
0.27085426 0.34066117 0.2979908 0.16827402 0.26217303 -0.20065694 0.009505667 -0.08253164
0.12829362 0.2579902 0.17512234 0.39791384 -0.26460874 -0.32099038 0.18561763 -0.35167703

decoder.2.weight f4 [64, 32]
00000000: 6d50 5e3c 075a 1abe 0215 e93d cca5 aa3d
00000010: d412 303d c685 d2bd f81d 91bc 1cbe 54bd
00000020: c9b9 c0bd b55f 43be 7f67 bbbd f2fc d1bd
00000030: 9cc7 04be 41a0 853d 62cc 233e fcf7 0e3e
00000040: 5db6 94bb c875 40bd 81ad 07be 0a05 1cbd
00000050: 8867 993a 73eb 9d3d 4cf7 a93d c200 fe3d
00000060: 81e4 27b9 cce6 70bd d873 b5bd 0848 dfbd
00000070: fdfb 2a3e 2310 6a3d a58c cdbd 31ac f73c
00000080: 5dff b1bd b576 d1bc 5a50 5c3e 8363 c3bd
00000090: 35d8 2cbd 47aa a53d 9328 a3bd f505 193e
000000a0: 262c 38be 3b61 a5bd d1a4 01be c8b3 40be
000000b0: c1d4 e1bd 55ea c73d 8be4 f03d 5a58 2cba
000000c0: e095 10be 6f38 48bd f6fc 7fbc 1c54 aa3d
000000d0: a078 753c 1c75 4e3e 94b7 653e fe39 5abd
000000e0: 8804 f1bd a98a 1bbe ed4a 87bc d112 403c
000000f0: 49d8 f63c 99c3 0cbc 0b8d bf3d 1974 f23d
00000100: a7b0 33bd d446 943d 5327 763d ecba 05be
00000110: fc28 4ebe 0e17 00bd 28c5 48bd eff8 3bbd
00000120: 532a 4dbd 2ea2 ab3c a51c d9bd 5182 c73d
00000130: c158 293e 3d40 133d 9ff6 04be 031d 983d
00000140: 5dab 6a3d 4872 833d c17e 803d 07af d2bd
00000150: 48cc 773d 3a41 0d3e 067f 1d3e f051 003e
00000160: 573a f2bd 2396 aabd c8d6 99bd 7116 61be
00000170: 9cf2 debd f5c9 f93d d4b9 163d 12a8 c2bc
00000180: d3fe dcbd 98e2 623d d437 2b3d 8506 cabc
00000190: 95c0 043d 8e0b 963d 92f4 e03c 3105 2e3e
000001a0: 07b5 ad3d bdf4 fa3d 2dad b4bd 0007 edbd
000001b0: bc5a afbd b4c3 863d fdc0 b0bd 96b4 2dbd
000001c0: 30ec 12bd a215 b23d 2be7 fcbd 56d3 45be
000001d0: ee22 3abe f82c 1b3e 6335 cd3d 402b 3ebe
000001e0: 7a9d ce3d fd7a fcbd 7fdb 8ebc ef6e 6c3d
000001f0: 4de5 33be c89d 1d3e e860 c1bd 43b7 aeba
00000200: fa4a c53c 99d8 533d 13f5 0a3e 5d1a c0bd
00000210: 94db 2b3e 16ab f3bc 493a 12bc a3ba 1a3e
00000220: c0a2 3a3e f0d7 413d fddf 01be cd99 13be
00000230: 84ba d03d a560 c9bd 6fa5 f93d 6079 e63d
00000240: 8f09 8fbd 4ad8 283e 3bb1 9abd e638 d5bd
00000250: db00 233e 7a6f 4b3d 2b03 3e3d 1dfb 3ebc
00000260: 91c4 59be d018 9b3d c6b8 023e 4306 1e3e
00000270: 8b99 293e 15d9 1fbe 1261 90bc 3dcb 2cbd
00000280: c4b9 0f3d cfff 2a3e 686d f7bd a797 143d
00000290: 21b5 2b3d 317e 0fbd d52e 3ebd fbe2 9ebd
000002a0: 0e2d 263d d602 9e3d c360 36bd 463c 3fbd
000002b0: 2de7 423e a412 a13d 8d99 d1bd 8833 5c3d
000002c0: 949a ff3b df6d b3bd efb0 b83d 59aa 3c3e
000002d0: a7c8 6bbb 4373 babd 25ba a53d e4ca d63d
000002e0: 0f0b 05be 4825 033e 213c 1f3e df96 f5bd
000002f0: 07a4 273e 2904 f43d 8216 f9bd 163e 92bd
00000300: 34d3 f9ba 024f 2dbe ee3d 2e3e efb0 553d
00000310: 6c5c ac3d a43f 753d d571 82bc 0846 dfbc
00000320: 6c3c 85bc f0d0 373e 1f5f 203e 9c05 87bd
00000330: 7bd3 893d 277e 28be 1b50 fe3a 48a3 d4bc
00000340: 3e90 483e d201 1c3e 0f5c 103d 1aa9 82bd
00000350: b37f 583e 66e7 4c3e 7802 013e 4876 44be
00000360: b093 5d3d fac7 a33d ad4d c93d 9d99 20be
00000370: f6d0 0b3e 5c2d 813d f9de 5b3d faad 0bbd
00000380: 8267 87bd c742 73bd 9eef 583e a7a7 cbbc
00000390: ce59 54be a8d6 563c 6c65 c9bd 79ca 14bd
000003a0: ee14 513d fcc0 643e a645 f63d 6811 bf3d
000003b0: 4467 73bd 1729 0c3d 32b6 103d e764 5f3d
000003c0: 18b3 fa3c 16d4 1f3e 60ad b3bc 3460 f33d
000003d0: 63dc dbbb 85aa e9bd a52d 573d 49fc b7bc
000003e0: e130 333c 4369 2bbe 4ec6 a0bc b207 31be
000003f0: f69d b4ba 3902 523d b99b 403e edf3 b43d
0.01356898 -0.15073405 0.1138096 0.083324045 0.042986706 -0.102794215 -0.017714486 -0.051939115
-0.09410436 -0.19079478 -0.091506 -0.102533236 -0.1296677 0.06524707 0.15995935 0.13961786
-0.004538341 -0.046987325 -0.1324978 -0.038090743 0.0011703828 0.07710924 0.08299121 0.12402488
-0.00016011485 -0.058813855 -0.08859986 -0.10902411 0.16697688 0.057144295 -0.100365914 0.030233474
-0.08691285 -0.0255693 0.21515027 -0.09540465 -0.04219838 0.080891185 -0.07966723 0.14943679
-0.17985591 -0.08075186 -0.12660529 -0.18818581 -0.11026908 0.09761492 0.11762341 -0.00065744447
-0.14119673 -0.048881944 -0.015624275 0.08316824 0.0149823725 0.20161861 0.22433311 -0.053277962
-0.117684424 -0.15189613 -0.01651522 0.011723236 0.03013243 -0.008591556 0.09353074 0.1183855
-0.04386964 0.07240072 0.060096096 -0.13059586 -0.20132822 -0.031271987 -0.049016148 -0.0458917
-0.05008919 0.020951357 -0.10601167 0.09741653 0.16537763 0.035949934 -0.12984703 0.074274085
0.05729233 0.06418282 0.062741764 -0.1028729 0.060497552 0.13794413 0.15380487 0.12531257
-0.11827534 -0.083294176 -0.075116694 -0.21981217 -0.10886118 0.12196723 0.036798313 -0.023761783
-0.10790791 0.055391878 0.04180129 -0.024661312 0.032410223 0.07326423 0.02746037 0.16994168
0.08481794 0.122537114 -0.08822093 -0.11573601 -0.08562228 0.06580296 -0.086305596 -0.04240855
-0.035869777 0.086955324 -0.12348779 -0.193189 -0.18177387 0.15153873 0.10019948 -0.18571186
0.1008863 -0.12328146 -0.017438648 0.057722982 -0.1756794 0.1539222 -0.094423115 -0.0013329763
0.024083603 0.051720235 0.13570051 -0.093800284 0.16782981 -0.029744666 -0.008925029 0.15110259
0.18226147 0.047325075 -0.12683101 -0.14414139 0.10191825 -0.098328866 0.12189757 0.11253619
-0.06984245 0.16488758 -0.07553335 -0.10411243 0.15918295 0.04966686 0.04638974 -0.01165655
-0.2126639 0.07573092 0.12765798 0.15432076 0.16562478 -0.15610154 -0.017624412 -0.04218601
0.03508927 0.16699146 -0.120814145 0.03627744 0.041920785 -0.035032455 -0.04643138 -0.07758137
0.04057031 0.07715385 -0.044525873 -0.04668834 0.19033499 0.078648835 -0.102343656 0.05376008
0.0078004096 -0.087611906 0.090181224 0.18424357 -0.0035977752 -0.09104016 0.08092145 0.10487917
-0.129925 0.1280719 0.15550281 -0.11991667 0.16371165 0.11914856 -0.12162496 -0.07140748
-0.0019060136 -0.1692467 0.17015812 0.05217069 0.084160656 0.059875146 -0.01592342 -0.027255073
-0.016264163 0.17950797 0.15661286 -0.06592867 0.0672979 -0.16454373 0.0019402535 -0.025956765
0.19586274 0.1523507 0.035244044 -0.0637991 0.21142463 0.20010146 0.12598598 -0.19185746
0.054095924 0.07997127 0.098292686 -0.15683599 0.13653931 0.0630748 0.05367944 -0.034101464
-0.066115394 -0.059389856 0.21185157 -0.024860216 -0.20737383 0.0131127015 -0.09833798 -0.036325905
0.05104535 0.22339243 0.12025003 0.09329492 -0.059424654 0.034218874 0.035330005 0.054539587
0.030602977 0.15608248 -0.021933258 0.11883584 -0.0067096218 -0.11409477 0.052533764 -0.022459166
0.010936947 -0.16739373 -0.019625809 -0.17288092 -0.0013779986 0.05127165 0.18809403 0.08835588

decoder.2.bias f4 [64]
00000000: e4e1 29bc c3c8 843d 3be9 583d eb74 803d
00000010: 4bf2 143e 89db 263e 7506 603d 4112 4d3d
00000020: b620 91bd 1850 203e 5c2c 6cbd daa7 a8bd
00000030: 384d e63d 14ad 2dbe b3b0 623e 1050 34bd
00000040: 6c29 2bbe 4194 2fbe e783 46bc 7a46 43bd
00000050: 8bd5 e0bd 7c6c 603d d7ab ed3d 3890 1c3d
00000060: 480d 1fbd 5eee 003e 33a5 343e 35f9 fbbd
00000070: b1d0 b7bc a6bc d8bc fee5 073e b212 4bbd
00000080: e2dc a63d 049b 37bd e4ee 3bbd e1a6 b9bd
00000090: 8452 1abd 143e 763d 8ca1 2fbb ce91 43be
000000a0: 7013 dc3d f767 3c3e c13d eebd ebda f33d
000000b0: 6f8e 9a3d 9825 ef3d 5900 26bd 9f0a 29be
000000c0: 5a0f 30be a1f4 37bd cdb7 32be 7bdf 553d
000000d0: e6d9 093d 8e25 2ebe 5061 0a3e c310 1d3e
000000e0: 938e 413e 0f96 c4bd 681f 73bd ceea 10bd
000000f0: fbf2 f2bc db79 263e 1be0 1e3e 399e cebd
-0.010368798 0.06483605 0.0529568 0.062723 0.14545552 0.16294684 0.054693658 0.050066236
-0.07086317 0.15655553 -0.057659492 -0.0823514 0.11245197 -0.16960555 0.22137718 -0.044021666
-0.1671502 -0.17146398 -0.012116409 -0.047674634 -0.1097823 0.05479096 0.116050415 0.038223475
-0.038831025 0.1259093 0.17641144 -0.12303392 -0.022438379 -0.026457142 0.13271329 -0.049578376
0.08147599 -0.04482557 -0.04588212 -0.09065033 -0.03767635 0.060117796 -0.002679917 -0.19098589
0.10745895 0.18399034 -0.116328724 0.1190699 0.07546698 0.11677092 -0.040527675 -0.16507958
-0.17193356 -0.04491103 -0.17452927 0.05221508 0.03365507 -0.17006513 0.13513684 0.15338425
0.18902044 -0.09598934 -0.059356123 -0.035380177 -0.029656878 0.16257422 0.15515177 -0.10088772

decoder.4.weight f4 [6, 64]
00000000: 9a26 b2bd 1c04 843d 72f5 153e f93e 5fbd
00000010: a78a d53d e74c e2bd d214 86bc faaa 00bb
00000020: dcf3 c63c d7b7 97bd 0dcd cbbd f1fa c1bd
00000030: ccb3 f8bb 7ec0 cd3d 8390 13be ef73 bcbd
00000040: deda 823d 5c21 23bd 6b3c 6bbd 9806 863d
00000050: a631 ab3d 9496 313e 326c 823d 95c7 d7bd
00000060: 8a5d 87bd 04f1 b2bd 4563 03bd fdaa 073e
00000070: b56c 07be 0acd f73d 4b4a 933d 290c 1cbd
00000080: a234 e33c f127 d9bd 78b0 15bd c746 84bd
00000090: c587 2f3e 5d7a 91bd ce1e 80bc 21b4 04bd
000000a0: 971a 5c3d 676f 16bd aa5e c9bd ff20 b73d
000000b0: d275 243e 5ade 0ebd 79b5 94bd 3e55 e2bb
000000c0: 226c d8bd 26fd e5bc 89d2 743c 9eb6 d6bd
000000d0: e0ff 04be f339 c2bc 7efa 243e ec6a f6bd
000000e0: 5d88 b93d eac1 96bd 2f9c 0c3e 8f3a 893d
000000f0: 4891 9f3d 8aa0 fabc 6013 193d 0cf1 c5bd
00000100: 7af8 bb3b eae4 24bc c3c8 483c 8bc3 323d
00000110: 66a9 96bd f676 3f3d b2aa 9d3d a03e 843d
00000120: ff4e e43d af29 ba3d bafe ab3d 0b23 973d
00000130: ef66 c03b 7541 e23d 113f fbbd 4d56 f6bd
00000140: d45b 273e 8075 85bd 1c4d 66bd bae7 c9bc
00000150: 9723 b7bd 9914 d13b c312 773d 9869 81bd
00000160: bc8d 6b3d 2c18 c5bc 42fc d6bd bef8 0c3e
00000170: 1f89 adbd 81fc 123e fd59 363d 0be3 40bd
00000180: 09fa 603d 5fd1 04bb 018c 323d dc31 a83c
00000190: 40c2 8b3d 75ed 2a3d 38a7 b5bb 052a 863d
000001a0: f54c 76bc f8fb 14be 9939 c83d d721 94bd
000001b0: ff96 ea3d 508a f33c 7a94 0fbd 1f71 f0bd
000001c0: e976 973d bfbf 1bbe 3a45 ca3d ee7e 4e3d
000001d0: ecaf cfbb 85e6 5d3d ee46 60bd 9c02 2a3d
000001e0: 40d9 a33c f0ab 173c b589 99bd 7c3d 073d
000001f0: fa78 143e efff 90bd 008a f237 d7b7 70bd
00000200: 8f8c 293d 60fc 56bc aa89 453c d97b 5d3d
00000210: 309d cebd 18c4 afbd 5c64 543c 55a2 d03d
00000220: 88a7 e83d 9b13 f43c 09de dcbd ee57 a13d
00000230: 0c3d bdbd 7eb8 0a3e b895 bcbd 4a35 60bd
00000240: 32aa 0a3e 7254 b1bd 7f48 1c3d 6be9 5f3d
00000250: f203 cd3d 5a60 e23d 0e53 233c 552b 533c
00000260: 944b e5bd 3d58 b5bd aa7b 03bd 86b9 4f3d
00000270: 06e9 cf3d 312c e93d a967 a03d 168a 06bd
00000280: 2514 e7bd 0f31 af3c f91c aa3c 2168 2c3c
00000290: 81e0 89bd 17cc 02be 2ed4 903c ad1a 6c3d
000002a0: 5bf7 5b3d 8a4c 32be 24c7 7e3b deb7 043e
000002b0: ffe0 b4bc 4c09 473d 9056 08be 5e4f ab3d
000002c0: 5107 aa3c c225 85bd 30e3 52bd e15b ef3d
000002d0: f289 fdbd 630c e7bc 16d7 7a3c 4c16 64bd
000002e0: 70fa e0bd 474e d63d e22e 143d bda4 163d
000002f0: cfc5 27bd 58ff f3b9 fc3f 433c 2ade f1bd
00000300: e10c 5a3d a12a 1b3e a3ed 163e f412 a3bd
00000310: d832 0e3e 58ac 5bbd c065 d43d 2eba 393c
00000320: 937c 953d ef4f a9bd 8f24 45bd 6cee cdbd
00000330: 2c03 3ebd 9e4d a03d 8d4e 3cbd 7fa9 483d
00000340: be6c 1a3e 4c27 9a3d 4c73 1d3d 9029 4a3d
00000350: 589a 093e c2db dd3d 55d3 b73d 2664 d13c
00000360: e889 c5bc d944 d2bd c86e bbbd 8031 1f3e
00000370: 628a 883c 6474 fbbc 4d4c b0bd 60cb c3bb
00000380: 0608 cf3c ccce dcbc aaf8 dcbc d4b1 24be
00000390: 07f4 13bc 4a98 72bd dcb9 1d3e 8d68 afbd
000003a0: 9136 0ebe dae1 3e3d 5d84 cc3c 9b02 d2bd
000003b0: 1cfd 9abd 61b2 15bd 6bf3 e6bd 2156 65bd
000003c0: 52d5 d0bd d336 9c3d 1a23 c6bd 8a46 bbbd
000003d0: de9d ca3d 70f5 75bd 6d9d 083e df26 2cbd
000003e0: c497 6ebd a8e6 38bd c7f9 aebd 192a e33d
000003f0: 9746 dd3d f94a 773d f851 f0bd 3a25 f63c
-0.08698769 0.06446096 0.14644411 -0.054503415 0.104268365 -0.11049824 -0.01636735 -0.001963316
0.024286203 -0.074081115 -0.0995122 -0.094716914 -0.007589793 0.100464806 -0.14410596 -0.092018
0.06389402 -0.039826736 -0.057430666 0.065442264 0.08359079 0.17342597 0.06368293 -0.10536114
-0.06609638 -0.08737376 -0.032077093 0.1324882 -0.13225062 0.12099655 0.07191905 -0.038097534
0.027735058 -0.10603321 -0.036545247 -0.06458812 0.17141636 -0.07103417 -0.015639689 -0.032398347
0.053736296 -0.036727335 -0.09832509 0.089418404 0.1606057 -0.03488002 -0.07261176 -0.0069071343
-0.105675 -0.028074812 0.014942774 -0.1048405 -0.12988234 -0.023709273 0.1611118 -0.120321125
0.09059212 -0.07361205 0.13731454 0.06700622 0.07791382 -0.03059413 0.037371993 -0.09665117
0.005736408 -0.010064343 0.012254897 0.043643516 -0.07356529 0.04674431 0.07698573 0.06457257
0.1114788 0.09089982 0.083981946 0.07379731 0.0058716456 0.11047641 -0.12267888 -0.12028179
0.16343623 -0.06516552 -0.05622588 -0.024646629 -0.08942335 0.0063806293 0.060320627 -0.063189685
0.057508215 -0.024059378 -0.10497333 0.13766763 -0.084734194 0.14354135 0.044519413 -0.047091525
0.054925952 -0.0020266396 0.04359055 0.020531587 0.068241596 0.041730363 -0.0055436157 0.06550983
-0.015032996 -0.14549243 0.09776611 -0.07233017 0.114545815 0.029729038 -0.035053708 -0.11740326
0.07395727 -0.15209864 0.09876485 0.05041402 -0.00633811 0.05417492 -0.054755144 0.041506395
0.020001054 0.009257302 -0.07496969 0.03301762 0.14499274 -0.070800655 2.891291e-05 -0.058769073
0.041393813 -0.013121694 0.012056747 0.05407319 -0.10088575 -0.08582324 0.012963381 0.101872124
0.11360079 0.029794505 -0.10784537 0.078780994 -0.092401594 0.1354694 -0.09208244 -0.05473832
0.13541487 -0.08658685 0.038155075 0.054665964 0.10010518 0.11053534 0.009968532 0.012888749
-0.11196056 -0.08854721 -0.032100357 0.05071404 0.101518676 0.11385382 0.078322716 -0.032846533
-0.11283139 0.021385698 0.020765768 0.010522873 -0.06732274 -0.12773167 0.0176793 0.057642628
0.053702693 -0.1741201 0.0038876021 0.12960765 -0.022079943 0.04859285 -0.13314271 0.083647475
0.020755442 -0.06501342 -0.051486194 0.116874464 -0.123798266 -0.028204149 0.01531007 -0.055685326
-0.10985267 0.10464149 0.036177523 0.0367782 -0.04096013 -0.00046538818 0.0119171105 -0.118099526
0.05323494 0.1515298 0.14739089 -0.079625994 0.13886583 -0.053631157 0.1037097 0.011335893
0.07299151 -0.08267199 -0.048130568 -0.10055241 -0.046389744 0.07827304 -0.04597335 0.04898977
0.15080544 0.075270265 0.038440034 0.049356043 0.13437784 0.10832931 0.08975855 0.02556045
-0.02411361 -0.10267038 -0.09151989 0.15546227 0.016667549 -0.030695148 -0.08608303 -0.005975172
0.02527238 -0.026954077 -0.026974041 -0.16083461 -0.009030349 -0.059227265 0.15402931 -0.08564863
-0.13888003 0.046602108 0.02496546 -0.10254403 -0.07567808 -0.03654707 -0.11276897 -0.055990342
-0.101969376 0.076276444 -0.09674664 -0.09144314 0.09893392 -0.06004852 0.13341303 -0.042029258
-0.058250204 -0.045141846 -0.08543735 0.11092014 0.108044796 0.060374234 -0.11734384 0.030047048

decoder.4.bias f4 [6]
00000000: 9f1d 11be fc96 823c d7e7 a03d 6197 b2bd
00000010: 147f 743c a9fd 413c
-0.14171456 0.015941136 0.0785672 -0.087202795 0.014922876 0.011840262
