models/ae.pt (torch, 29845 bytes, 14 tensors)

encoder.0.weight f4 [64, 10]
00000000: 5e08 bebe 849c 85bd 81c0 b33d 1e02 9fbd
00000010: 436d 6bbe dccb 96be 9ba9 21be 978c c4bc
00000020: bb7d 223e 188e a7be 8be7 2dbe 4b51 2d3e
00000030: eecc cf3c 88cd 7cbe c2d6 44be 696d 1f3e
00000040: 3724 0ebd 22d1 95bd deaf 8b3e bd78 e8bc
00000050: 4612 953e 9b37 8e3e df73 a63e ae31 3a3e
00000060: d36d d0bd 8a9b a93d fb6a cdbd e4c3 953e
00000070: 7564 0c3c 12a2 913e 1822 28be f9bc e73d
00000080: 49eb 643e 42a6 603e 7bbd 8e3e 9490 34be
00000090: 47a5 6dbe 8747 383d b453 683e 2560 1b3e
000000a0: f9c7 403e e2c8 a13e a15a 1fbc b033 8a3e
000000b0: 5ee8 8cbe 747e f13d e218 6ebe a22b 033e
000000c0: 5c6b 3ebe 3e89 e2bd 4f79 71bd 6398 3a3e
000000d0: 5159 6f3e 3daf a4bd 2ebd 613e 98ea 233e
000000e0: b5f8 d2bd 4e72 683e c0d4 49ba 2edf 1fbe
000000f0: 08e5 3f3e a7e4 743e df84 c6bd cd0b e8bc
00000100: 4fa6 083e e27b af3d 6c7d 23be d17e 72be
00000110: 0eb6 0c3e ace3 183c debf 163c 81de 88be
00000120: 2524 173e a916 053e 3f8c 41be 3c60 c9bd
00000130: acdd 2fbe 13eb 1d3e 9065 26be 2919 75be
00000140: 16c0 4b3d 867e 7dbd ed3b 55bd 1aa4 1e3e
00000150: 8815 e7bc ef96 ccbd f9de 15be e31d 87be
00000160: c672 60bd bbc4 c8bb 5fdc b63c 74af 58be
00000170: ddc8 713e 0628 893c 8e25 66be 59df 053e
00000180: cccd febc 83d5 c9bd aced 073e 5fff 08bd
00000190: 73ff d9bc 5173 23bd c1de 9fbe c94c 77be
000001a0: b513 803e 81fb 38bd ce4c b8bc 3b5d aabe
000001b0: 002c f33d 79df 94be df67 de3c 923a 03be
000001c0: 5509 0abd 6519 f3bd 63ca 403e 487a aebd
000001d0: 6ddb b7be 6195 9dbd 4d68 edbd 43c4 143e
000001e0: bd5e 9bbe 65e4 c43d 60ba 19be 9a3e 403e
000001f0: d68a 87bd 23d9 75be 339c 94be fd9e 92be
00000200: fdb0 d6bd 4cbe 9dbe c1e4 1b3e 3e73 a13e
00000210: 0eb8 8bbe 4795 6e3e 5308 94be b5d7 a83d
00000220: 7e08 8fbd 15ee 4f3d 1e2a 2c3d dd53 923e
00000230: 52a8 7f3a ac00 4cbe 070a 94bd 8893 6e3c
00000240: 2e6b 87be f368 20be d3d8 143e 5e6b a5bc
00000250: 7627 8f3e bc38 903e 5f45 893e 2653 36be
00000260: e224 9a3e 906d 553e a165 7cbd f74f 853e
00000270: 4cfd cd3d f6a4 8a3e 737a 4dbd 17ef 733e
00000280: 75e2 80be 688e 803e eb22 743e 7b33 9fbe
00000290: 856e 813e 331d 843b 726b a3be b655 b8be
000002a0: d1cf 86be 89b4 f9bd 8b96 a93e 7477 0e3e
000002b0: 4a82 383e bb96 65be 612d ab3e a6f5 bd3c
000002c0: 981c a1bd 977b a23e 11b3 173e ea6a 56bd
000002d0: c16d 9c3e 1b6b 9b3e 1901 83bd f5bb 873e
000002e0: cc27 963e 8d72 163e 8fa5 673e d825 07be
000002f0: b669 43be a434 553e ba98 5bbe 4e55 933e
00000300: e2f7 10bd 06e2 83be c117 59be a52a 23be
00000310: cfac a73d 955c 9e3e b499 653e 4925 01be
00000320: ded6 bb3d d93c 943e d7df 3c3e 2c69 87be
00000330: ed0c 923e caa5 d3bd a167 dc3d e994 40be
00000340: 3730 ae3c 80a6 8ebe 2ec2 173e b9c6 993e
00000350: bbfb e23d 0e85 41be f38e 5ebc 7e04 dabd
00000360: bbf2 14be d72f 7d3d 2eb8 1d3d d434 b23d
00000370: 1d83 a73e a8af b03d 7952 2c3d bbc0 80be
00000380: 99e9 373e b322 54be 2a09 733e 1b86 133e
00000390: 5c56 bb3b 87ed 963e 6a6e 963e 6305 d73d
000003a0: 1e17 fe3d b917 0dbe 7fe6 7abb ce00 a13d
000003b0: 7067 c63d 36f3 a43c 5ed3 a43d 1ae9 853e
000003c0: 9705 74be 6b11 4c3e 8edc f63d 381d 043c
000003d0: 8abd 3d3e 7773 5bbe 7372 b1bd 987e 313e
000003e0: 8125 1f3d 05f2 54be 508b eabd b08e 3a3e
000003f0: 0e53 2dbe 34f3 91be e386 e43d d6ec 0ebe
-0.3711576 -0.065239936 0.087769516 -0.07764076 -0.22990899 -0.29452407 -0.15787356 -0.02399282
0.15868275 -0.32725596 -0.16982858 0.16925542 0.025366273 -0.24687779 -0.19222549 0.1556908
-0.034702506 -0.073152795 0.27282614 -0.028377885 0.29115504 0.277768 0.32510278 0.18183014
-0.10177197 0.0828162 -0.100301705 0.29251015 0.008568873 0.28443962 -0.16419256 0.113153405
0.22355379 0.21938422 0.27878937 -0.17633277 -0.2320758 0.04499009 0.2268818 0.15173395
0.18826284 0.31598574 -0.009726197 0.2699256 -0.27521032 0.11791697 -0.2325168 0.12809613
-0.18595642 -0.11061333 -0.05895358 0.18222193 0.23373915 -0.080412365 0.22044823 0.16007459
-0.10301343 0.22699854 -0.0007699244 -0.1561248 0.18739712 0.23915349 -0.09693312 -0.02832594
0.13344692 0.08568551 -0.15965813 -0.23681189 0.13741323 0.009331625 0.009201018 -0.26732257
0.14759882 0.12996925 -0.18901156 -0.098328084 -0.17174405 0.15421705 -0.1624968 -0.23935379
0.049743734 -0.06188824 -0.052059103 0.15492287 -0.02820851 -0.09989726 -0.14635839 -0.2638999
-0.054796956 -0.0061269677 0.022321878 -0.2116068 0.2361178 0.016742717 -0.22475263 0.13073482
-0.031103991 -0.09855177 0.13274258 -0.033446666 -0.026611065 -0.039904896 -0.31224635 -0.24150385
0.25015035 -0.045161728 -0.02249756 -0.33274254 0.11873627 -0.29076746 0.027149139 -0.12815312
-0.033700306 -0.11870078 0.18827204 -0.08519417 -0.35909596 -0.076945074 -0.115921594 0.14527993
-0.30345717 0.09613875 -0.15012503 0.1877388 -0.06618278 -0.24008612 -0.2902542 -0.28636923
-0.104829766 -0.30809247 0.15223981 0.31533235 -0.2728886 0.23299132 -0.289126 0.08244268
-0.06984042 0.050764162 0.042032354 0.28579608 0.00097525597 -0.19922131 -0.07228475 0.014561541
-0.2644896 -0.15665035 0.14535837 -0.020192798 0.27959794 0.28168285 0.26810738 -0.17805156
0.30106264 0.20842576 -0.06162036 0.2603757 0.10058078 0.2707898 -0.050165605 0.23821674
-0.25172773 0.25108647 0.23841445 -0.31093964 0.25279632 0.004031801 -0.31917912 -0.36002892
-0.26330426 -0.121926375 0.33122668 0.13912755 0.18018451 -0.2242078 0.3343306 0.023188423
-0.07866782 0.31734917 0.14814402 -0.052348055 0.30552486 0.30355152 -0.06396694 0.26510587
0.29327238 0.14692135 0.2262175 -0.1319803 -0.19083294 0.20820862 -0.2144498 0.2877602
-0.03539265 -0.2575838 -0.21200468 -0.15934236 0.081872575 0.3093001 0.22421914 -0.1261188
0.09171842 0.28952673 0.18444763 -0.26447427 0.28525487 -0.10334356 0.10761953 -0.18806805
0.021263225 -0.27861404 0.14820167 0.30034426 0.1108317 -0.18898413 -0.013583886 -0.10645388
-0.1454572 0.0618132 0.038505726 0.087014824 0.3271722 0.08627254 0.04207084 -0.25147042
0.17960204 -0.20716362 0.23733965 0.14406626 0.005717082 0.29478094 0.29381114 0.10499074
0.12406753 -0.1377858 -0.003828436 0.078614816 0.09687698 0.020135503 0.080481276 0.26154405
-0.23830257 0.1992852 0.12053786 0.008063607 0.18529335 -0.21430765 -0.086644076 0.17333448
0.038854126 -0.20795448 -0.11452353 0.18218493 -0.16926214 -0.28505862 0.1115854 -0.13957533

encoder.0.bias f4 [64]
00000000: 6af7 703e 64ce 553d 22e7 43bc 3f70 89bd
00000010: 023b 68bd 2220 acbd f1fd 773e 7a9e 853d
00000020: 181a 29be a827 8d3e b7ed 69bd 1a7f 43be
00000030: 86b0 60be 5a10 803e 5328 97be ed98 353e
00000040: bc7d bd3e ab3e 69bc 5de8 503e a282 a83e
00000050: a257 a1be 29fc 9cbe d8d0 833e 7c30 c8bd
00000060: b999 cb3b 4db1 8b3e b49d 44bd 349e 8a3d
00000070: 3b4d 203e 37cc 19be 4a42 c9bd bfec 3fbe
00000080: f55d dc3c 307b 2fbe d9d1 143e bf4e b53c
00000090: 5725 083e f259 643e afd2 cbbc fbd8 063d
000000a0: c42b f53c a304 b03d 1eb9 2c3d 28b4 543d
000000b0: 681e 4dbe 9308 59be 02fe 42be bc25 643e
000000c0: e27c a23b 9f67 bbbd c55f d6bd 7214 33bd
000000d0: 4292 59be 8a04 78be 3024 6dbe 5025 3ebe
000000e0: 289b 173e 2da5 f5bd 33cf 77be 0c29 d13d
000000f0: 478c 9ebc 413f 5a3e 3ba4 18be 51a8 1abe
0.23531881 0.052198783 -0.011956962 -0.06710862 -0.0566969 -0.08404566 0.24217965 0.06524368
-0.1651386 0.27569318 -0.05711147 -0.19091454 -0.21942338 0.25012475 -0.29522952 0.17734118
0.3700999 -0.014236133 0.2040114 0.32912165 -0.3151217 -0.30661133 0.25745273 -0.09774873
0.0062133935 0.27283707 -0.04800196 0.06768456 0.15654461 -0.15019308 -0.09827097 -0.18742655
0.026900271 -0.17136836 0.14533176 0.022132276 0.13295494 0.22299936 -0.024880735 0.032921772
0.029928096 0.085946344 0.04216873 0.051929623 -0.2003113 -0.21194677 -0.19042209 0.2228002
0.004958735 -0.091506235 -0.10467485 -0.04372067 -0.21247199 -0.24220482 -0.23158336 -0.18568921
0.14805281 -0.119943954 -0.24200134 0.10212907 -0.019353999 0.21313192 -0.14906399 -0.1510327

encoder.2.weight f4 [32, 64]
00000000: 104e c3bc 76ae 50bd 601e 833c 0ff8 a43d
00000010: 5c99 b2bd 0285 46bd 3845 8a3d 25d4 d83d
00000020: d018 04be 28df a83d 9f12 c3bd 15e6 ccbd
00000030: 3bf6 d93c ee4f c5bc e64b 05be 91b7 c13c
00000040: 77f2 bfbd 91fe b0bd 174b 56bd 5de8 253c
00000050: 9b66 413d b7bd 213d e07c 0bbe 1ba7 5ebd
00000060: a305 ddbd 25a8 a03d 080d c33c e21c afbd
00000070: 38bd 3b3d 6913 c33d eec1 df3d ec2c 443d
00000080: bafc d63d db64 4f3d 8d00 813d 12f2 ddbd
00000090: 0abb d7bd 1fe0 7a3d 9b11 393d 2a6f a6bd
000000a0: 9ad7 f9bc c30a 793c 60c6 a13d 426d 0cbe
000000b0: fbb2 923d 51dd 943d 2451 bfbd e047 583d
000000c0: 76f1 0a3d c2a5 92bd 8080 843d c63e e4bd
000000d0: e830 0fbe 38c8 f8bd 9e04 52bd 523e 403a
000000e0: ae14 523d 63df b33d e20d b33d 044a 0bbd
000000f0: f39f 4c3d b236 95bd b720 9ebd d93b 563d
00000100: ca14 1abc 2dd2 cabd 02a3 7cbd 9462 093d
00000110: be90 bbbb f1c5 833d 73c4 c03d 1c7d a0bd
00000120: a5e1 19bd 297d 153e dee5 b9bd 8957 ee3c
00000130: 8174 913d b4c6 193d 5576 4cbd 483f fc3d
00000140: 74ec d8bd 0262 9d3d 644e c6bd 0493 7c3d
00000150: ab9b 7cbd 0077 2a3c 9bd5 ea3d 602d 7bbd
00000160: e078 d5bd c286 3bbd d3ee 03be 6b4b 113d
00000170: a958 133e c53a 83bc fd8b 4f3d e094 c23d
00000180: ac2e 213d cd8a 023d 933f d4bd ae9d 1abd
00000190: 1d34 8dbd 0937 bb3c 56f0 cb3c b753 263d
000001a0: e6a3 063e d346 a6bd 2b56 86bd 3ac5 5fbd
000001b0: 4f28 6abd ccba 9a3d 24ed bcbd 49bc 4f3c
000001c0: d88c 0b3e 5fdc fd3c 7adc e23d 7273 5ebb
000001d0: e7f1 6b3d 598a 753c 8fd9 45bc 4856 3cbd
000001e0: b700 463d 509f 7b3c 3545 e83b 34cf 31bb
000001f0: 8388 f6bd b05d 92bc bf17 8bbd 28d3 2fbd
00000200: 87e0 9abd ce05 84bd b3f3 0dbe 9f88 04be
00000210: d8be d53d d278 e8bd 1103 5cbb 3b08 a9bd
00000220: d9e4 933c 9221 fabd 2383 a43c 3da8 02be
00000230: efa7 fbbd b411 b93a 0991 b33d ed63 d93c
00000240: 0990 1dbd fe91 473d a399 fa3c a9c7 efba
00000250: 6e2d 81bd 2496 3bbd abdb 65bc 72aa c93d
00000260: 6530 1fbc 7116 373d 49f3 0c3d 1fbc 82ba
00000270: b301 323d 0d20 9ebd 60a7 0d3d 4ede b6bc
00000280: 07c8 a6bd 15f1 a5bd 453f 65bd d473 86bc
00000290: 605d 483c 964f c7bd bd1a ab3c 6005 a7bd
000002a0: a241 8a3d 9e2b 6dbc 8abb 1b3d 46ef e8bd
000002b0: c0f6 53bc 18b5 243d fd83 05be 6673 953d
000002c0: 5e9d d5bd 68d5 8bbd 923d abbd 29df e0bd
000002d0: 9f77 75bd 2f75 a3bd 2eb7 74bd f031 303d
000002e0: 8bc3 543d dafb 84bd 8e7c 02be a456 95bc
000002f0: d65b c3bd 9c39 933d 9139 933d ab55 263d
00000300: b6fd 333e 5b0d 0a3c ca29 40bd dee1 f7bd
00000310: 1ba5 d2bd f80b 753d ff5e 673d 230e 623d
00000320: 88b4 73bc f834 fc3d f8bf 293e 8f0f c83d
00000330: 3ef4 3c3e 0565 c4bb 8a20 adbc 09ce 02be
00000340: 1c25 383e ab21 ae3d 525e c13d 99e4 7e3d
00000350: 606c f7bd 7e74 0f3d 1094 073a 9865 b7bd
00000360: 8655 15bd a95f ee3d d1af 653d d72c 0fbd
00000370: 2c78 82bd dd96 143d bc46 75bd af5e d8bd
00000380: 7150 c33d c012 de3d 50d8 183e 5f66 4dbb
00000390: cde0 223e 32fc 7a3d 00ac ca3d adfc eb3d
000003a0: 718d 5f3d c4d0 ed3d 0c17 0b3c ec09 e13d
000003b0: eb57 ae3d d243 463e a224 2f3d adc6 563e
000003c0: a5fa 53bd ddd2 b23d 01cb a7bd 0d2e 1cbd
000003d0: de20 323d a6d9 913d feb1 f1bd ccc3 44bd
000003e0: d1ac 2d3e 8aca 713d 2788 2e3d fcb8 e93b
000003f0: 78e3 7f3d 12b6 ef3d 5509 e63c 475b 183e
-0.023840934 -0.05094763 0.016005695 0.08055126 -0.08720657 -0.04846669 0.06751484 0.10587338
-0.1290009 0.08245689 -0.09525036 -0.10004822 0.02660667 -0.024085965 -0.13017234 0.023647102
-0.093724184 -0.08642305 -0.052317705 0.0101262005 0.047216993 0.039487567 -0.13621855 -0.054358583
-0.10792091 0.07844571 0.023809925 -0.08550431 0.04583475 0.095251866 0.10925661 0.047894403
0.104974225 0.050633293 0.06298933 -0.10837187 -0.10533722 0.061248895 0.045182806 -0.081266716
-0.030498315 0.01520032 0.07899165 -0.13713554 0.07163044 0.07268775 -0.09341648 0.05280292
0.03392168 -0.07160522 0.06469822 -0.111447856 -0.139835 -0.12147564 -0.051273935 0.0007333505
0.051289253 0.08782842 0.08742882 -0.034006134 0.049957227 -0.07285823 -0.077210836 0.05230317
-0.009404371 -0.09903369 -0.061678894 0.033541277 -0.0057240417 0.06434239 0.0941247 -0.07836363
-0.037568707 0.14598526 -0.09077047 0.029094474 0.071022995 0.037543014 -0.049917538 0.123167574
-0.10591975 0.07684709 -0.096829206 0.061663643 -0.061671894 0.010404348 0.11466523 -0.06132257
-0.10423446 -0.045782812 -0.12884073 0.035472315 0.1438929 -0.016019234 0.050670613 0.09501052
0.03935115 0.031870652 -0.10363688 -0.03774803 -0.068947054 0.022853391 0.024894875 0.04060718
0.1314846 -0.081189774 -0.06559404 -0.05463145 -0.057167348 0.0755516 -0.092249185 0.012679168
0.13627946 0.03098887 0.11077209 -0.0033943322 0.057603743 0.014986598 -0.012075796 -0.04598072
0.048340525 0.015357807 0.0070883282 -0.002713156 -0.12037756 -0.01786694 -0.067916386 -0.042925984
-0.075623564 -0.0644642 -0.13862495 -0.12942742 0.10436791 -0.1135117 -0.0033571164 -0.08253523
0.018053459 -0.12213434 0.020082062 -0.1275949 -0.1228789 0.0014119656 0.08767898 0.026536906
-0.03846744 0.048723213 0.030590838 -0.0018293756 -0.06307493 -0.045797482 -0.014029424 0.09846963
-0.009716128 0.044699136 0.034411702 -0.0009974277 0.04345865 -0.07720957 0.03458345 -0.0223228
-0.08143621 -0.081026234 -0.05596854 -0.016412653 0.012229294 -0.09731977 0.020886773 -0.08155322
0.067508 -0.014475731 0.038020648 -0.11373763 -0.012937248 0.040211767 -0.13038631 0.07297401
-0.10430406 -0.068278134 -0.08361353 -0.109800644 -0.059928533 -0.07981335 -0.059745006 0.043016374
0.051944297 -0.064933494 -0.12742826 -0.01822979 -0.09539001 0.071887225 0.07188714 0.040609043
0.17577252 0.008426036 -0.046914853 -0.121036276 -0.102853976 0.059825867 0.05648708 0.055189263
-0.014874585 0.123147905 0.16577137 0.097685926 0.18452546 -0.005993488 -0.02113368 -0.12773909
0.17982906 0.085025154 0.09441818 0.062229726 -0.12081218 0.035023205 0.00051719043 -0.08954924
-0.036458515 0.116393395 0.056075875 -0.034954872 -0.06370577 0.036276687 -0.05988191 -0.105649345
0.09536827 0.1084342 0.14926267 -0.0031341536 0.15906067 0.06127567 0.09896088 0.115228035
0.05457825 0.116120845 0.0084893815 0.109882206 0.08512863 0.19361809 0.042759545 0.20974226
-0.051752705 0.08731625 -0.08193017 -0.038129855 0.043488376 0.07121591 -0.118015274 -0.04803829
0.16960455 0.059031047 0.042610314 0.0071326476 0.06247279 0.11704649 0.028080622 0.1487857

encoder.2.bias f4 [32]
00000000: 5552 fbbd 1d3f 8b3c e062 b43d 4d4f 163d
00000010: 207e 14bd ac91 0d3d a8c7 d43c 0fa7 16bc
00000020: 3575 29bd a045 e2bd 5ec7 30bd 38ac ee3d
00000030: 2e6e 4abc a9dd ca3d 1119 c13c f35e 95bd
00000040: 183e d4bd 06c3 ac3d e563 e9bd d60d f6bd
00000050: ad2f a13d d4aa 0d3d acde 5d3d 27eb 373d
00000060: db4c b7bd 784a 5abd ec72 50bd 6ac4 89bd
00000070: 93ce 50bd b0fd c9bd 42d4 d6bd 4975 6abd
-0.12271563 0.016997868 0.088079214 0.03669672 -0.036253095 0.03456275 0.02597411 -0.009195103
-0.041371543 -0.11048436 -0.04315888 0.11653942 -0.01235537 0.099055596 0.023571523 -0.07293501
-0.10363406 0.08435635 -0.113960065 -0.12014358 0.078704216 0.034586743 0.054167435 0.044901993
-0.08950206 -0.053293675 -0.050890848 -0.06726916 -0.050978255 -0.0986284 -0.10489704 -0.057240758

mu.weight f4 [8, 32]
00000000: 664b 103d 7352 653d b999 953c 8c22 d33d
00000010: d231 e7bd c405 bd3c bd5d 11be 59a0 a1bd
00000020: 5d60 093e fbf4 053e 91df c7bd cc91 21be
00000030: e6f0 513b 4f00 28be 2627 28bb deb2 fa3d
00000040: 02e0 8fbd d253 d73c 5407 ce3d 6267 fa3c
00000050: b320 323e 1e03 3ebe 38ad 0f3e 6cd2 9bbd
00000060: 8b35 903c 8a8b 63be 94ea 103e da07 843d
00000070: b4b9 163e c413 07be 589f 7c3c bea3 363d
00000080: b803 32be 0030 41be 16eb 563d 8598 c83c
00000090: 3444 b03c 5e64 76bd 9daf 82bd 7d98 b1bd
000000a0: e729 823d e12b 093e 0383 6dbd 06cd 37be
000000b0: 833a ed3d 53fa 80bd 382b 133e b845 e03c
000000c0: e06f 4dbd 1565 7cbd 95e4 e1bd 4c93 fd3d
000000d0: 774c 2e3e d707 583d 7987 493d 55e0 2dbc
000000e0: dc06 02be 0ef7 e73d d2f9 0e3e 7166 5dbe
000000f0: c8d5 99bd 57a8 2cbe b1ba ab3d 2366 03be
00000100: f1fc f0bd 0482 54bd 42fa 323d f4d5 e2bd
00000110: 8123 c53d 8926 72bd 8424 02be d737 0fbe
00000120: ad0e d4bd e7da 0dbe 9925 1ebe f98b 183e
00000130: 6853 5f3d d826 033e 5cd4 94bd 5208 453d
00000140: 4b23 edbc 9c7c d4bb a944 ca3d d7e2 d43d
00000150: 544e 083c eb66 61bc 5408 703d 5123 063e
00000160: ce8f b0bd 2c72 de3d fc95 293e dd46 d63d
00000170: 8a08 1cbe b7ef 0cbe 6385 d3bd cf9d 393d
00000180: 82a0 163e 28d6 343c ba2a 12bd 54f0 3dbe
00000190: b11c 8e3d 0c85 ee3d bb2c a0bd 1285 053e
000001a0: a584 06bd a8ae 95bd e912 4abe 80b8 f53d
000001b0: 4a0a 2cbe 94e8 87bd 0eb0 fe3d 7388 3fbe
000001c0: c720 203d 32a7 f03c 764a 293d 0d84 c8bd
000001d0: 2913 9ebd 4ad6 ee3d 5133 d9bc aa78 dbbc
000001e0: 9117 cbbc 5c0c f73d 6b7f 21be 619d 243e
000001f0: 42b7 913d a38c 04be 7fbd abbd 4434 153e
00000200: 1bd9 b7bd feff f2bc c4ed 0abe 8927 16be
00000210: fe39 cbbd f9c2 963d d520 42bd 505f f73c
00000220: 050d 9dbc 31be 1dbe 6a0c c83d d345 2c3d
00000230: 3902 fcbd 26ed abbd 77b7 75bd a884 853c
00000240: 93f7 163d 304e fe3d 4ebd dbbd a46c 723c
00000250: 4264 db3c c9c2 333e 2719 003e 2a1a 713b
00000260: edf1 4b3e b169 0a3e fcfa dc3d fb66 2b3e
00000270: af34 debd 4a5c 143e b0ea d5bc 9a6b babc
00000280: f719 cf3d fd6e 513d da37 6e3b 384d ce3d
00000290: f148 f5bc 16bb b03d 9fa7 a43d 65f7 973d
000002a0: da41 533b a67e 6c3d 7402 d43c abdb 463b
000002b0: 9f10 6bbd 635c de3d 0bff b5bc 6321 e0bd
000002c0: 6982 393e 2643 78bd 2c7c 7fbd 5a19 27be
000002d0: 0576 483e 2a89 b7bd 1c4c 9ebd ac03 cebc
000002e0: 3cdc 0cbd 01c6 2bbe 2b05 963d e867 06be
000002f0: 20cd bf3c e191 48bc 2a42 903b dab9 543d
00000300: 5cae 35be d40b 15be 9fbb 6f3d 8247 553e
00000310: 8f68 a43c 6d70 f83c 452d 0e3e f345 c33d
00000320: 379a 87bd 0f1a 53bd 2e9d 743d a67d 24be
00000330: d56c f43d dd0e a83d 2f2b 0bbe 8a08 813d
00000340: 9753 e93d 92ed eebc a3f6 b43d 86d0 043c
00000350: 3402 913d 6b9b 29be 0e52 a1bd 4862 00be
00000360: bfe6 6bbd 017e 813d d555 5ebd 26ac 4fbe
00000370: e041 f1bc 0c03 983d fdfc 903c 5ddf 72bd
00000380: be5a 30be d6ba c63c 2483 c0bd 21f7 c3bd
00000390: 8d5c 8e3d f333 cabd 73e1 87bd de30 223e
000003a0: 85d5 87bd 15c2 1c3e 1494 68bc ba5e 693d
000003b0: c7c7 d7bd af30 f2bd d449 123e 556a 023e
000003c0: f8f3 183e d6d4 55be cb06 153d 1333 ee3d
000003d0: ee36 113e 7782 bf3d f142 08be 22a8 b63d
000003e0: a94f 24bc 73a1 eebc 416e 2a3b 03ba b7bd
000003f0: de05 1ebe 4203 92bd 3c31 c9bb 8bf4 debc
0.035228156 0.055986833 0.018261777 0.10309324 -0.11288799 0.023074038 -0.14195915 -0.07891912
0.13415666 0.13081734 -0.09759439 -0.15778273 0.0032034456 -0.16406368 -0.00256581 0.122411475
-0.07025148 0.026285086 0.100599915 0.030566875 0.17395286 -0.18555877 0.14030921 -0.07608494
0.017603656 -0.22221199 0.14151984 0.0644681 0.14719278 -0.13191134 0.01541885 0.04458975
-0.17384231 -0.18865967 0.05247029 0.02448679 0.021516897 -0.06015431 -0.06381152 -0.08671663
0.063556485 0.13395645 -0.05798627 -0.17949304 0.11583426 -0.062977456 0.14371955 0.027376994
-0.05015552 -0.061619837 -0.11029927 0.1238161 0.17021357 0.05274185 0.049201462 -0.010612567
-0.12697929 0.11326419 0.13962486 -0.2162111 -0.07511479 -0.16861092 0.08385218 -0.12831931
-0.11766995 -0.051881805 0.043695696 -0.110759646 0.096259125 -0.05911878 -0.12709242 -0.13986145
-0.10354362 -0.13853036 -0.1544403 0.14897145 0.0545229 0.12807786 -0.07267067 0.048103638
-0.028947493 -0.006484581 0.09876377 0.10394829 0.008319456 -0.013757448 0.058601692 0.1309941
-0.086211786 0.1086162 0.16561121 0.10462735 -0.15237632 -0.13763319 -0.10328176 0.045316514
0.14709666 0.011037387 -0.03568528 -0.18548709 0.06939066 0.116464704 -0.07821032 0.13039044
-0.032841343 -0.07308704 -0.19733776 0.11998081 -0.168008 -0.06636158 0.124359235 -0.18704395
0.03909376 0.0293766 0.041330777 -0.09790812 -0.07718498 0.11661966 -0.026513727 -0.026790936
-0.02479151 0.12062904 -0.15771262 0.1607566 0.07115032 -0.12944274 -0.08385753 0.14570719
-0.089769565 -0.029663082 -0.13567263 -0.14663519 -0.099231705 0.07361407 -0.047394592 0.030196816
-0.019171247 -0.15404584 0.09767993 0.042058777 -0.123051114 -0.08394842 -0.05998942 0.016298607
0.0368572 0.12417257 -0.107294664 0.01479641 0.026781205 0.17554773 0.12509595 0.0036789277
0.19916506 0.1351688 0.10790059 0.16738503 -0.10849892 0.1448833 -0.026112884 -0.022756387
0.10112374 0.051131237 0.0036349208 0.10073322 -0.029942008 0.08629434 0.08039784 0.07420234
0.0032235296 0.05773797 0.025880076 0.0030343335 -0.057388898 0.10857465 -0.02221634 -0.10943868
0.18116154 -0.060610913 -0.06237428 -0.16318265 0.19576271 -0.08961709 -0.077293605 -0.025148235
-0.03438972 -0.16774751 0.073252045 -0.13125575 0.02341324 -0.0122418115 0.0044024186 0.051935054
-0.17742294 -0.14555293 0.05852854 0.2082806 0.020069389 0.030327046 0.13884456 0.09534826
-0.06621211 -0.051538523 0.05972021 -0.16063556 0.119348206 0.0820596 -0.13590692 0.06300457
0.113928966 -0.029166017 0.08836105 0.0081063565 0.07080498 -0.16563194 -0.07876979 -0.12537491
-0.057593103 0.063228615 -0.054281075 -0.20280513 -0.029450357 0.07422456 0.01769876 -0.059295047
-0.17222115 0.024259012 -0.09400013 -0.095686205 0.069512464 -0.0987319 -0.06634798 0.15838954
-0.066325225 0.15308411 -0.014195461 0.056975104 -0.105361514 -0.11825692 0.14285976 0.12735875
0.14936817 -0.20881972 0.03638343 0.116308354 0.1418111 0.09351056 -0.13306786 0.089187875
-0.010028758 -0.02912972 0.0026005658 -0.08971026 -0.15431926 -0.07129528 -0.0061399024 -0.027216217

mu.bias f4 [8]
00000000: 501a f13d 431d a53d ef6c 433c 2915 163c
00000010: 6735 c1bd bc3d 31bd 7e38 d9bc 8d38 2a3d
0.11772597 0.08062222 0.011927827 0.009160318 -0.09434014 -0.043271765 -0.026516195 0.041557837

logvar.weight f4 [8, 32]
00000000: 691c 94bd 82f2 6abd 288c 523d aa2b 833b
00000010: 7650 8e3d 17d1 22be 91aa 733d 4b41 0a3e
00000020: f46e 25be a8a5 faba 4562 f1bd 7dc0 51bd
00000030: de65 2b3e bc9b 063e 43b0 bc3d 40ff a53d
00000040: 8326 60bd 3a61 5ebe 84e4 153e a431 89bc
00000050: bdf0 e8bd d8e0 6f3d 6a5c a93c 8e11 c4bd
00000060: 91c5 aabd 3f70 1b3d 89cd 913d 774e fabd
00000070: 7917 d93d 0947 00be 08d8 1ebe 2fd8 05be
00000080: 35d8 d03d c74e a5bd cb62 dabd f0ca 76bd
00000090: c480 183e 6d4c fbbd 4b11 cfbd 2dad 1c3d
000000a0: a7f9 933d c728 143e f046 103e 3081 65bd
000000b0: f9a8 c03d 60dd c93d 3699 933c 062d 0dbc
000000c0: bf2b 123e a71e 2d3e d58c 553d 8ae8 29be
000000d0: ae75 ffbc cc01 dbbd dc54 183e 7b9c febc
000000e0: 304c 4ebd 1457 23bd ebfa 0bbe c315 023e
000000f0: 18cb debd b006 4e3c 4228 f13d 3a05 1a3d
00000100: 4804 0cbe e108 cfbd b121 1dbd 423a b43d
00000110: 8259 303d c8ed 82bc 8a8a 1fbe d634 11be
00000120: d0e1 303e 66c2 0abe 9c60 053c 6bb1 a53d
00000130: 1778 23be 97e6 e4bb 48e3 1abe d66f 8bbd
00000140: fe5f 85bd 5abf 333e e9a5 b03d bf24 b33d
00000150: a2ef 90bc c05c c2bd 90b7 603c 2520 283e
00000160: b9d9 a03d 3784 833c 3ef5 16bc 2e08 e03c
00000170: 0f2e b9bc 52b9 a2bc 8f67 e3bd 89e3 25bd
00000180: 01bf a13d 42f1 21be b881 233e 3533 8fbd
00000190: 47fb dbbd ee24 cb3d 20be 82bb f775 18be
000001a0: 84c1 0fbe deb4 ff3d 1272 4bbe 75c3 abbd
000001b0: ffaa 8b3d ebea b13d 738f 21bd ed15 02be
000001c0: 9796 d93d 6878 37b9 8603 70bd faee 1dbe
000001d0: 4b90 e93d dba1 e4bd c27c d4bd 9cfe 03be
000001e0: 9c0d 883d c31a a63d 3daa 283c c8c0 ecbc
000001f0: 156e 0c3e 31ee cbbd 4765 f13c ae5b 85bd
00000200: c0db e8bd 3a12 23be 36c6 c03d d0c7 e5bd
00000210: 1fa8 82bd 06d2 7dbd ccca 433e 3065 dc3d
00000220: 23be 12be 74a9 0c3d 0dbb 22bd 400c be3c
00000230: 16bf 023e 94fc ab3d d7f8 8e3d 6a2e 56bd
00000240: db0b 513d 53c9 c2bd 4aeb a7bd 8f9c 233e
00000250: f5fe a23d 81fb a63d e991 133c 3c77 0f3e
00000260: 55d3 7abd f416 0bbe 3fa1 b2bd 1570 f8ba
00000270: c2c9 c3bd 951f a4bc 406f 3cbe fa55 5a3d
00000280: 481b 0d3e 291c 90bd b30f 163e 13d2 343d
00000290: 9532 d43b 0274 a93c 97f6 8e3d a546 e1bd
000002a0: 7332 adbd fe5f 83bd 3e44 d8bd 3090 6b3d
000002b0: 7413 a33d 041a 033e 2cb8 b63d d769 3bbe
000002c0: 9740 63bd 9909 a83d f041 07be b5b1 453d
000002d0: 5c08 00be 8faa 32be d498 b8bd d12a fdbd
000002e0: da80 833d 539d a0bb 5ece cebd 2928 613d
000002f0: 256e 963b 045c e53d 9ebb c3bd 340a 933d
00000300: 5f1e 02bd a209 83bc 7e17 f23c d11f 1dbe
00000310: 4309 813c 57c0 3fbe 0604 2dbd b674 4fbd
00000320: 4886 36be ffad 1abe 6286 b43d b33d 0bbe
00000330: 8fe1 92bd 70fe 48be 403e 14be 84c9 04be
00000340: 8530 0abe 4e96 cbbc 695e b9bc 426e 0fbe
00000350: 4617 b83d 29cf cdbc 4fa3 03be e9ab 213d
00000360: 2a17 40bc c8d3 86bd ccd3 903d ef94 59bd
00000370: 1c79 17be 426c 1c3e 21e4 c23d a277 183e
00000380: c988 173c ad7f 1cbe 4097 71bb 5214 a7bd
00000390: 99dd 8dbd c79c 143e 02db 74bd 2468 d63d
000003a0: 6ea9 e93d c304 12be affa 013d 8fea 52be
000003b0: dee7 023e cbf2 923d 621f 63bb 07f3 36be
000003c0: e447 fc3d 1e98 e8bd c9ef 68bd 0875 b6bd
000003d0: ac44 cfbd 7392 0a3d 291e 023d a8d0 de3d
000003e0: c30b d73d 5eb7 3f3d e1b3 c0bc 7026 f3bc
000003f0: 7e49 283c dfa8 0dbe dcec 953d 2afc 92bd
-0.07231981 -0.05736018 0.051403195 0.004003008 0.069489405 -0.15900074 0.059488837 0.1350147
-0.16155607 -0.0019122856 -0.117863216 -0.05120896 0.16738078 0.13145345 0.09213307 0.08105326
-0.054724228 -0.21716776 0.14637953 -0.016747303 -0.11374042 0.058564037 0.02067395 -0.09573661
-0.08338464 0.037948843 0.07119281 -0.12221997 0.1060018 -0.12527098 -0.15512097 -0.13070749
0.10197488 -0.08071666 -0.106633745 -0.06025213 0.1489287 -0.122704364 -0.1011072 0.03825109
0.07225352 0.1446868 0.1408956 -0.056031406 0.09407229 0.09856677 0.018017393 -0.008616691
0.142745 0.16906224 0.05213626 -0.16592613 -0.031184044 -0.10693702 0.14876121 -0.031080475
-0.050365627 -0.039877966 -0.13669936 0.12703614 -0.10878581 0.012574837 0.11775257 0.03760264
-0.13673508 -0.101091154 -0.03836221 0.08800174 0.04305411 -0.015982524 -0.15580192 -0.14180312
0.1727364 -0.1355072 0.008140709 0.080904804 -0.1596378 -0.0069854963 -0.15125763 -0.068084404
-0.0651245 0.17553464 0.08625395 0.08747243 -0.01769239 -0.09490347 0.01371564 0.16418512
0.07854027 0.016054256 -0.009213744 0.02734765 -0.02260497 -0.019863758 -0.111037366 -0.040500198
0.07897759 -0.15814689 0.15967453 -0.06992189 -0.10741287 0.09919153 -0.00398995 -0.1488875
-0.14038664 0.124856696 -0.19867733 -0.0838689 0.06819724 0.08687385 -0.039443444 -0.12703677
0.10624426 -0.00017497095 -0.05859711 -0.15423194 0.11404475 -0.11163684 -0.10375358 -0.12890095
0.06643221 0.08110573 0.010294494 -0.028900519 0.13713868 -0.09957541 0.029467238 -0.06511627
-0.11370039 -0.15924922 0.09412806 -0.11219752 -0.06379723 -0.061967872 0.1912033 0.107614875
-0.14330344 0.03434129 -0.039729167 0.0231992 0.12768206 0.08397785 0.06981056 -0.052290358
0.051036697 -0.09511056 -0.08199175 0.15977691 0.079587854 0.08153439 0.009006956 0.14010328
-0.0612367 -0.13582975 -0.087221615 -0.0018954301 -0.095599666 -0.02003459 -0.18401814 0.05330465
0.13779938 -0.07036621 0.14654426 0.044145655 0.0064757564 0.0206852 0.06980627 -0.109998025
-0.08456888 -0.064147934 -0.10559891 0.057510555 0.07962695 0.12802893 0.08921847 -0.18302093
-0.05548152 0.082049556 -0.13208747 0.048265178 -0.12503189 -0.17447875 -0.09013525 -0.12361682
0.06421061 -0.004901567 -0.10097955 0.05496994 0.004590767 0.11199191 -0.095572695 0.071796805
-0.031767245 -0.015995804 0.029552218 -0.15344168 0.015751487 -0.18725716 -0.042240165 -0.050648414
-0.17824662 -0.15105437 0.08814694 -0.13597755 -0.07171928 -0.1962831 -0.14476871 -0.12967497
-0.13495071 -0.024851944 -0.022628026 -0.14006904 0.08988814 -0.025123196 -0.12855266 0.039470587
-0.011724273 -0.06583363 0.07071647 -0.05312055 -0.14792293 0.15275672 0.095161684 0.14889386
0.009248921 -0.1528308 -0.0036863834 -0.08158173 -0.06927032 0.14512931 -0.059779175 0.10469082
0.11409269 -0.14259629 0.03173321 -0.2059729 0.12783763 0.07175215 -0.0034656157 -0.17866145
0.123183995 -0.11357139 -0.056869302 -0.08909041 -0.1012052 0.03383107 0.031767044 0.10879642
0.1050029 0.046805732 -0.023523273 -0.029681414 0.010271428 -0.1383395 0.07320568 -0.07177003

logvar.bias f4 [8]
00000000: e861 f0bc f614 1b3b 59a3 35be 773d c5bc
00000010: c48b 90bd f805 3dbd 3ca0 dc3c 6954 e53d
-0.02934356 0.0023663617 -0.17738093 -0.02407716 -0.07057908 -0.04614827 0.026931874 0.111977406

decoder.0.weight f4 [32, 8]
00000000: 0254 5fbe 2962 5f3c 676f 37be 96f3 89be
00000010: 1443 2e3e 7c6e 913e 272c 453e c28a 953e
00000020: 0bfe 213e 6900 ccbd 13d9 95be ddd6 333e
00000030: c860 cebc f794 99be 2ad6 bc3e 2d40 4d3e
00000040: e04d 92be c53d 903e 2d61 cabc d809 ac3e
00000050: f079 973e ded1 b5be 64fc 85bd 51cf 903d
00000060: 5855 41be e2c0 813e 1108 90be 43bb 553e
00000070: 338f adbd 7b06 f1bd 6fb6 2abc a63e 873e
00000080: 7f93 6ebe da94 f53d 708e 0abe 390d a1bd
00000090: 3830 3f3e 3740 c23d d348 263e a187 a13d
000000a0: 2e29 d9bd 8880 513e 48de 7dbe 070e acbc
000000b0: 01e6 72be 4867 2ebe d931 c93c 68ce 6cbe
000000c0: ca07 a3bc 31b5 46be 2850 40be d06b 813e
000000d0: 1056 cf3e 6ecf 42bc adee c4bd 00fe 7c3e
000000e0: d3a4 7a3e e61e 60be cd44 c83d 30b5 cdbe
000000f0: 236b 163e fe07 19be 56f1 873e 0c55 4d3e
00000100: 9af6 c1bd eb29 a13e 5385 643d defe 4a3e
00000110: 2f71 84be 875b 463e 228e 613e 0129 d1bb
00000120: ffd5 893e 8f07 9abc 5a4a b4bd 7b90 cd3e
00000130: 5320 ad3d a87b bdbe 4ab2 6bbd 345c 47be
00000140: 4a22 2dbe 2aab 9abe 3066 503e be98 063e
00000150: 45a5 0c3e 1692 aabd 0f8f 38bc 51cc 9c3e
00000160: 00cd 8bbd 9d57 2d3e a59c 7f3d 8af4 15be
00000170: 3a5d c23e 0972 a2be 7093 a7be 74fa ae3c
00000180: f9af 073e 0c4b 87be 4712 bebd 7190 713e
00000190: 7fe4 503e 5dd1 8dbd 6b5e 5ebd d467 183e
000001a0: f40f 243d da81 a73d c62b ed3d 89d6 c4be
000001b0: a9bb 8dbd d75d 8dbe cbd9 1b3e 7b84 a2be
000001c0: 3745 9cbe 7dc7 12be 1401 a43e 5478 953e
000001d0: 2ce9 20be e07c 46be 1e43 c83d 65cb 50be
000001e0: 4e4f 32be d2f4 dfbd a9e9 553e 1046 203e
000001f0: eb3e 903e 7238 72bd 717f 17be 6985 23be
00000200: 86a5 183e 785f 893e e057 883e 6bc3 5dbe
00000210: 59a8 43be 97a6 bebd 1d9c cfbe a025 7f3d
00000220: da6b 84bc 224f 733e 1d15 4bbd b0da 1a3e
00000230: 460c f43d cc30 903e 3c54 9dbd 526a 3fbd
00000240: 7e0c 72be c6df 73be 11ff 0ebe c06c c23d
00000250: ee15 10be c813 b5be c3a6 04be fa3e 4fbe
00000260: de36 6d3e 15b2 81be 855a 23be bb5b dfbd
00000270: 719b 3abe 748d 193e 0847 41be 11ba 33be
00000280: c1bd aabe 2635 df3d 455f 3fbe 4449 8cbd
00000290: ebbb f3bd 68be 973e c3c8 8f3e 5f43 85be
000002a0: 947b f6bd 8534 11bc 4921 b5be 97e8 c2bd
000002b0: e5ca 183e 886b 8e3e dc7b 8c3e 34f6 98be
000002c0: 95b3 22be 36ec e83d 62b8 48bd 9f0c 68be
000002d0: e4d4 783c c41f abbe 2e56 2dbe 6a26 db3c
000002e0: 845c 7f3d b38e 833e 8c61 82bc 0ecc 5fbd
000002f0: f5ba 9c3e 959e 74be 7b1f 933e 61ab 9e3e
00000300: d8c3 993e 7618 853e 18b2 83be 6fb7 993d
00000310: 91ff 3abe 0127 af3e b224 643e e170 4ebe
00000320: 1d2c 80be f783 463e 01cd fd3d cace 6bbd
00000330: 5fc9 04be 4aa7 aabd 5a3a 88be efb0 9bbd
00000340: e1c8 653e 4fcf 9d3d 3c9c 5bbe f5e0 383e
00000350: 18e2 81be 5a1a 8abe b52a 4c3d 8865 ec3d
00000360: a41c c83c ab0d 1c3e 04d1 643e bcb6 9e3e
00000370: a587 b63e 1c1f c5bc 1f12 f03d 69ee 78be
00000380: a05d 09be ff5c bbbe 6a6e ea3d 3672 76be
00000390: 3707 20be 0235 413e 024f b53e 5fb0 803e
000003a0: a2a8 bebe d0dc 99be db8d 2fbe 7ee0 b23e
000003b0: 19cf c23e 8686 bfbe df34 4dbe e010 9b3e
000003c0: 4ff0 e4bd 2239 103c ac91 c63e 40fd 383d
000003d0: b86a b23d be47 bebc c2cc 76be 901c c8bd
000003e0: 67d4 7e3e bf93 8d3e c67c a6bd 4afc 2b3e
000003f0: 6fe1 df3c 3ed1 bd3b 03ac 5e3e 82aa 98be
-0.2180939 0.013634243 -0.1791359 -0.26943654 0.17017776 0.28404605 0.19255124 0.29207426
0.15819566 -0.09961016 -0.29267177 0.17562433 -0.025192633 -0.29996464 0.36882144 0.20044012
-0.2857504 0.28172126 -0.02470454 0.3360126 0.29585218 -0.35511678 -0.0654228 0.070707925
-0.18880212 0.2534247 -0.28131154 0.20872216 -0.08474579 -0.11768814 -0.010419472 0.26414984
-0.23298453 0.11991282 -0.13530898 -0.0786385 0.18670738 0.09484904 0.16238718 0.07887197
-0.106035575 0.20459187 -0.24791825 -0.021002783 -0.23720552 -0.17031586 0.024559902 -0.23125613
-0.019901175 -0.19405057 -0.18780577 0.25277567 0.40495348 -0.011890275 -0.09615836 0.24706268
0.24476938 -0.21886787 0.09778748 -0.40177298 0.14689307 -0.14944455 0.26551312 0.20051974
-0.09470864 0.31477293 0.05579121 0.19823787 -0.25867602 0.19370852 0.22026876 -0.006383062
0.2692108 -0.018802432 -0.08803244 0.40149292 0.08453431 -0.37008405 -0.057543077 -0.19468766
-0.16907611 -0.30208713 0.20351481 0.13144204 0.1373492 -0.08328645 -0.011264577 0.3062463
-0.0682621 0.16927953 0.062405247 -0.14644065 0.3796175 -0.31727627 -0.32729673 0.02135966
0.13250722 -0.26424444 -0.0928083 0.23590256 0.20399664 -0.069246985 -0.054289263 0.14883357
0.040054277 0.08179064 0.11580615 -0.38444927 -0.06920559 -0.27610657 0.152198 -0.317417
-0.30521557 -0.14333911 0.32032073 0.29193366 -0.15713948 -0.19383574 0.097784266 -0.20390089
-0.17413065 -0.10935368 0.20889916 0.15651727 0.28173003 -0.05913586 -0.14794709 -0.1596886
0.14906892 0.2683065 0.26629543 -0.21656577 -0.19107188 -0.09309118 -0.40548792 0.06229174
-0.016164709 0.23760656 -0.049580682 0.15122485 0.119164035 0.2816223 -0.07682082 -0.046732254
-0.23637578 -0.23815832 -0.13964488 0.09493399 -0.14070866 -0.35366654 -0.1295424 -0.20238867
0.23165461 -0.25331178 -0.15952499 -0.10906168 -0.18223359 0.14995366 -0.18874753 -0.17551447
-0.33347896 0.10898809 -0.18688686 -0.06849912 -0.11901077 0.29637456 0.28082857 -0.26027963
-0.120352894 -0.008862619 -0.35376957 -0.09517019 0.14921148 0.27816415 0.27438247 -0.29875338
-0.15888818 0.11373179 -0.049003966 -0.22661065 0.015187476 -0.33422673 -0.16927406 0.026751716
0.06234409 0.25694808 -0.015915655 -0.05463796 0.30611387 -0.23888619 0.28734955 0.30990127
0.3003223 0.25995225 -0.25721812 0.0750569 -0.18261553 0.34209445 0.22279623 -0.20160247
-0.25033656 0.19386278 0.12392617 -0.057570256 -0.12967442 -0.08332689 -0.2660702 -0.07602107
0.2243991 0.077055566 -0.21446317 0.18054564 -0.25367808 -0.2697323 0.049845416 0.11542803
0.02442772 0.15239589 0.22345358 0.3099879 0.35650364 -0.024062686 0.11722206 -0.24309696
-0.13414621 -0.36594388 0.11446841 -0.24067006 -0.15627752 0.18867877 0.3541184 0.2513456
-0.37238032 -0.3005128 -0.17143957 0.349369 0.38048628 -0.3740732 -0.200397 0.30286312
-0.11178648 0.008802684 0.38783014 0.045163393 0.08711761 -0.023227569 -0.24101546 -0.09771073
0.24885713 0.27651784 -0.081292674 0.1679546 0.027329175 0.005792766 0.21745305 -0.29817587

decoder.0.bias f4 [32]
00000000: 36db 45be 9026 923e 0460 8abe 4a63 0ebe
00000010: 929f b73c e514 983d 4e61 80bd 18e7 82be
00000020: 14e2 aabe a39d 943e 2859 60be 976f 2ebe
00000030: af44 9cbc f9e9 5a3e 7b4a e43d 9177 3d3e
00000040: fe26 84bb d9fe 3e3e 5763 53bd b3b4 6ebe
00000050: 447e 78be 0bc2 313e b83b adbe ecb3 c53d
00000060: fbab bfbd 60df 803e 82b0 0cbc 3cca 813e
00000070: c00f a2be 6370 9e3e f845 7a3e da00 a0be
-0.19321904 0.28545046 -0.2702638 -0.13905063 0.022414956 0.0742586 -0.062685594 -0.25566936
-0.3337561 0.29026517 -0.2190901 -0.17034756 -0.01907572 0.21378316 0.111470185 0.18502642
-0.0040329685 0.18651904 -0.05160841 -0.23311119 -0.24266917 0.17359178 -0.33834624 0.09653458
-0.093589745 0.25170422 -0.008587005 0.25349605 -0.3165264 0.3094512 0.24440753 -0.3125065

decoder.2.weight f4 [64, 32]
00000000: f782 5e3e 28f8 943d 45ed 38be 71d9 e13d
00000010: 9518 fdbd cd24 c2bc 3acc 1abe 5a7c 5e3b
00000020: f023 1d3d c11f 0bbe d73f 8c3d e4ca 8d3d
00000030: 1a7b b93d aa53 01bc 767b e73d 6780 96bd
00000040: 6397 65bd 58fe 3f3e ab06 65bd bf7f 413e
00000050: bd18 573e 2913 443e 5b18 333e 8679 e13d
00000060: 3e65 d13c 88d0 6bbc 2242 81bc f8c3 d33d
00000070: cd10 993d 5382 4d3d 7d38 45be b61f e9bd
00000080: 3407 dc3c e5d2 12be 3093 03be c97a 8bbd
00000090: c3e8 30be b23e 8dbc 838b cb3d 9240 303d
000000a0: e599 08bd 3f60 9c3c a5c1 a0bd 0057 e5bd
000000b0: 46bf 1bbd b29c aabc 8eae 16be e19c 22be
000000c0: 440b 0b3e 1abc 45be fa79 d03d fe52 153e
000000d0: 1a45 103d eed9 c3bd 32eb ebbd 5206 be3c
000000e0: a2b6 d73d 1d55 833d 7c30 8ebd e169 86bd
000000f0: 7408 0ebe 38d1 7e3c 7fca 143c d0b3 1ebb
00000100: bf41 153e 8b30 45be 0de0 1a3e 974f 9e3d
00000110: 8a2c 71bd 656a d1bd 1692 5f3e ccd9 26be
00000120: 0dae 42bd b67f cf3d 4e24 633d 4dd1 543e
00000130: 03d6 8fbd 2ec0 17bd d1e9 9b3d 35f7 2e3e
00000140: 8097 e6bd 6046 01be 00c3 523e df03 41bd
00000150: ad4c adbd 4da7 45be 8da5 943b 72cb 8c3d
00000160: e816 7fbd 5d9b 2dbd 4c8e 2dbe ba97 283e
00000170: 91e1 3cbe 3322 df3d 3767 6c3d 9f04 903d
00000180: cdf1 70bc 8d72 cabd 2d61 2fbd c9c5 ce3d
00000190: cefa 973d b484 113c ed6f 98bc d4e7 e3bd
000001a0: 26d1 e1bc 2fdf 16be 01ec 313e 93f9 c23d
000001b0: 061e 0abe e710 5e3d c0dd 06be 511b f5bc
000001c0: 94eb 48bd 18fb 82bd cc82 013d 700d 8c3c
000001d0: 5af6 023e 1c26 0e3c e7f4 443d 9614 3b3c
000001e0: d896 1f3e bdf3 a13c 7d04 a53d 6d27 e53d
000001f0: cb4f df3d 3a33 573e b74b 183d 84a9 33be
00000200: a191 1f3d 08b7 6cbd 478c 1e3e f9f2 46bd
00000210: 0533 3a3e b33b 47be cab9 17bb e07f acbd
00000220: 0752 0ebe 1a15 283e b693 36bd 62ce 073e
00000230: deac 16bd 7513 d0ba 637e 84bc 2f93 3f3d
00000240: 0cb1 9dbd ad4d b23d d5ba 163e 3263 43be
00000250: 4bd8 043e 737a 873d 1a21 7a3d 3012 1bbe
00000260: 3582 c13c b2c7 083e 4229 073d dc8d 2f3e
00000270: 5972 f3bc 1add 643e fe38 3d3e e91b c63b
00000280: 91b1 2b3d 5258 83bd 6c64 c9bd 9711 fc3d
00000290: 7cc3 b5bd 278b 5b3d f89a 6bbd 3995 95bc
000002a0: 35b9 42be 0546 b53c 616b d1bd 3d6e 543e
000002b0: 8a1a 463e a052 d93c a126 393e 6a9e 823b
000002c0: d729 e5bd 6003 d33d 179c 943d 87d1 34bb
000002d0: c63e 3abe 3ad2 6bbd a422 10be aaf4 223e
000002e0: bde4 8f3d 36a4 383d 49a5 a33b eafd 3f3d
000002f0: 510b 41be e5bb 533e 4634 243e 95fa 2dbe
00000300: bee6 40bd e754 a9bc d286 15be 5f6a a03d
00000310: 0a77 9fbd 6aec 17bd d21a 19bd c73c 51bd
00000320: 4dbe 0f3e b79e b83c 8ce5 1bbe 5b3b 273e
00000330: b4ee 0fbe 1d4c d73d 5dbb 0dbe 0539 06bd
00000340: 7b2b 08be c91c 313e 3514 3ebe 1f07 00be
00000350: 2e45 8abc 7217 a2bd 190b f63d 37ea 09bd
00000360: ec97 e73d 6663 39bd 5bcc 073d cae3 cdbc
00000370: f59a f8bc 8c04 edbd 9ab0 55bd e597 173e
00000380: c2ab a03d 159f 6cbd 18ef 1f3d 158c 78bc
00000390: cba5 bf3d 007a 26bd e2a9 02bd 2789 87bc
000003a0: c473 64bc 2e88 403d a2f6 b2ba 69fd ca3d
000003b0: cadb 4dbe 102e 183e 5a97 c03d 3fb8 9d3d
000003c0: f29d 3bbe 9792 39be b7c4 16bd bd79 95bd
000003d0: fcd2 0bbe 4ae8 d93c f50b 143e 7a54 15bb
000003e0: 0b54 ddbd e6a6 d43d 27dc b83d 8165 3abe
000003f0: a09c c63d 6d00 13bd a0aa a2bd f3bb 25be
0.21729647 0.072738945 -0.18059261 0.11027802 -0.12358204 -0.023699189 -0.15116969 0.003394863
0.03836435 -0.13586332 0.06848114 0.06923464 0.09056683 -0.007893482 0.11302845 -0.073487096
-0.056052577 0.18749368 -0.055914562 0.18896388 0.2100553 0.19147934 0.1748976 0.11009507
0.025560971 -0.014392979 -0.015778605 0.103401124 0.074739076 0.050173115 -0.1925983 -0.113830015
0.026858903 -0.14338262 -0.12849116 -0.06810529 -0.17276292 -0.01724181 0.09938719 0.04303033
-0.03334989 0.019088862 -0.07849435 -0.111982346 -0.03802421 -0.020826671 -0.14715025 -0.15880157
0.13578516 -0.19310036 0.10179515 0.1458244 0.03522215 -0.09563051 -0.11519469 0.023196373
0.10532881 0.064127184 -0.069428414 -0.065631635 -0.13870412 0.015552811 0.009081482 -0.0024216063
0.14575861 -0.19256799 0.15124531 0.07730024 -0.058880366 -0.10225371 0.21833071 -0.1629402
-0.04752927 0.10131781 0.055454545 0.20782967 -0.07023241 -0.03704851 0.07612956 0.1708649
-0.11259365 -0.12624502 0.20582199 -0.047122832 -0.0846189 -0.19302101 0.0045363368 0.068747416
-0.062277704 -0.042384494 -0.16948813 0.16464129 -0.18445422 0.10895195 0.05771562 0.070321314
-0.014706087 -0.0988513 -0.042817283 0.10096318 0.07420884 0.008881737 -0.018608058 -0.11128202
-0.02756555 -0.14733575 0.17375185 0.09520259 -0.13488016 0.054215338 -0.13170528 -0.029920252
-0.04905279 -0.063955486 0.03161888 0.017096251 0.12789288 0.008676078 0.04808512 0.011418482
0.15584886 0.019769544 0.08057497 0.111891605 0.10903891 0.21015635 0.037181582 -0.17545134
0.038957242 -0.05779174 0.15483199 -0.04857156 0.18183525 -0.19456367 -0.002315151 -0.08422828
-0.13898478 0.164143 -0.044574462 0.13262323 -0.036785953 -0.0015874939 -0.016173547 0.046771225
-0.07699785 0.08706222 0.14719708 -0.19080809 0.12973134 0.06615152 0.061066724 -0.15143657
0.023621658 0.13357428 0.03299833 0.17143959 -0.029717611 0.22349969 0.18478772 0.0060458076
0.041917387 -0.0641333 -0.09833607 0.123080425 -0.08875176 0.053599503 -0.057520837 -0.018259631
-0.19015963 0.022128114 -0.10225559 0.20745178 0.19346061 0.026528656 0.18081142 0.0039861696
-0.11189621 0.10303378 0.07256334 -0.0027590708 -0.18188009 -0.057573535 -0.14075714 0.15913644
0.0702605 0.04507848 0.0049940688 0.04687301 -0.18851973 0.20677145 0.16035566 -0.1699012
-0.047095053 -0.020670367 -0.14602211 0.07832789 -0.07786377 -0.037090696 -0.037379093 -0.051083352
0.14037438 0.022536619 -0.15224284 0.16331236 -0.14055902 0.10512564 -0.13841005 -0.03276922
-0.13297836 0.17296137 -0.18562396 -0.12502716 -0.01687869 -0.07914628 0.120138355 -0.03367063
0.11308274 -0.04526081 0.033153873 -0.025133032 -0.030347327 -0.11573133 -0.052170373 0.14804037
0.0784526 -0.0577689 0.039046377 -0.015170117 0.093577944 -0.040643692 -0.031900294 -0.016544892
-0.013943616 0.04700487 -0.0013653825 0.099116154 -0.20103374 0.14861321 0.09403868 0.07701158
-0.1832197 -0.18122326 -0.036808696 -0.0729861 -0.13654703 0.026600022 0.14457686 -0.0022785948
-0.108070455 0.10383396 0.09026366 -0.18202783 0.096978426 -0.035889078 -0.079427004 -0.16184978

decoder.2.bias f4 [64]
00000000: 8eb9 123e 5789 30be 7c2f 053e d184 cb3d
00000010: e9a7 0abe 52ae a0bd 364f dc3d 74cd 183e
00000020: a846 edbc 6eb0 05be a745 34bc 00e2 9fbd
00000030: a3a5 ed3c a8e0 573d 5b8d 33bd 0cd9 1dbb
00000040: a0f1 04be fa8f 8dbd a832 f0bd 4e74 e9bd
00000050: 6811 07bd 0747 64bc a5c3 18be 1cbc 81bd
00000060: 37e4 b73c 171d 80bd ddc0 1e3c 678b c3bd
00000070: fc98 0abd 07df 073d 1bac 7e3d b9d6 37bd
00000080: 7ff4 0cbe 3266 4f3d 66ce f8bd ce5b 24be
00000090: 519e 833b b8fa 2e3d 609d 81bc c539 5d3d
000000a0: 389a f53d 1eac 41be fce7 06be 47eb 13be
000000b0: 1d30 8e3c 88aa 37be c5af 903d 5996 363c
000000c0: b6b0 09be ac57 953c 161e a83c e5c5 9abd
000000d0: 412e 24bb b2f2 0cbe ff5a da3b 7e65 203d
000000e0: 90d3 32bc a384 21be 61be 063e ad8d 293e
000000f0: dc0e 45bd e46e 403e 3d27 5f3e 43b2 d23d
0.14328596 -0.17239891 0.13006395 0.09937442 -0.13540615 -0.07845749 0.10757296 0.14922124
-0.028964356 -0.13055584 -0.011002935 -0.07806778 0.029009646 0.052704483 -0.04383598 -0.002408567
-0.12982798 -0.06912227 -0.11728412 -0.113991365 -0.032975584 -0.01393295 -0.14918382 -0.06334707
0.022447689 -0.062555484 0.009689537 -0.09548073 -0.033837304 0.03317168 0.06217585 -0.04488251
-0.13765143 0.05063457 -0.121487424 -0.16050646 0.0040166755 0.042719573 -0.015822113 0.05401017
0.119923055 -0.18913314 -0.13174433 -0.1444522 0.017356927 -0.17936146 0.070647754 0.011144244
-0.13446316 0.018230282 0.020522159 -0.07557277 -0.0025051984 -0.13764456 0.0066636796 0.03915929
-0.010914698 -0.15773253 0.13158561 0.16557951 -0.048109874 0.18792301 0.21792312 0.10287907

decoder.4.weight f4 [10, 64]
00000000: c177 e6bd b4b4 d23d 21b9 403e 388a ae3d
00000010: e51e 1e3e 9cfc 083e 32a8 86bd a8e9 9bbd
00000020: 8d63 c23d 817b 08bd 5bea aebd 42fc 0e3e
00000030: 3b17 32be 6b81 debb a9e5 6abd acbf 76bc
00000040: 00ec d4bc eab9 c83d 085b 0cbe f936 a83d
00000050: d6ab 133d b710 143e 2812 1539 54fc 913b
00000060: ac00 783c 8a55 be3d 9a47 87bc ee5a 8fbd
00000070: 75ce adbd 9366 08be 5f5c 9c3d d2a1 ad3b
00000080: 70f8 cf3d 991f a1bd b53f f83c 957c c9bd
00000090: a001 dabd c19f 453e 4b28 1f3e 1e3a eebd
000000a0: cc63 c8bd 3285 b3bd 483d 673d ee0d 75ba
000000b0: f916 a0bd 8d1d d5bd 289f a8ba 13e9 d2bd
000000c0: 741e 09bc 3069 ae3d fdd7 413d 503b 6bbd
000000d0: dea4 383d 5199 913c e94a 663d 1202 313e
000000e0: bb54 f0bd dc1d 013e 054d ad3b 5a40 02be
000000f0: b645 503d c1d5 69bd efea 173d 942f 9bbd
00000100: dcec 053d f09b 7e3d ede6 263d 9cce 0fbd
00000110: 7efc cd3d b47f 0a3e 0a60 08bd fd06 ec3c
00000120: e9a1 abbc 6eed d73d be61 093d d88c 08bd
00000130: 2780 d4bd 34e4 dcbd 35eb a1bd c623 7fbd
00000140: e7b7 9bbc f3b1 f93c aa82 d73a b0ca b7bd
00000150: de0e 133e fe93 f53d f2d1 893d bf53 093d
00000160: 9d34 973d 5ed5 c13d 74f6 11bd f40c 9bbd
00000170: 4061 34bd 0712 f4bc 774a a13d 322f ea3d
00000180: 9a36 8a3c 5310 e03d 3fec fe3c da33 873d
00000190: a6f1 b13c 7daa 0c3e 55f7 483e 6c44 ad3d
000001a0: 1d45 0ebe f27c a63d 3954 d2bc c12d be3d
000001b0: 73cb cd3c 5580 b03d 4431 b0bd 6682 a0bd
000001c0: bedd 8cbd 7f6f 91bd b867 fe3d 2e2b d23b
000001d0: 57a1 043e 6e24 8e3d 459a eabc e115 cb3b
000001e0: b33b 9dbd e7b5 40bc 4a76 a8bd 63a6 efbd
000001f0: 2320 f3bd 8a35 7b3d db63 2dbe 30d4 18be
00000200: 2341 fdbd fb55 d83c 24ea 253e 148e 36bc
00000210: 3522 7fbc e582 7abb 5ec9 823d a9cd cd3a
00000220: 535c e23d a58d e33d 3853 bbbb c101 063e
00000230: c06e a5bd 7c38 86bd 6cbc c3bd ebee 15be
00000240: 6990 9cbd 4ac4 a5bd 28f6 b5bd 5318 0e3c
00000250: d7b7 bf3d 8b01 803d 76db 24bd 7f2c 5ebd
00000260: 96a2 edbd 88bc cd3d 2a62 fd3d 5646 333d
00000270: 7822 19be 7975 20be 7e33 e6bd 8909 f13d
00000280: 750f cf3d 5db0 003e 4f3b 32bd 9c9e 9fbd
00000290: 9fa7 d6bd 4651 4f3d ad78 8f3b 2532 a6bd
000002a0: d974 96bd 98ac 7a3d 5970 203d 81fe ca3d
000002b0: 788b 09be 9fb7 793d 1928 fb3d 90d4 0cbe
000002c0: af34 24bc c568 963c 205d 633d 9ca3 bebd
000002d0: a2d5 09bb 6ded 313d cd10 ab3d 4fee 023e
000002e0: 547e 41bd 3862 ec3d 2740 dc3d ce05 12be
000002f0: 2ffa 0cbd c5ad 4cbd de59 5ebd 8c51 29be
00000300: 35c8 54bd 3f27 8b3c a9c2 e53d 3e54 3a3d
00000310: 32f0 263e c579 583d 7a76 6abc c565 2e3d
00000320: a22d 94bc 1a72 c53d 9e8f e9bd 620f 94bd
00000330: 0003 e5bd dda3 f7bd 74cd 01bd 10d8 abbd
00000340: 9993 8d3c 7861 febc 2a42 b23c 9216 b43d
00000350: 5110 fc3d 54ff 043e c89f 003e 5364 2e3c
00000360: e5e0 913d 645e aabd aaef bb3d 78b3 553d
00000370: 5d99 cfbc 2fae 24bd cba8 ca3d fb9c 883d
00000380: 2ff5 03be 1509 6fbd 7ac2 87bd 5c73 623d
00000390: a701 05be 93cf 0a3e 3f3a 90bc 5f50 1cbd
000003a0: bb65 b4bd bc4e 443d 61d3 58bc 3326 02be
000003b0: 6600 4fbd cb9e e83d 00d8 5d3d 75ad 98bd
000003c0: e8bf 91bd 821e 32bd 603c 4e3d e6b8 e1bd
000003d0: acc2 c33d 0800 d03d 798d f13d 5af3 8b3c
000003e0: 06d9 1a3d 95e3 f7bb 9f3c 3bbd bdbd 24be
000003f0: 323f b8bd 8a71 e7bd 4226 abbb 6e06 bbbd
-0.1125331 0.10288373 0.18820621 0.08522457 0.15441473 0.13377613 -0.065750495 -0.07612926
0.09491644 -0.033320908 -0.085407935 0.13963416 -0.17391674 -0.00679033 -0.057347927 -0.015060347
-0.02599144 0.09801085 -0.137066 0.0821361 0.036052547 0.14459501 0.00014216511 0.0044551287
0.015136879 0.09293659 -0.016513634 -0.06999765 -0.08486644 -0.13320379 0.07634806 0.0052988315
0.101548076 -0.07867355 0.030303815 -0.09838215 -0.10644841 0.19299223 0.15542714 -0.11632179
-0.0978466 -0.08765639 0.056454927 -0.0009348084 -0.07816882 -0.10406027 -0.0012864815 -0.10298362
-0.008369077 0.08516157 0.047325123 -0.05742961 0.045079105 0.017773302 0.056223784 0.17285946
-0.11734911 0.12609047 0.0052887225 -0.1271986 0.05084773 -0.057088617 0.037089285 -0.07577434
0.03269659 0.062160432 0.04074757 -0.035109147 0.10057925 0.13525277 -0.033294715 0.028811926
-0.020951228 0.10543333 0.03354048 -0.033337444 -0.103760056 -0.10785714 -0.0790619 -0.062289976
-0.01900859 0.03048036 0.0016442139 -0.089742064 0.1436114 0.11991118 0.06729497 0.033527132
0.07383082 0.09464525 -0.035635427 -0.0757083 -0.044038057 -0.029793752 0.07875531 0.11434783
0.01687174 0.109406136 0.03111851 0.06601687 0.021721672 0.13736911 0.196256 0.08460316
-0.13893552 0.081293 -0.025674926 0.092860706 0.025121426 0.086182274 -0.08603147 -0.078373715
-0.068782315 -0.07101344 0.124221265 0.006413839 0.12952171 0.06940542 -0.028638015 0.0061976765
-0.07677402 -0.011762119 -0.08225687 -0.117016576 -0.11871364 0.061330356 -0.16932623 -0.14924693
-0.123659395 0.026408186 0.16202599 -0.0111422725 -0.01557212 -0.0038224992 0.06386064 0.001570155
0.11052766 0.11111001 -0.0057167076 0.13086607 -0.080777645 -0.06553742 -0.09557423 -0.14641921
-0.076447316 -0.0809408 -0.08884841 0.0086727915 0.093612365 0.06250294 -0.040248357 -0.054241654
-0.116032764 0.10045725 0.12372239 0.04376825 -0.14954555 -0.15669812 -0.1124029 0.11769397
0.1011037 0.12567277 -0.043513592 -0.07793924 -0.1048119 0.050614618 0.0043783993 -0.08115033
-0.07346506 0.061199754 0.039169643 0.09911824 -0.1343211 0.06096613 0.122635074 -0.13752961
-0.010022326 0.018360505 0.055508733 -0.0930855 -0.0021031876 0.043439317 0.08352814 0.1278622
-0.047239617 0.11542171 0.107544236 -0.14260027 -0.03441828 -0.049970407 -0.054284923 -0.16535014
-0.051948745 0.016986487 0.11218769 0.045490496 0.16302565 0.052850503 -0.014310474 0.042577524
-0.018088166 0.09640904 -0.11404346 -0.072294965 -0.11182213 -0.12091801 -0.031690076 -0.0839082
0.017282294 -0.031052336 0.021760065 0.087933674 0.123077996 0.12988025 0.12560952 0.010644036
0.07122973 -0.08318785 0.09176572 0.052173108 -0.025341684 -0.040205177 0.09895476 0.06670567
-0.12886499 -0.05835827 -0.0662889 0.055285797 -0.12988912 0.13555746 -0.017605899 -0.038162585
-0.08808466 0.04792665 -0.01323399 -0.12709884 -0.05053749 0.11358412 0.05416107 -0.07454959
-0.07116681 -0.043486126 0.050350547 -0.11021595 0.09558615 0.10156256 0.11794562 0.017083813
0.037804626 -0.0075649717 -0.04571211 -0.16088004 -0.089964285 -0.11300953 -0.0052230665 -0.09132086

decoder.4.bias f4 [10]
00000000: e974 eabd 5030 d6bd c1e0 b33d 7553 263c
00000010: 1fb7 58bd 4f27 a4bd 3c65 a5bd f2c0 0bbe
00000020: 553f 4fbd fe9e 5dbd
-0.1144808 -0.10458434 0.08783103 0.010151734 -0.052909013 -0.0801531 -0.080759495 -0.13647822
-0.050597508 -0.054106705
